…
Java HotSpot(TM) 64-Bit Server VM warning: You have loaded library /home/peifeng/tools/opencv/stage/lib/libopencv_core.so.3.1.0 which might have disabled stack guard. The VM will try to fix the stack guard now.
It's highly recommended that you fix the library with 'execstack -c <libfile>', or link it with '-z noexecstack'.
WARNING: Logging before InitGoogleLogging() is written to STDERR
I0918 01:54:01.499716 14610 net.cpp:49] Initializing net from parameters: 
name: "GoogleNet"
state {
  phase: TEST
}
layer {
  name: "data"
  type: "Input"
  top: "data"
  input_param {
    shape {
      dim: 10
      dim: 3
      dim: 224
      dim: 224
    }
  }
}
layer {
  name: "conv1/7x7_s2"
  type: "Convolution"
  bottom: "data"
  top: "conv1/7x7_s2"
  param {
    lr_mult: 1
    decay_mult: 1
  }
  param {
    lr_mult: 2
    decay_mult: 0
  }
  convolution_param {
    num_output: 64
    pad: 3
    kernel_size: 7
    stride: 2
    weight_filler {
      type: "xavier"
      std: 0.1
    }
    bias_filler {
      type: "constant"
      value: 0.2
    }
  }
}
layer {
  name: "conv1/relu_7x7"
  type: "ReLU"
  bottom: "conv1/7x7_s2"
  top: "conv1/7x7_s2"
}
layer {
  name: "pool1/3x3_s2"
  type: "Pooling"
  bottom: "conv1/7x7_s2"
  top: "pool1/3x3_s2"
  pooling_param {
    pool: MAX
    kernel_size: 3
    stride: 2
  }
}
layer {
  name: "pool1/norm1"
  type: "LRN"
  bottom: "pool1/3x3_s2"
  top: "pool1/norm1"
  lrn_param {
    local_size: 5
    alpha: 0.0001
    beta: 0.75
  }
}
layer {
  name: "conv2/3x3_reduce"
  type: "Convolution"
  bottom: "pool1/norm1"
  top: "conv2/3x3_reduce"
  param {
    lr_mult: 1
    decay_mult: 1
  }
  param {
    lr_mult: 2
    decay_mult: 0
  }
  convolution_param {
    num_output: 64
    kernel_size: 1
    weight_filler {
      type: "xavier"
      std: 0.1
    }
    bias_filler {
      type: "constant"
      value: 0.2
    }
  }
}
layer {
  name: "conv2/relu_3x3_reduce"
  type: "ReLU"
  bottom: "conv2/3x3_reduce"
  top: "conv2/3x3_reduce"
}
layer {
  name: "conv2/3x3"
  type: "Convolution"
  bottom: "conv2/3x3_reduce"
  top: "conv2/3x3"
  param {
    lr_mult: 1
    decay_mult: 1
  }
  param {
    lr_mult: 2
    decay_mult: 0
  }
  convolution_param {
    num_output: 192
    pad: 1
    kernel_size: 3
    weight_filler {
      type: "xavier"
      std: 0.03
    }
    bias_filler {
      type: "constant"
      value: 0.2
    }
  }
}
layer {
  name: "conv2/relu_3x3"
  type: "ReLU"
  bottom: "conv2/3x3"
  top: "conv2/3x3"
}
layer {
  name: "conv2/norm2"
  type: "LRN"
  bottom: "conv2/3x3"
  top: "conv2/norm2"
  lrn_param {
    local_size: 5
    alpha: 0.0001
    beta: 0.75
  }
}
layer {
  name: "pool2/3x3_s2"
  type: "Pooling"
  bottom: "conv2/norm2"
  top: "pool2/3x3_s2"
  pooling_param {
    pool: MAX
    kernel_size: 3
    stride: 2
  }
}
layer {
  name: "inception_3a/1x1"
  type: "Convolution"
  bottom: "pool2/3x3_s2"
  top: "inception_3a/1x1"
  param {
    lr_mult: 1
    decay_mult: 1
  }
  param {
    lr_mult: 2
    decay_mult: 0
  }
  convolution_param {
    num_output: 64
    kernel_size: 1
    weight_filler {
      type: "xavier"
      std: 0.03
    }
    bias_filler {
      type: "constant"
      value: 0.2
    }
  }
}
layer {
  name: "inception_3a/relu_1x1"
  type: "ReLU"
  bottom: "inception_3a/1x1"
  top: "inception_3a/1x1"
}
layer {
  name: "inception_3a/3x3_reduce"
  type: "Convolution"
  bottom: "pool2/3x3_s2"
  top: "inception_3a/3x3_reduce"
  param {
    lr_mult: 1
    decay_mult: 1
  }
  param {
    lr_mult: 2
    decay_mult: 0
  }
  convolution_param {
    num_output: 96
    kernel_size: 1
    weight_filler {
      type: "xavier"
      std: 0.09
    }
    bias_filler {
      type: "constant"
      value: 0.2
    }
  }
}
layer {
  name: "inception_3a/relu_3x3_reduce"
  type: "ReLU"
  bottom: "inception_3a/3x3_reduce"
  top: "inception_3a/3x3_reduce"
}
layer {
  name: "inception_3a/3x3"
  type: "Convolution"
  bottom: "inception_3a/3x3_reduce"
  top: "inception_3a/3x3"
  param {
    lr_mult: 1
    decay_mult: 1
  }
  param {
    lr_mult: 2
    decay_mult: 0
  }
  convolution_param {
    num_output: 128
    pad: 1
    kernel_size: 3
    weight_filler {
      type: "xavier"
      std: 0.03
    }
    bias_filler {
      type: "constant"
      value: 0.2
    }
  }
}
layer {
  name: "inception_3a/relu_3x3"
  type: "ReLU"
  bottom: "inception_3a/3x3"
  top: "inception_3a/3x3"
}
layer {
  name: "inception_3a/5x5_reduce"
  type: "Convolution"
  bottom: "pool2/3x3_s2"
  top: "inception_3a/5x5_reduce"
  param {
    lr_mult: 1
    decay_mult: 1
  }
  param {
    lr_mult: 2
    decay_mult: 0
  }
  convolution_param {
    num_output: 16
    kernel_size: 1
    weight_filler {
      type: "xavier"
      std: 0.2
    }
    bias_filler {
      type: "constant"
      value: 0.2
    }
  }
}
layer {
  name: "inception_3a/relu_5x5_reduce"
  type: "ReLU"
  bottom: "inception_3a/5x5_reduce"
  top: "inception_3a/5x5_reduce"
}
layer {
  name: "inception_3a/5x5"
  type: "Convolution"
  bottom: "inception_3a/5x5_reduce"
  top: "inception_3a/5x5"
  param {
    lr_mult: 1
    decay_mult: 1
  }
  param {
    lr_mult: 2
    decay_mult: 0
  }
  convolution_param {
    num_output: 32
    pad: 2
    kernel_size: 5
    weight_filler {
      type: "xavier"
      std: 0.03
    }
    bias_filler {
      type: "constant"
      value: 0.2
    }
  }
}
layer {
  name: "inception_3a/relu_5x5"
  type: "ReLU"
  bottom: "inception_3a/5x5"
  top: "inception_3a/5x5"
}
layer {
  name: "inception_3a/pool"
  type: "Pooling"
  bottom: "pool2/3x3_s2"
  top: "inception_3a/pool"
  pooling_param {
    pool: MAX
    kernel_size: 3
    stride: 1
    pad: 1
  }
}
layer {
  name: "inception_3a/pool_proj"
  type: "Convolution"
  bottom: "inception_3a/pool"
  top: "inception_3a/pool_proj"
  param {
    lr_mult: 1
    decay_mult: 1
  }
  param {
    lr_mult: 2
    decay_mult: 0
  }
  convolution_param {
    num_output: 32
    kernel_size: 1
    weight_filler {
      type: "xavier"
      std: 0.1
    }
    bias_filler {
      type: "constant"
      value: 0.2
    }
  }
}
layer {
  name: "inception_3a/relu_pool_proj"
  type: "ReLU"
  bottom: "inception_3a/pool_proj"
  top: "inception_3a/pool_proj"
}
layer {
  name: "inception_3a/output"
  type: "Concat"
  bottom: "inception_3a/1x1"
  bottom: "inception_3a/3x3"
  bottom: "inception_3a/5x5"
  bottom: "inception_3a/pool_proj"
  top: "inception_3a/output"
}
layer {
  name: "inception_3b/1x1"
  type: "Convolution"
  bottom: "inception_3a/output"
  top: "inception_3b/1x1"
  param {
    lr_mult: 1
    decay_mult: 1
  }
  param {
    lr_mult: 2
    decay_mult: 0
  }
  convolution_param {
    num_output: 128
    kernel_size: 1
    weight_filler {
      type: "xavier"
      std: 0.03
    }
    bias_filler {
      type: "constant"
      value: 0.2
    }
  }
}
layer {
  name: "inception_3b/relu_1x1"
  type: "ReLU"
  bottom: "inception_3b/1x1"
  top: "inception_3b/1x1"
}
layer {
  name: "inception_3b/3x3_reduce"
  type: "Convolution"
  bottom: "inception_3a/output"
  top: "inception_3b/3x3_reduce"
  param {
    lr_mult: 1
    decay_mult: 1
  }
  param {
    lr_mult: 2
    decay_mult: 0
  }
  convolution_param {
    num_output: 128
    kernel_size: 1
    weight_filler {
      type: "xavier"
      std: 0.09
    }
    bias_filler {
      type: "constant"
      value: 0.2
    }
  }
}
layer {
  name: "inception_3b/relu_3x3_reduce"
  type: "ReLU"
  bottom: "inception_3b/3x3_reduce"
  top: "inception_3b/3x3_reduce"
}
layer {
  name: "inception_3b/3x3"
  type: "Convolution"
  bottom: "inception_3b/3x3_reduce"
  top: "inception_3b/3x3"
  param {
    lr_mult: 1
    decay_mult: 1
  }
  param {
    lr_mult: 2
    decay_mult: 0
  }
  convolution_param {
    num_output: 192
    pad: 1
    kernel_size: 3
    weight_filler {
      type: "xavier"
      std: 0.03
    }
    bias_filler {
      type: "constant"
      value: 0.2
    }
  }
}
layer {
  name: "inception_3b/relu_3x3"
  type: "ReLU"
  bottom: "inception_3b/3x3"
  top: "inception_3b/3x3"
}
layer {
  name: "inception_3b/5x5_reduce"
  type: "Convolution"
  bottom: "inception_3a/output"
  top: "inception_3b/5x5_reduce"
  param {
    lr_mult: 1
    decay_mult: 1
  }
  param {
    lr_mult: 2
    decay_mult: 0
  }
  convolution_param {
    num_output: 32
    kernel_size: 1
    weight_filler {
      type: "xavier"
      std: 0.2
    }
    bias_filler {
      type: "constant"
      value: 0.2
    }
  }
}
layer {
  name: "inception_3b/relu_5x5_reduce"
  type: "ReLU"
  bottom: "inception_3b/5x5_reduce"
  top: "inception_3b/5x5_reduce"
}
layer {
  name: "inception_3b/5x5"
  type: "Convolution"
  bottom: "inception_3b/5x5_reduce"
  top: "inception_3b/5x5"
  param {
    lr_mult: 1
    decay_mult: 1
  }
  param {
    lr_mult: 2
    decay_mult: 0
  }
  convolution_param {
    num_output: 96
    pad: 2
    kernel_size: 5
    weight_filler {
      type: "xavier"
      std: 0.03
    }
    bias_filler {
      type: "constant"
      value: 0.2
    }
  }
}
layer {
  name: "inception_3b/relu_5x5"
  type: "ReLU"
  bottom: "inception_3b/5x5"
  top: "inception_3b/5x5"
}
layer {
  name: "inception_3b/pool"
  type: "Pooling"
  bottom: "inception_3a/output"
  top: "inception_3b/pool"
  pooling_param {
    pool: MAX
    kernel_size: 3
    stride: 1
    pad: 1
  }
}
layer {
  name: "inception_3b/pool_proj"
  type: "Convolution"
  bottom: "inception_3b/pool"
  top: "inception_3b/pool_proj"
  param {
    lr_mult: 1
    decay_mult: 1
  }
  param {
    lr_mult: 2
    decay_mult: 0
  }
  convolution_param {
    num_output: 64
    kernel_size: 1
    weight_filler {
      type: "xavier"
      std: 0.1
    }
    bias_filler {
      type: "constant"
      value: 0.2
    }
  }
}
layer {
  name: "inception_3b/relu_pool_proj"
  type: "ReLU"
  bottom: "inception_3b/pool_proj"
  top: "inception_3b/pool_proj"
}
layer {
  name: "inception_3b/output"
  type: "Concat"
  bottom: "inception_3b/1x1"
  bottom: "inception_3b/3x3"
  bottom: "inception_3b/5x5"
  bottom: "inception_3b/pool_proj"
  top: "inception_3b/output"
}
layer {
  name: "pool3/3x3_s2"
  type: "Pooling"
  bottom: "inception_3b/output"
  top: "pool3/3x3_s2"
  pooling_param {
    pool: MAX
    kernel_size: 3
    stride: 2
  }
}
layer {
  name: "inception_4a/1x1"
  type: "Convolution"
  bottom: "pool3/3x3_s2"
  top: "inception_4a/1x1"
  param {
    lr_mult: 1
    decay_mult: 1
  }
  param {
    lr_mult: 2
    decay_mult: 0
  }
  convolution_param {
    num_output: 192
    kernel_size: 1
    weight_filler {
      type: "xavier"
      std: 0.03
    }
    bias_filler {
      type: "constant"
      value: 0.2
    }
  }
}
layer {
  name: "inception_4a/relu_1x1"
  type: "ReLU"
  bottom: "inception_4a/1x1"
  top: "inception_4a/1x1"
}
layer {
  name: "inception_4a/3x3_reduce"
  type: "Convolution"
  bottom: "pool3/3x3_s2"
  top: "inception_4a/3x3_reduce"
  param {
    lr_mult: 1
    decay_mult: 1
  }
  param {
    lr_mult: 2
    decay_mult: 0
  }
  convolution_param {
    num_output: 96
    kernel_size: 1
    weight_filler {
      type: "xavier"
      std: 0.09
    }
    bias_filler {
      type: "constant"
      value: 0.2
    }
  }
}
layer {
  name: "inception_4a/relu_3x3_reduce"
  type: "ReLU"
  bottom: "inception_4a/3x3_reduce"
  top: "inception_4a/3x3_reduce"
}
layer {
  name: "inception_4a/3x3"
  type: "Convolution"
  bottom: "inception_4a/3x3_reduce"
  top: "inception_4a/3x3"
  param {
    lr_mult: 1
    decay_mult: 1
  }
  param {
    lr_mult: 2
    decay_mult: 0
  }
  convolution_param {
    num_output: 208
    pad: 1
    kernel_size: 3
    weight_filler {
      type: "xavier"
      std: 0.03
    }
    bias_filler {
      type: "constant"
      value: 0.2
    }
  }
}
layer {
  name: "inception_4a/relu_3x3"
  type: "ReLU"
  bottom: "inception_4a/3x3"
  top: "inception_4a/3x3"
}
layer {
  name: "inception_4a/5x5_reduce"
  type: "Convolution"
  bottom: "pool3/3x3_s2"
  top: "inception_4a/5x5_reduce"
  param {
    lr_mult: 1
    decay_mult: 1
  }
  param {
    lr_mult: 2
    decay_mult: 0
  }
  convolution_param {
    num_output: 16
    kernel_size: 1
    weight_filler {
      type: "xavier"
      std: 0.2
    }
    bias_filler {
      type: "constant"
      value: 0.2
    }
  }
}
layer {
  name: "inception_4a/relu_5x5_reduce"
  type: "ReLU"
  bottom: "inception_4a/5x5_reduce"
  top: "inception_4a/5x5_reduce"
}
layer {
  name: "inception_4a/5x5"
  type: "Convolution"
  bottom: "inception_4a/5x5_reduce"
  top: "inception_4a/5x5"
  param {
    lr_mult: 1
    decay_mult: 1
  }
  param {
    lr_mult: 2
    decay_mult: 0
  }
  convolution_param {
    num_output: 48
    pad: 2
    kernel_size: 5
    weight_filler {
      type: "xavier"
      std: 0.03
    }
    bias_filler {
      type: "constant"
      value: 0.2
    }
  }
}
layer {
  name: "inception_4a/relu_5x5"
  type: "ReLU"
  bottom: "inception_4a/5x5"
  top: "inception_4a/5x5"
}
layer {
  name: "inception_4a/pool"
  type: "Pooling"
  bottom: "pool3/3x3_s2"
  top: "inception_4a/pool"
  pooling_param {
    pool: MAX
    kernel_size: 3
    stride: 1
    pad: 1
  }
}
layer {
  name: "inception_4a/pool_proj"
  type: "Convolution"
  bottom: "inception_4a/pool"
  top: "inception_4a/pool_proj"
  param {
    lr_mult: 1
    decay_mult: 1
  }
  param {
    lr_mult: 2
    decay_mult: 0
  }
  convolution_param {
    num_output: 64
    kernel_size: 1
    weight_filler {
      type: "xavier"
      std: 0.1
    }
    bias_filler {
      type: "constant"
      value: 0.2
    }
  }
}
layer {
  name: "inception_4a/relu_pool_proj"
  type: "ReLU"
  bottom: "inception_4a/pool_proj"
  top: "inception_4a/pool_proj"
}
layer {
  name: "inception_4a/output"
  type: "Concat"
  bottom: "inception_4a/1x1"
  bottom: "inception_4a/3x3"
  bottom: "inception_4a/5x5"
  bottom: "inception_4a/pool_proj"
  top: "inception_4a/output"
}
layer {
  name: "inception_4b/1x1"
  type: "Convolution"
  bottom: "inception_4a/output"
  top: "inception_4b/1x1"
  param {
    lr_mult: 1
    decay_mult: 1
  }
  param {
    lr_mult: 2
    decay_mult: 0
  }
  convolution_param {
    num_output: 160
    kernel_size: 1
    weight_filler {
      type: "xavier"
      std: 0.03
    }
    bias_filler {
      type: "constant"
      value: 0.2
    }
  }
}
layer {
  name: "inception_4b/relu_1x1"
  type: "ReLU"
  bottom: "inception_4b/1x1"
  top: "inception_4b/1x1"
}
layer {
  name: "inception_4b/3x3_reduce"
  type: "Convolution"
  bottom: "inception_4a/output"
  top: "inception_4b/3x3_reduce"
  param {
    lr_mult: 1
    decay_mult: 1
  }
  param {
    lr_mult: 2
    decay_mult: 0
  }
  convolution_param {
    num_output: 112
    kernel_size: 1
    weight_filler {
      type: "xavier"
      std: 0.09
    }
    bias_filler {
      type: "constant"
      value: 0.2
    }
  }
}
layer {
  name: "inception_4b/relu_3x3_reduce"
  type: "ReLU"
  bottom: "inception_4b/3x3_reduce"
  top: "inception_4b/3x3_reduce"
}
layer {
  name: "inception_4b/3x3"
  type: "Convolution"
  bottom: "inception_4b/3x3_reduce"
  top: "inception_4b/3x3"
  param {
    lr_mult: 1
    decay_mult: 1
  }
  param {
    lr_mult: 2
    decay_mult: 0
  }
  convolution_param {
    num_output: 224
    pad: 1
    kernel_size: 3
    weight_filler {
      type: "xavier"
      std: 0.03
    }
    bias_filler {
      type: "constant"
      value: 0.2
    }
  }
}
layer {
  name: "inception_4b/relu_3x3"
  type: "ReLU"
  bottom: "inception_4b/3x3"
  top: "inception_4b/3x3"
}
layer {
  name: "inception_4b/5x5_reduce"
  type: "Convolution"
  bottom: "inception_4a/output"
  top: "inception_4b/5x5_reduce"
  param {
    lr_mult: 1
    decay_mult: 1
  }
  param {
    lr_mult: 2
    decay_mult: 0
  }
  convolution_param {
    num_output: 24
    kernel_size: 1
    weight_filler {
      type: "xavier"
      std: 0.2
    }
    bias_filler {
      type: "constant"
      value: 0.2
    }
  }
}
layer {
  name: "inception_4b/relu_5x5_reduce"
  type: "ReLU"
  bottom: "inception_4b/5x5_reduce"
  top: "inception_4b/5x5_reduce"
}
layer {
  name: "inception_4b/5x5"
  type: "Convolution"
  bottom: "inception_4b/5x5_reduce"
  top: "inception_4b/5x5"
  param {
    lr_mult: 1
    decay_mult: 1
  }
  param {
    lr_mult: 2
    decay_mult: 0
  }
  convolution_param {
    num_output: 64
    pad: 2
    kernel_size: 5
    weight_filler {
      type: "xavier"
      std: 0.03
    }
    bias_filler {
      type: "constant"
      value: 0.2
    }
  }
}
layer {
  name: "inception_4b/relu_5x5"
  type: "ReLU"
  bottom: "inception_4b/5x5"
  top: "inception_4b/5x5"
}
layer {
  name: "inception_4b/pool"
  type: "Pooling"
  bottom: "inception_4a/output"
  top: "inception_4b/pool"
  pooling_param {
    pool: MAX
    kernel_size: 3
    stride: 1
    pad: 1
  }
}
layer {
  name: "inception_4b/pool_proj"
  type: "Convolution"
  bottom: "inception_4b/pool"
  top: "inception_4b/pool_proj"
  param {
    lr_mult: 1
    decay_mult: 1
  }
  param {
    lr_mult: 2
    decay_mult: 0
  }
  convolution_param {
    num_output: 64
    kernel_size: 1
    weight_filler {
      type: "xavier"
      std: 0.1
    }
    bias_filler {
      type: "constant"
      value: 0.2
    }
  }
}
layer {
  name: "inception_4b/relu_pool_proj"
  type: "ReLU"
  bottom: "inception_4b/pool_proj"
  top: "inception_4b/pool_proj"
}
layer {
  name: "inception_4b/output"
  type: "Concat"
  bottom: "inception_4b/1x1"
  bottom: "inception_4b/3x3"
  bottom: "inception_4b/5x5"
  bottom: "inception_4b/pool_proj"
  top: "inception_4b/output"
}
layer {
  name: "inception_4c/1x1"
  type: "Convolution"
  bottom: "inception_4b/output"
  top: "inception_4c/1x1"
  param {
    lr_mult: 1
    decay_mult: 1
  }
  param {
    lr_mult: 2
    decay_mult: 0
  }
  convolution_param {
    num_output: 128
    kernel_size: 1
    weight_filler {
      type: "xavier"
      std: 0.03
    }
    bias_filler {
      type: "constant"
      value: 0.2
    }
  }
}
layer {
  name: "inception_4c/relu_1x1"
  type: "ReLU"
  bottom: "inception_4c/1x1"
  top: "inception_4c/1x1"
}
layer {
  name: "inception_4c/3x3_reduce"
  type: "Convolution"
  bottom: "inception_4b/output"
  top: "inception_4c/3x3_reduce"
  param {
    lr_mult: 1
    decay_mult: 1
  }
  param {
    lr_mult: 2
    decay_mult: 0
  }
  convolution_param {
    num_output: 128
    kernel_size: 1
    weight_filler {
      type: "xavier"
      std: 0.09
    }
    bias_filler {
      type: "constant"
      value: 0.2
    }
  }
}
layer {
  name: "inception_4c/relu_3x3_reduce"
  type: "ReLU"
  bottom: "inception_4c/3x3_reduce"
  top: "inception_4c/3x3_reduce"
}
layer {
  name: "inception_4c/3x3"
  type: "Convolution"
  bottom: "inception_4c/3x3_reduce"
  top: "inception_4c/3x3"
  param {
    lr_mult: 1
    decay_mult: 1
  }
  param {
    lr_mult: 2
    decay_mult: 0
  }
  convolution_param {
    num_output: 256
    pad: 1
    kernel_size: 3
    weight_filler {
      type: "xavier"
      std: 0.03
    }
    bias_filler {
      type: "constant"
      value: 0.2
    }
  }
}
layer {
  name: "inception_4c/relu_3x3"
  type: "ReLU"
  bottom: "inception_4c/3x3"
  top: "inception_4c/3x3"
}
layer {
  name: "inception_4c/5x5_reduce"
  type: "Convolution"
  bottom: "inception_4b/output"
  top: "inception_4c/5x5_reduce"
  param {
    lr_mult: 1
    decay_mult: 1
  }
  param {
    lr_mult: 2
    decay_mult: 0
  }
  convolution_param {
    num_output: 24
    kernel_size: 1
    weight_filler {
      type: "xavier"
      std: 0.2
    }
    bias_filler {
      type: "constant"
      value: 0.2
    }
  }
}
layer {
  name: "inception_4c/relu_5x5_reduce"
  type: "ReLU"
  bottom: "inception_4c/5x5_reduce"
  top: "inception_4c/5x5_reduce"
}
layer {
  name: "inception_4c/5x5"
  type: "Convolution"
  bottom: "inception_4c/5x5_reduce"
  top: "inception_4c/5x5"
  param {
    lr_mult: 1
    decay_mult: 1
  }
  param {
    lr_mult: 2
    decay_mult: 0
  }
  convolution_param {
    num_output: 64
    pad: 2
    kernel_size: 5
    weight_filler {
      type: "xavier"
      std: 0.03
    }
    bias_filler {
      type: "constant"
      value: 0.2
    }
  }
}
layer {
  name: "inception_4c/relu_5x5"
  type: "ReLU"
  bottom: "inception_4c/5x5"
  top: "inception_4c/5x5"
}
layer {
  name: "inception_4c/pool"
  type: "Pooling"
  bottom: "inception_4b/output"
  top: "inception_4c/pool"
  pooling_param {
    pool: MAX
    kernel_size: 3
    stride: 1
    pad: 1
  }
}
layer {
  name: "inception_4c/pool_proj"
  type: "Convolution"
  bottom: "inception_4c/pool"
  top: "inception_4c/pool_proj"
  param {
    lr_mult: 1
    decay_mult: 1
  }
  param {
    lr_mult: 2
    decay_mult: 0
  }
  convolution_param {
    num_output: 64
    kernel_size: 1
    weight_filler {
      type: "xavier"
      std: 0.1
    }
    bias_filler {
      type: "constant"
      value: 0.2
    }
  }
}
layer {
  name: "inception_4c/relu_pool_proj"
  type: "ReLU"
  bottom: "inception_4c/pool_proj"
  top: "inception_4c/pool_proj"
}
layer {
  name: "inception_4c/output"
  type: "Concat"
  bottom: "inception_4c/1x1"
  bottom: "inception_4c/3x3"
  bottom: "inception_4c/5x5"
  bottom: "inception_4c/pool_proj"
  top: "inception_4c/output"
}
layer {
  name: "inception_4d/1x1"
  type: "Convolution"
  bottom: "inception_4c/output"
  top: "inception_4d/1x1"
  param {
    lr_mult: 1
    decay_mult: 1
  }
  param {
    lr_mult: 2
    decay_mult: 0
  }
  convolution_param {
    num_output: 112
    kernel_size: 1
    weight_filler {
      type: "xavier"
      std: 0.03
    }
    bias_filler {
      type: "constant"
      value: 0.2
    }
  }
}
layer {
  name: "inception_4d/relu_1x1"
  type: "ReLU"
  bottom: "inception_4d/1x1"
  top: "inception_4d/1x1"
}
layer {
  name: "inception_4d/3x3_reduce"
  type: "Convolution"
  bottom: "inception_4c/output"
  top: "inception_4d/3x3_reduce"
  param {
    lr_mult: 1
    decay_mult: 1
  }
  param {
    lr_mult: 2
    decay_mult: 0
  }
  convolution_param {
    num_output: 144
    kernel_size: 1
    weight_filler {
      type: "xavier"
      std: 0.09
    }
    bias_filler {
      type: "constant"
      value: 0.2
    }
  }
}
layer {
  name: "inception_4d/relu_3x3_reduce"
  type: "ReLU"
  bottom: "inception_4d/3x3_reduce"
  top: "inception_4d/3x3_reduce"
}
layer {
  name: "inception_4d/3x3"
  type: "Convolution"
  bottom: "inception_4d/3x3_reduce"
  top: "inception_4d/3x3"
  param {
    lr_mult: 1
    decay_mult: 1
  }
  param {
    lr_mult: 2
    decay_mult: 0
  }
  convolution_param {
    num_output: 288
    pad: 1
    kernel_size: 3
    weight_filler {
      type: "xavier"
      std: 0.03
    }
    bias_filler {
      type: "constant"
      value: 0.2
    }
  }
}
layer {
  name: "inception_4d/relu_3x3"
  type: "ReLU"
  bottom: "inception_4d/3x3"
  top: "inception_4d/3x3"
}
layer {
  name: "inception_4d/5x5_reduce"
  type: "Convolution"
  bottom: "inception_4c/output"
  top: "inception_4d/5x5_reduce"
  param {
    lr_mult: 1
    decay_mult: 1
  }
  param {
    lr_mult: 2
    decay_mult: 0
  }
  convolution_param {
    num_output: 32
    kernel_size: 1
    weight_filler {
      type: "xavier"
      std: 0.2
    }
    bias_filler {
      type: "constant"
      value: 0.2
    }
  }
}
layer {
  name: "inception_4d/relu_5x5_reduce"
  type: "ReLU"
  bottom: "inception_4d/5x5_reduce"
  top: "inception_4d/5x5_reduce"
}
layer {
  name: "inception_4d/5x5"
  type: "Convolution"
  bottom: "inception_4d/5x5_reduce"
  top: "inception_4d/5x5"
  param {
    lr_mult: 1
    decay_mult: 1
  }
  param {
    lr_mult: 2
    decay_mult: 0
  }
  convolution_param {
    num_output: 64
    pad: 2
    kernel_size: 5
    weight_filler {
      type: "xavier"
      std: 0.03
    }
    bias_filler {
      type: "constant"
      value: 0.2
    }
  }
}
layer {
  name: "inception_4d/relu_5x5"
  type: "ReLU"
  bottom: "inception_4d/5x5"
  top: "inception_4d/5x5"
}
layer {
  name: "inception_4d/pool"
  type: "Pooling"
  bottom: "inception_4c/output"
  top: "inception_4d/pool"
  pooling_param {
    pool: MAX
    kernel_size: 3
    stride: 1
    pad: 1
  }
}
layer {
  name: "inception_4d/pool_proj"
  type: "Convolution"
  bottom: "inception_4d/pool"
  top: "inception_4d/pool_proj"
  param {
    lr_mult: 1
    decay_mult: 1
  }
  param {
    lr_mult: 2
    decay_mult: 0
  }
  convolution_param {
    num_output: 64
    kernel_size: 1
    weight_filler {
      type: "xavier"
      std: 0.1
    }
    bias_filler {
      type: "constant"
      value: 0.2
    }
  }
}
layer {
  name: "inception_4d/relu_pool_proj"
  type: "ReLU"
  bottom: "inception_4d/pool_proj"
  top: "inception_4d/pool_proj"
}
layer {
  name: "inception_4d/output"
  type: "Concat"
  bottom: "inception_4d/1x1"
  bottom: "inception_4d/3x3"
  bottom: "inception_4d/5x5"
  bottom: "inception_4d/pool_proj"
  top: "inception_4d/output"
}
layer {
  name: "inception_4e/1x1"
  type: "Convolution"
  bottom: "inception_4d/output"
  top: "inception_4e/1x1"
  param {
    lr_mult: 1
    decay_mult: 1
  }
  param {
    lr_mult: 2
    decay_mult: 0
  }
  convolution_param {
    num_output: 256
    kernel_size: 1
    weight_filler {
      type: "xavier"
      std: 0.03
    }
    bias_filler {
      type: "constant"
      value: 0.2
    }
  }
}
layer {
  name: "inception_4e/relu_1x1"
  type: "ReLU"
  bottom: "inception_4e/1x1"
  top: "inception_4e/1x1"
}
layer {
  name: "inception_4e/3x3_reduce"
  type: "Convolution"
  bottom: "inception_4d/output"
  top: "inception_4e/3x3_reduce"
  param {
    lr_mult: 1
    decay_mult: 1
  }
  param {
    lr_mult: 2
    decay_mult: 0
  }
  convolution_param {
    num_output: 160
    kernel_size: 1
    weight_filler {
      type: "xavier"
      std: 0.09
    }
    bias_filler {
      type: "constant"
      value: 0.2
    }
  }
}
layer {
  name: "inception_4e/relu_3x3_reduce"
  type: "ReLU"
  bottom: "inception_4e/3x3_reduce"
  top: "inception_4e/3x3_reduce"
}
layer {
  name: "inception_4e/3x3"
  type: "Convolution"
  bottom: "inception_4e/3x3_reduce"
  top: "inception_4e/3x3"
  param {
    lr_mult: 1
    decay_mult: 1
  }
  param {
    lr_mult: 2
    decay_mult: 0
  }
  convolution_param {
    num_output: 320
    pad: 1
    kernel_size: 3
    weight_filler {
      type: "xavier"
      std: 0.03
    }
    bias_filler {
      type: "constant"
      value: 0.2
    }
  }
}
layer {
  name: "inception_4e/relu_3x3"
  type: "ReLU"
  bottom: "inception_4e/3x3"
  top: "inception_4e/3x3"
}
layer {
  name: "inception_4e/5x5_reduce"
  type: "Convolution"
  bottom: "inception_4d/output"
  top: "inception_4e/5x5_reduce"
  param {
    lr_mult: 1
    decay_mult: 1
  }
  param {
    lr_mult: 2
    decay_mult: 0
  }
  convolution_param {
    num_output: 32
    kernel_size: 1
    weight_filler {
      type: "xavier"
      std: 0.2
    }
    bias_filler {
      type: "constant"
      value: 0.2
    }
  }
}
layer {
  name: "inception_4e/relu_5x5_reduce"
  type: "ReLU"
  bottom: "inception_4e/5x5_reduce"
  top: "inception_4e/5x5_reduce"
}
layer {
  name: "inception_4e/5x5"
  type: "Convolution"
  bottom: "inception_4e/5x5_reduce"
  top: "inception_4e/5x5"
  param {
    lr_mult: 1
    decay_mult: 1
  }
  param {
    lr_mult: 2
    decay_mult: 0
  }
  convolution_param {
    num_output: 128
    pad: 2
    kernel_size: 5
    weight_filler {
      type: "xavier"
      std: 0.03
    }
    bias_filler {
      type: "constant"
      value: 0.2
    }
  }
}
layer {
  name: "inception_4e/relu_5x5"
  type: "ReLU"
  bottom: "inception_4e/5x5"
  top: "inception_4e/5x5"
}
layer {
  name: "inception_4e/pool"
  type: "Pooling"
  bottom: "inception_4d/output"
  top: "inception_4e/pool"
  pooling_param {
    pool: MAX
    kernel_size: 3
    stride: 1
    pad: 1
  }
}
layer {
  name: "inception_4e/pool_proj"
  type: "Convolution"
  bottom: "inception_4e/pool"
  top: "inception_4e/pool_proj"
  param {
    lr_mult: 1
    decay_mult: 1
  }
  param {
    lr_mult: 2
    decay_mult: 0
  }
  convolution_param {
    num_output: 128
    kernel_size: 1
    weight_filler {
      type: "xavier"
      std: 0.1
    }
    bias_filler {
      type: "constant"
      value: 0.2
    }
  }
}
layer {
  name: "inception_4e/relu_pool_proj"
  type: "ReLU"
  bottom: "inception_4e/pool_proj"
  top: "inception_4e/pool_proj"
}
layer {
  name: "inception_4e/output"
  type: "Concat"
  bottom: "inception_4e/1x1"
  bottom: "inception_4e/3x3"
  bottom: "inception_4e/5x5"
  bottom: "inception_4e/pool_proj"
  top: "inception_4e/output"
}
layer {
  name: "pool4/3x3_s2"
  type: "Pooling"
  bottom: "inception_4e/output"
  top: "pool4/3x3_s2"
  pooling_param {
    pool: MAX
    kernel_size: 3
    stride: 2
  }
}
layer {
  name: "inception_5a/1x1"
  type: "Convolution"
  bottom: "pool4/3x3_s2"
  top: "inception_5a/1x1"
  param {
    lr_mult: 1
    decay_mult: 1
  }
  param {
    lr_mult: 2
    decay_mult: 0
  }
  convolution_param {
    num_output: 256
    kernel_size: 1
    weight_filler {
      type: "xavier"
      std: 0.03
    }
    bias_filler {
      type: "constant"
      value: 0.2
    }
  }
}
layer {
  name: "inception_5a/relu_1x1"
  type: "ReLU"
  bottom: "inception_5a/1x1"
  top: "inception_5a/1x1"
}
layer {
  name: "inception_5a/3x3_reduce"
  type: "Convolution"
  bottom: "pool4/3x3_s2"
  top: "inception_5a/3x3_reduce"
  param {
    lr_mult: 1
    decay_mult: 1
  }
  param {
    lr_mult: 2
    decay_mult: 0
  }
  convolution_param {
    num_output: 160
    kernel_size: 1
    weight_filler {
      type: "xavier"
      std: 0.09
    }
    bias_filler {
      type: "constant"
      value: 0.2
    }
  }
}
layer {
  name: "inception_5a/relu_3x3_reduce"
  type: "ReLU"
  bottom: "inception_5a/3x3_reduce"
  top: "inception_5a/3x3_reduce"
}
layer {
  name: "inception_5a/3x3"
  type: "Convolution"
  bottom: "inception_5a/3x3_reduce"
  top: "inception_5a/3x3"
  param {
    lr_mult: 1
    decay_mult: 1
  }
  param {
    lr_mult: 2
    decay_mult: 0
  }
  convolution_param {
    num_output: 320
    pad: 1
    kernel_size: 3
    weight_filler {
      type: "xavier"
      std: 0.03
    }
    bias_filler {
      type: "constant"
      value: 0.2
    }
  }
}
layer {
  name: "inception_5a/relu_3x3"
  type: "ReLU"
  bottom: "inception_5a/3x3"
  top: "inception_5a/3x3"
}
layer {
  name: "inception_5a/5x5_reduce"
  type: "Convolution"
  bottom: "pool4/3x3_s2"
  top: "inception_5a/5x5_reduce"
  param {
    lr_mult: 1
    decay_mult: 1
  }
  param {
    lr_mult: 2
    decay_mult: 0
  }
  convolution_param {
    num_output: 32
    kernel_size: 1
    weight_filler {
      type: "xavier"
      std: 0.2
    }
    bias_filler {
      type: "constant"
      value: 0.2
    }
I0918 01:54:01.499716 14608 net.cpp:49] Initializing net from parameters: 
name: "GoogleNet"
state {
  phase: TEST
}
layer {
  name: "data"
  type: "Input"
  top: "data"
  input_param {
    shape {
      dim: 10
      dim: 3
      dim: 224
      dim: 224
    }
  }
}
layer {
  name: "conv1/7x7_s2"
  type: "Convolution"
  bottom: "data"
  top: "conv1/7x7_s2"
  param {
    lr_mult: 1
    decay_mult: 1
  }
  param {
    lr_mult: 2
    decay_mult: 0
  }
  convolution_param {
    num_output: 64
    pad: 3
    kernel_size: 7
    stride: 2
    weight_filler {
      type: "xavier"
      std: 0.1
    }
    bias_filler {
      type: "constant"
      value: 0.2
    }
  }
}
layer {
  name: "conv1/relu_7x7"
  type: "ReLU"
  bottom: "conv1/7x7_s2"
  top: "conv1/7x7_s2"
}
layer {
  name: "pool1/3x3_s2"
  type: "Pooling"
  bottom: "conv1/7x7_s2"
  top: "pool1/3x3_s2"
  pooling_param {
    pool: MAX
    kernel_size: 3
    stride: 2
  }
}
layer {
  name: "pool1/norm1"
  type: "LRN"
  bottom: "pool1/3x3_s2"
  top: "pool1/norm1"
  lrn_param {
    local_size: 5
    alpha: 0.0001
    beta: 0.75
  }
}
layer {
  name: "conv2/3x3_reduce"
  type: "Convolution"
  bottom: "pool1/norm1"
  top: "conv2/3x3_reduce"
  param {
    lr_mult: 1
    decay_mult: 1
  }
  param {
    lr_mult: 2
    decay_mult: 0
  }
  convolution_param {
    num_output: 64
    kernel_size: 1
    weight_filler {
      type: "xavier"
      std: 0.1
    }
    bias_filler {
      type: "constant"
      value: 0.2
    }
  }
}
layer {
  name: "conv2/relu_3x3_reduce"
  type: "ReLU"
  bottom: "conv2/3x3_reduce"
  top: "conv2/3x3_reduce"
}
layer {
  name: "conv2/3x3"
  type: "Convolution"
  bottom: "conv2/3x3_reduce"
  top: "conv2/3x3"
  param {
    lr_mult: 1
    decay_mult: 1
  }
  param {
    lr_mult: 2
    decay_mult: 0
  }
  convolution_param {
    num_output: 192
    pad: 1
    kernel_size: 3
    weight_filler {
      type: "xavier"
      std: 0.03
    }
    bias_filler {
      type: "constant"
      value: 0.2
    }
  }
}
layer {
  name: "conv2/relu_3x3"
  type: "ReLU"
  bottom: "conv2/3x3"
  top: "conv2/3x3"
}
layer {
  name: "conv2/norm2"
  type: "LRN"
  bottom: "conv2/3x3"
  top: "conv2/norm2"
  lrn_param {
    local_size: 5
    alpha: 0.0001
    beta: 0.75
  }
}
layer {
  name: "pool2/3x3_s2"
  type: "Pooling"
  bottom: "conv2/norm2"
  top: "pool2/3x3_s2"
  pooling_param {
    pool: MAX
    kernel_size: 3
    stride: 2
  }
}
layer {
  name: "inception_3a/1x1"
  type: "Convolution"
  bottom: "pool2/3x3_s2"
  top: "inception_3a/1x1"
  param {
    lr_mult: 1
    decay_mult: 1
  }
  param {
    lr_mult: 2
    decay_mult: 0
  }
  convolution_param {
    num_output: 64
    kernel_size: 1
    weight_filler {
      type: "xavier"
      std: 0.03
    }
    bias_filler {
      type: "constant"
      value: 0.2
    }
  }
}
layer {
  name: "inception_3a/relu_1x1"
  type: "ReLU"
  bottom: "inception_3a/1x1"
  top: "inception_3a/1x1"
}
layer {
  name: "inception_3a/3x3_reduce"
  type: "Convolution"
  bottom: "pool2/3x3_s2"
  top: "inception_3a/3x3_reduce"
  param {
    lr_mult: 1
    decay_mult: 1
  }
  param {
    lr_mult: 2
    decay_mult: 0
  }
  convolution_param {
    num_output: 96
    kernel_size: 1
    weight_filler {
      type: "xavier"
      std: 0.09
    }
    bias_filler {
      type: "constant"
      value: 0.2
    }
  }
}
layer {
  name: "inception_3a/relu_3x3_reduce"
  type: "ReLU"
  bottom: "inception_3a/3x3_reduce"
  top: "inception_3a/3x3_reduce"
}
layer {
  name: "inception_3a/3x3"
  type: "Convolution"
  bottom: "inception_3a/3x3_reduce"
  top: "inception_3a/3x3"
  param {
    lr_mult: 1
    decay_mult: 1
  }
  param {
    lr_mult: 2
    decay_mult: 0
  }
  convolution_param {
    num_output: 128
    pad: 1
    kernel_size: 3
    weight_filler {
      type: "xavier"
      std: 0.03
    }
    bias_filler {
      type: "constant"
      value: 0.2
    }
  }
}
layer {
  name: "inception_3a/relu_3x3"
  type: "ReLU"
  bottom: "inception_3a/3x3"
  top: "inception_3a/3x3"
}
layer {
  name: "inception_3a/5x5_reduce"
  type: "Convolution"
  bottom: "pool2/3x3_s2"
  top: "inception_3a/5x5_reduce"
  param {
    lr_mult: 1
    decay_mult: 1
  }
  param {
    lr_mult: 2
    decay_mult: 0
  }
  convolution_param {
    num_output: 16
    kernel_size: 1
    weight_filler {
      type: "xavier"
      std: 0.2
    }
    bias_filler {
      type: "constant"
      value: 0.2
    }
  }
}
layer {
  name: "inception_3a/relu_5x5_reduce"
  type: "ReLU"
  bottom: "inception_3a/5x5_reduce"
  top: "inception_3a/5x5_reduce"
}
layer {
  name: "inception_3a/5x5"
  type: "Convolution"
  bottom: "inception_3a/5x5_reduce"
  top: "inception_3a/5x5"
  param {
    lr_mult: 1
    decay_mult: 1
  }
  param {
    lr_mult: 2
    decay_mult: 0
  }
  convolution_param {
    num_output: 32
    pad: 2
    kernel_size: 5
    weight_filler {
      type: "xavier"
      std: 0.03
    }
    bias_filler {
      type: "constant"
      value: 0.2
    }
  }
}
layer {
  name: "inception_3a/relu_5x5"
  type: "ReLU"
  bottom: "inception_3a/5x5"
  top: "inception_3a/5x5"
}
layer {
  name: "inception_3a/pool"
  type: "Pooling"
  bottom: "pool2/3x3_s2"
  top: "inception_3a/pool"
  pooling_param {
    pool: MAX
    kernel_size: 3
    stride: 1
    pad: 1
  }
}
layer {
  name: "inception_3a/pool_proj"
  type: "Convolution"
  bottom: "inception_3a/pool"
  top: "inception_3a/pool_proj"
  param {
    lr_mult: 1
    decay_mult: 1
  }
  param {
    lr_mult: 2
    decay_mult: 0
  }
  convolution_param {
    num_output: 32
    kernel_size: 1
    weight_filler {
      type: "xavier"
      std: 0.1
    }
    bias_filler {
      type: "constant"
      value: 0.2
    }
  }
}
layer {
  name: "inception_3a/relu_pool_proj"
  type: "ReLU"
  bottom: "inception_3a/pool_proj"
  top: "inception_3a/pool_proj"
}
layer {
  name: "inception_3a/output"
  type: "Concat"
  bottom: "inception_3a/1x1"
  bottom: "inception_3a/3x3"
  bottom: "inception_3a/5x5"
  bottom: "inception_3a/pool_proj"
  top: "inception_3a/output"
}
layer {
  name: "inception_3b/1x1"
  type: "Convolution"
  bottom: "inception_3a/output"
  top: "inception_3b/1x1"
  param {
    lr_mult: 1
    decay_mult: 1
  }
  param {
    lr_mult: 2
    decay_mult: 0
  }
  convolution_param {
    num_output: 128
    kernel_size: 1
    weight_filler {
      type: "xavier"
      std: 0.03
    }
    bias_filler {
      type: "constant"
      value: 0.2
    }
  }
}
layer {
  name: "inception_3b/relu_1x1"
  type: "ReLU"
  bottom: "inception_3b/1x1"
  top: "inception_3b/1x1"
}
layer {
  name: "inception_3b/3x3_reduce"
  type: "Convolution"
  bottom: "inception_3a/output"
  top: "inception_3b/3x3_reduce"
  param {
    lr_mult: 1
    decay_mult: 1
  }
  param {
    lr_mult: 2
    decay_mult: 0
  }
  convolution_param {
    num_output: 128
    kernel_size: 1
    weight_filler {
      type: "xavier"
      std: 0.09
    }
    bias_filler {
      type: "constant"
      value: 0.2
    }
  }
}
layer {
  name: "inception_3b/relu_3x3_reduce"
  type: "ReLU"
  bottom: "inception_3b/3x3_reduce"
  top: "inception_3b/3x3_reduce"
}
layer {
  name: "inception_3b/3x3"
  type: "Convolution"
  bottom: "inception_3b/3x3_reduce"
  top: "inception_3b/3x3"
  param {
    lr_mult: 1
    decay_mult: 1
  }
  param {
    lr_mult: 2
    decay_mult: 0
  }
  convolution_param {
    num_output: 192
    pad: 1
    kernel_size: 3
    weight_filler {
      type: "xavier"
      std: 0.03
    }
    bias_filler {
      type: "constant"
      value: 0.2
    }
  }
}
layer {
  name: "inception_3b/relu_3x3"
  type: "ReLU"
  bottom: "inception_3b/3x3"
  top: "inception_3b/3x3"
}
layer {
  name: "inception_3b/5x5_reduce"
  type: "Convolution"
  bottom: "inception_3a/output"
  top: "inception_3b/5x5_reduce"
  param {
    lr_mult: 1
    decay_mult: 1
  }
  param {
    lr_mult: 2
    decay_mult: 0
  }
  convolution_param {
    num_output: 32
    kernel_size: 1
    weight_filler {
      type: "xavier"
      std: 0.2
    }
    bias_filler {
      type: "constant"
      value: 0.2
    }
  }
}
layer {
  name: "inception_3b/relu_5x5_reduce"
  type: "ReLU"
  bottom: "inception_3b/5x5_reduce"
  top: "inception_3b/5x5_reduce"
}
layer {
  name: "inception_3b/5x5"
  type: "Convolution"
  bottom: "inception_3b/5x5_reduce"
  top: "inception_3b/5x5"
  param {
    lr_mult: 1
    decay_mult: 1
  }
  param {
    lr_mult: 2
    decay_mult: 0
  }
  convolution_param {
    num_output: 96
    pad: 2
    kernel_size: 5
    weight_filler {
      type: "xavier"
      std: 0.03
    }
    bias_filler {
      type: "constant"
      value: 0.2
    }
  }
}
layer {
  name: "inception_3b/relu_5x5"
  type: "ReLU"
  bottom: "inception_3b/5x5"
  top: "inception_3b/5x5"
}
layer {
  name: "inception_3b/pool"
  type: "Pooling"
  bottom: "inception_3a/output"
  top: "inception_3b/pool"
  pooling_param {
    pool: MAX
    kernel_size: 3
    stride: 1
    pad: 1
  }
}
layer {
  name: "inception_3b/pool_proj"
  type: "Convolution"
  bottom: "inception_3b/pool"
  top: "inception_3b/pool_proj"
  param {
    lr_mult: 1
    decay_mult: 1
  }
  param {
    lr_mult: 2
    decay_mult: 0
  }
  convolution_param {
    num_output: 64
    kernel_size: 1
    weight_filler {
      type: "xavier"
      std: 0.1
    }
    bias_filler {
      type: "constant"
      value: 0.2
    }
  }
}
layer {
  name: "inception_3b/relu_pool_proj"
  type: "ReLU"
  bottom: "inception_3b/pool_proj"
  top: "inception_3b/pool_proj"
}
layer {
  name: "inception_3b/output"
  type: "Concat"
  bottom: "inception_3b/1x1"
  bottom: "inception_3b/3x3"
  bottom: "inception_3b/5x5"
  bottom: "inception_3b/pool_proj"
  top: "inception_3b/output"
}
layer {
  name: "pool3/3x3_s2"
  type: "Pooling"
  bottom: "inception_3b/output"
  top: "pool3/3x3_s2"
  pooling_param {
    pool: MAX
    kernel_size: 3
    stride: 2
  }
}
layer {
  name: "inception_4a/1x1"
  type: "Convolution"
  bottom: "pool3/3x3_s2"
  top: "inception_4a/1x1"
  param {
    lr_mult: 1
    decay_mult: 1
  }
  param {
    lr_mult: 2
    decay_mult: 0
  }
  convolution_param {
    num_output: 192
    kernel_size: 1
    weight_filler {
      type: "xavier"
      std: 0.03
    }
    bias_filler {
      type: "constant"
      value: 0.2
    }
  }
}
layer {
  name: "inception_4a/relu_1x1"
  type: "ReLU"
  bottom: "inception_4a/1x1"
  top: "inception_4a/1x1"
}
layer {
  name: "inception_4a/3x3_reduce"
  type: "Convolution"
  bottom: "pool3/3x3_s2"
  top: "inception_4a/3x3_reduce"
  param {
    lr_mult: 1
    decay_mult: 1
  }
  param {
    lr_mult: 2
    decay_mult: 0
  }
  convolution_param {
    num_output: 96
    kernel_size: 1
    weight_filler {
      type: "xavier"
      std: 0.09
    }
    bias_filler {
      type: "constant"
      value: 0.2
    }
  }
}
layer {
  name: "inception_4a/relu_3x3_reduce"
  type: "ReLU"
  bottom: "inception_4a/3x3_reduce"
  top: "inception_4a/3x3_reduce"
}
layer {
  name: "inception_4a/3x3"
  type: "Convolution"
  bottom: "inception_4a/3x3_reduce"
  top: "inception_4a/3x3"
  param {
    lr_mult: 1
    decay_mult: 1
  }
  param {
    lr_mult: 2
    decay_mult: 0
  }
  convolution_param {
    num_output: 208
    pad: 1
    kernel_size: 3
    weight_filler {
      type: "xavier"
      std: 0.03
    }
    bias_filler {
      type: "constant"
      value: 0.2
    }
  }
}
layer {
  name: "inception_4a/relu_3x3"
  type: "ReLU"
  bottom: "inception_4a/3x3"
  top: "inception_4a/3x3"
}
layer {
  name: "inception_4a/5x5_reduce"
  type: "Convolution"
  bottom: "pool3/3x3_s2"
  top: "inception_4a/5x5_reduce"
  param {
    lr_mult: 1
    decay_mult: 1
  }
  param {
    lr_mult: 2
    decay_mult: 0
  }
  convolution_param {
    num_output: 16
    kernel_size: 1
    weight_filler {
      type: "xavier"
      std: 0.2
    }
    bias_filler {
      type: "constant"
      value: 0.2
    }
  }
}
layer {
  name: "inception_4a/relu_5x5_reduce"
  type: "ReLU"
  bottom: "inception_4a/5x5_reduce"
  top: "inception_4a/5x5_reduce"
}
layer {
  name: "inception_4a/5x5"
  type: "Convolution"
  bottom: "inception_4a/5x5_reduce"
  top: "inception_4a/5x5"
  param {
    lr_mult: 1
    decay_mult: 1
  }
  param {
    lr_mult: 2
    decay_mult: 0
  }
  convolution_param {
    num_output: 48
    pad: 2
    kernel_size: 5
    weight_filler {
      type: "xavier"
      std: 0.03
    }
    bias_filler {
      type: "constant"
      value: 0.2
    }
  }
}
layer {
  name: "inception_4a/relu_5x5"
  type: "ReLU"
  bottom: "inception_4a/5x5"
  top: "inception_4a/5x5"
}
layer {
  name: "inception_4a/pool"
  type: "Pooling"
  bottom: "pool3/3x3_s2"
  top: "inception_4a/pool"
  pooling_param {
    pool: MAX
    kernel_size: 3
    stride: 1
    pad: 1
  }
}
layer {
  name: "inception_4a/pool_proj"
  type: "Convolution"
  bottom: "inception_4a/pool"
  top: "inception_4a/pool_proj"
  param {
    lr_mult: 1
    decay_mult: 1
  }
  param {
    lr_mult: 2
    decay_mult: 0
  }
  convolution_param {
    num_output: 64
    kernel_size: 1
    weight_filler {
      type: "xavier"
      std: 0.1
    }
    bias_filler {
      type: "constant"
      value: 0.2
    }
  }
}
layer {
  name: "inception_4a/relu_pool_proj"
  type: "ReLU"
  bottom: "inception_4a/pool_proj"
  top: "inception_4a/pool_proj"
}
layer {
  name: "inception_4a/output"
  type: "Concat"
  bottom: "inception_4a/1x1"
  bottom: "inception_4a/3x3"
  bottom: "inception_4a/5x5"
  bottom: "inception_4a/pool_proj"
  top: "inception_4a/output"
}
layer {
  name: "inception_4b/1x1"
  type: "Convolution"
  bottom: "inception_4a/output"
  top: "inception_4b/1x1"
  param {
    lr_mult: 1
    decay_mult: 1
  }
  param {
    lr_mult: 2
    decay_mult: 0
  }
  convolution_param {
    num_output: 160
    kernel_size: 1
    weight_filler {
      type: "xavier"
      std: 0.03
    }
    bias_filler {
      type: "constant"
      value: 0.2
    }
  }
}
layer {
  name: "inception_4b/relu_1x1"
  type: "ReLU"
  bottom: "inception_4b/1x1"
  top: "inception_4b/1x1"
}
layer {
  name: "inception_4b/3x3_reduce"
  type: "Convolution"
  bottom: "inception_4a/output"
  top: "inception_4b/3x3_reduce"
  param {
    lr_mult: 1
    decay_mult: 1
  }
  param {
    lr_mult: 2
    decay_mult: 0
  }
  convolution_param {
    num_output: 112
    kernel_size: 1
    weight_filler {
      type: "xavier"
      std: 0.09
    }
    bias_filler {
      type: "constant"
      value: 0.2
    }
  }
}
layer {
  name: "inception_4b/relu_3x3_reduce"
  type: "ReLU"
  bottom: "inception_4b/3x3_reduce"
  top: "inception_4b/3x3_reduce"
}
layer {
  name: "inception_4b/3x3"
  type: "Convolution"
  bottom: "inception_4b/3x3_reduce"
  top: "inception_4b/3x3"
  param {
    lr_mult: 1
    decay_mult: 1
  }
  param {
    lr_mult: 2
    decay_mult: 0
  }
  convolution_param {
    num_output: 224
    pad: 1
    kernel_size: 3
    weight_filler {
      type: "xavier"
      std: 0.03
    }
    bias_filler {
      type: "constant"
      value: 0.2
    }
  }
}
layer {
  name: "inception_4b/relu_3x3"
  type: "ReLU"
  bottom: "inception_4b/3x3"
  top: "inception_4b/3x3"
}
layer {
  name: "inception_4b/5x5_reduce"
  type: "Convolution"
  bottom: "inception_4a/output"
  top: "inception_4b/5x5_reduce"
  param {
    lr_mult: 1
    decay_mult: 1
  }
  param {
    lr_mult: 2
    decay_mult: 0
  }
  convolution_param {
    num_output: 24
    kernel_size: 1
    weight_filler {
      type: "xavier"
      std: 0.2
    }
    bias_filler {
      type: "constant"
      value: 0.2
    }
  }
}
layer {
  name: "inception_4b/relu_5x5_reduce"
  type: "ReLU"
  bottom: "inception_4b/5x5_reduce"
  top: "inception_4b/5x5_reduce"
}
layer {
  name: "inception_4b/5x5"
  type: "Convolution"
  bottom: "inception_4b/5x5_reduce"
  top: "inception_4b/5x5"
  param {
    lr_mult: 1
    decay_mult: 1
  }
  param {
    lr_mult: 2
    decay_mult: 0
  }
  convolution_param {
    num_output: 64
    pad: 2
    kernel_size: 5
    weight_filler {
      type: "xavier"
      std: 0.03
    }
    bias_filler {
      type: "constant"
      value: 0.2
    }
  }
}
layer {
  name: "inception_4b/relu_5x5"
  type: "ReLU"
  bottom: "inception_4b/5x5"
  top: "inception_4b/5x5"
}
layer {
  name: "inception_4b/pool"
  type: "Pooling"
  bottom: "inception_4a/output"
  top: "inception_4b/pool"
  pooling_param {
    pool: MAX
    kernel_size: 3
    stride: 1
    pad: 1
  }
}
layer {
  name: "inception_4b/pool_proj"
  type: "Convolution"
  bottom: "inception_4b/pool"
  top: "inception_4b/pool_proj"
  param {
    lr_mult: 1
    decay_mult: 1
  }
  param {
    lr_mult: 2
    decay_mult: 0
  }
  convolution_param {
    num_output: 64
    kernel_size: 1
    weight_filler {
      type: "xavier"
      std: 0.1
    }
    bias_filler {
      type: "constant"
      value: 0.2
    }
  }
}
layer {
  name: "inception_4b/relu_pool_proj"
  type: "ReLU"
  bottom: "inception_4b/pool_proj"
  top: "inception_4b/pool_proj"
}
layer {
  name: "inception_4b/output"
  type: "Concat"
  bottom: "inception_4b/1x1"
  bottom: "inception_4b/3x3"
  bottom: "inception_4b/5x5"
  bottom: "inception_4b/pool_proj"
  top: "inception_4b/output"
}
layer {
  name: "inception_4c/1x1"
  type: "Convolution"
  bottom: "inception_4b/output"
  top: "inception_4c/1x1"
  param {
    lr_mult: 1
    decay_mult: 1
  }
  param {
    lr_mult: 2
    decay_mult: 0
  }
  convolution_param {
    num_output: 128
    kernel_size: 1
    weight_filler {
      type: "xavier"
      std: 0.03
    }
    bias_filler {
      type: "constant"
      value: 0.2
    }
  }
}
layer {
  name: "inception_4c/relu_1x1"
  type: "ReLU"
  bottom: "inception_4c/1x1"
  top: "inception_4c/1x1"
}
layer {
  name: "inception_4c/3x3_reduce"
  type: "Convolution"
  bottom: "inception_4b/output"
  top: "inception_4c/3x3_reduce"
  param {
    lr_mult: 1
    decay_mult: 1
  }
  param {
    lr_mult: 2
    decay_mult: 0
  }
  convolution_param {
    num_output: 128
    kernel_size: 1
    weight_filler {
      type: "xavier"
      std: 0.09
    }
    bias_filler {
      type: "constant"
      value: 0.2
    }
  }
}
layer {
  name: "inception_4c/relu_3x3_reduce"
  type: "ReLU"
  bottom: "inception_4c/3x3_reduce"
  top: "inception_4c/3x3_reduce"
}
layer {
  name: "inception_4c/3x3"
  type: "Convolution"
  bottom: "inception_4c/3x3_reduce"
  top: "inception_4c/3x3"
  param {
    lr_mult: 1
    decay_mult: 1
  }
  param {
    lr_mult: 2
    decay_mult: 0
  }
  convolution_param {
    num_output: 256
    pad: 1
    kernel_size: 3
    weight_filler {
      type: "xavier"
      std: 0.03
    }
    bias_filler {
      type: "constant"
      value: 0.2
    }
  }
}
layer {
  name: "inception_4c/relu_3x3"
  type: "ReLU"
  bottom: "inception_4c/3x3"
  top: "inception_4c/3x3"
}
layer {
  name: "inception_4c/5x5_reduce"
  type: "Convolution"
  bottom: "inception_4b/output"
  top: "inception_4c/5x5_reduce"
  param {
    lr_mult: 1
    decay_mult: 1
  }
  param {
    lr_mult: 2
    decay_mult: 0
  }
  convolution_param {
    num_output: 24
    kernel_size: 1
    weight_filler {
      type: "xavier"
      std: 0.2
    }
    bias_filler {
      type: "constant"
      value: 0.2
    }
  }
}
layer {
  name: "inception_4c/relu_5x5_reduce"
  type: "ReLU"
  bottom: "inception_4c/5x5_reduce"
  top: "inception_4c/5x5_reduce"
}
layer {
  name: "inception_4c/5x5"
  type: "Convolution"
  bottom: "inception_4c/5x5_reduce"
  top: "inception_4c/5x5"
  param {
    lr_mult: 1
    decay_mult: 1
  }
  param {
    lr_mult: 2
    decay_mult: 0
  }
  convolution_param {
    num_output: 64
    pad: 2
    kernel_size: 5
    weight_filler {
      type: "xavier"
      std: 0.03
    }
    bias_filler {
      type: "constant"
      value: 0.2
    }
  }
}
layer {
  name: "inception_4c/relu_5x5"
  type: "ReLU"
  bottom: "inception_4c/5x5"
  top: "inception_4c/5x5"
}
layer {
  name: "inception_4c/pool"
  type: "Pooling"
  bottom: "inception_4b/output"
  top: "inception_4c/pool"
  pooling_param {
    pool: MAX
    kernel_size: 3
    stride: 1
    pad: 1
  }
}
layer {
  name: "inception_4c/pool_proj"
  type: "Convolution"
  bottom: "inception_4c/pool"
  top: "inception_4c/pool_proj"
  param {
    lr_mult: 1
    decay_mult: 1
  }
  param {
    lr_mult: 2
    decay_mult: 0
  }
  convolution_param {
    num_output: 64
    kernel_size: 1
    weight_filler {
      type: "xavier"
      std: 0.1
    }
    bias_filler {
      type: "constant"
      value: 0.2
    }
  }
}
layer {
  name: "inception_4c/relu_pool_proj"
  type: "ReLU"
  bottom: "inception_4c/pool_proj"
  top: "inception_4c/pool_proj"
}
layer {
  name: "inception_4c/output"
  type: "Concat"
  bottom: "inception_4c/1x1"
  bottom: "inception_4c/3x3"
  bottom: "inception_4c/5x5"
  bottom: "inception_4c/pool_proj"
  top: "inception_4c/output"
}
layer {
  name: "inception_4d/1x1"
  type: "Convolution"
  bottom: "inception_4c/output"
  top: "inception_4d/1x1"
  param {
    lr_mult: 1
    decay_mult: 1
  }
  param {
    lr_mult: 2
    decay_mult: 0
  }
  convolution_param {
    num_output: 112
    kernel_size: 1
    weight_filler {
      type: "xavier"
      std: 0.03
    }
    bias_filler {
      type: "constant"
      value: 0.2
    }
  }
}
layer {
  name: "inception_4d/relu_1x1"
  type: "ReLU"
  bottom: "inception_4d/1x1"
  top: "inception_4d/1x1"
}
layer {
  name: "inception_4d/3x3_reduce"
  type: "Convolution"
  bottom: "inception_4c/output"
  top: "inception_4d/3x3_reduce"
  param {
    lr_mult: 1
    decay_mult: 1
  }
  param {
    lr_mult: 2
    decay_mult: 0
  }
  convolution_param {
    num_output: 144
    kernel_size: 1
    weight_filler {
      type: "xavier"
      std: 0.09
    }
    bias_filler {
      type: "constant"
      value: 0.2
    }
  }
}
layer {
  name: "inception_4d/relu_3x3_reduce"
  type: "ReLU"
  bottom: "inception_4d/3x3_reduce"
  top: "inception_4d/3x3_reduce"
}
layer {
  name: "inception_4d/3x3"
  type: "Convolution"
  bottom: "inception_4d/3x3_reduce"
  top: "inception_4d/3x3"
  param {
    lr_mult: 1
    decay_mult: 1
  }
  param {
    lr_mult: 2
    decay_mult: 0
  }
  convolution_param {
    num_output: 288
    pad: 1
    kernel_size: 3
    weight_filler {
      type: "xavier"
      std: 0.03
    }
    bias_filler {
      type: "constant"
      value: 0.2
    }
  }
}
layer {
  name: "inception_4d/relu_3x3"
  type: "ReLU"
  bottom: "inception_4d/3x3"
  top: "inception_4d/3x3"
}
layer {
  name: "inception_4d/5x5_reduce"
  type: "Convolution"
  bottom: "inception_4c/output"
  top: "inception_4d/5x5_reduce"
  param {
    lr_mult: 1
    decay_mult: 1
  }
  param {
    lr_mult: 2
    decay_mult: 0
  }
  convolution_param {
    num_output: 32
    kernel_size: 1
    weight_filler {
      type: "xavier"
      std: 0.2
    }
    bias_filler {
      type: "constant"
      value: 0.2
    }
  }
}
layer {
  name: "inception_4d/relu_5x5_reduce"
  type: "ReLU"
  bottom: "inception_4d/5x5_reduce"
  top: "inception_4d/5x5_reduce"
}
layer {
  name: "inception_4d/5x5"
  type: "Convolution"
  bottom: "inception_4d/5x5_reduce"
  top: "inception_4d/5x5"
  param {
    lr_mult: 1
    decay_mult: 1
  }
  param {
    lr_mult: 2
    decay_mult: 0
  }
  convolution_param {
    num_output: 64
    pad: 2
    kernel_size: 5
    weight_filler {
      type: "xavier"
      std: 0.03
    }
    bias_filler {
      type: "constant"
      value: 0.2
    }
  }
}
layer {
  name: "inception_4d/relu_5x5"
  type: "ReLU"
  bottom: "inception_4d/5x5"
  top: "inception_4d/5x5"
}
layer {
  name: "inception_4d/pool"
  type: "Pooling"
  bottom: "inception_4c/output"
  top: "inception_4d/pool"
  pooling_param {
    pool: MAX
    kernel_size: 3
    stride: 1
    pad: 1
  }
}
layer {
  name: "inception_4d/pool_proj"
  type: "Convolution"
  bottom: "inception_4d/pool"
  top: "inception_4d/pool_proj"
  param {
    lr_mult: 1
    decay_mult: 1
  }
  param {
    lr_mult: 2
    decay_mult: 0
  }
  convolution_param {
    num_output: 64
    kernel_size: 1
    weight_filler {
      type: "xavier"
      std: 0.1
    }
    bias_filler {
      type: "constant"
      value: 0.2
    }
  }
}
layer {
  name: "inception_4d/relu_pool_proj"
  type: "ReLU"
  bottom: "inception_4d/pool_proj"
  top: "inception_4d/pool_proj"
}
layer {
  name: "inception_4d/output"
  type: "Concat"
  bottom: "inception_4d/1x1"
  bottom: "inception_4d/3x3"
  bottom: "inception_4d/5x5"
  bottom: "inception_4d/pool_proj"
  top: "inception_4d/output"
}
layer {
  name: "inception_4e/1x1"
  type: "Convolution"
  bottom: "inception_4d/output"
  top: "inception_4e/1x1"
  param {
    lr_mult: 1
    decay_mult: 1
  }
  param {
    lr_mult: 2
    decay_mult: 0
  }
  convolution_param {
    num_output: 256
    kernel_size: 1
    weight_filler {
      type: "xavier"
      std: 0.03
    }
    bias_filler {
      type: "constant"
      value: 0.2
    }
  }
}
layer {
  name: "inception_4e/relu_1x1"
  type: "ReLU"
  bottom: "inception_4e/1x1"
  top: "inception_4e/1x1"
}
layer {
  name: "inception_4e/3x3_reduce"
  type: "Convolution"
  bottom: "inception_4d/output"
  top: "inception_4e/3x3_reduce"
  param {
    lr_mult: 1
    decay_mult: 1
  }
  param {
    lr_mult: 2
    decay_mult: 0
  }
  convolution_param {
    num_output: 160
    kernel_size: 1
    weight_filler {
      type: "xavier"
      std: 0.09
    }
    bias_filler {
      type: "constant"
      value: 0.2
    }
  }
}
layer {
  name: "inception_4e/relu_3x3_reduce"
  type: "ReLU"
  bottom: "inception_4e/3x3_reduce"
  top: "inception_4e/3x3_reduce"
}
layer {
  name: "inception_4e/3x3"
  type: "Convolution"
  bottom: "inception_4e/3x3_reduce"
  top: "inception_4e/3x3"
  param {
    lr_mult: 1
    decay_mult: 1
  }
  param {
    lr_mult: 2
    decay_mult: 0
  }
  convolution_param {
    num_output: 320
    pad: 1
    kernel_size: 3
    weight_filler {
      type: "xavier"
      std: 0.03
    }
    bias_filler {
      type: "constant"
      value: 0.2
    }
  }
}
layer {
  name: "inception_4e/relu_3x3"
  type: "ReLU"
  bottom: "inception_4e/3x3"
  top: "inception_4e/3x3"
}
layer {
  name: "inception_4e/5x5_reduce"
  type: "Convolution"
  bottom: "inception_4d/output"
  top: "inception_4e/5x5_reduce"
  param {
    lr_mult: 1
    decay_mult: 1
  }
  param {
    lr_mult: 2
    decay_mult: 0
  }
  convolution_param {
    num_output: 32
    kernel_size: 1
    weight_filler {
      type: "xavier"
      std: 0.2
    }
    bias_filler {
      type: "constant"
      value: 0.2
    }
  }
}
layer {
  name: "inception_4e/relu_5x5_reduce"
  type: "ReLU"
  bottom: "inception_4e/5x5_reduce"
  top: "inception_4e/5x5_reduce"
}
layer {
  name: "inception_4e/5x5"
  type: "Convolution"
  bottom: "inception_4e/5x5_reduce"
  top: "inception_4e/5x5"
  param {
    lr_mult: 1
    decay_mult: 1
  }
  param {
    lr_mult: 2
    decay_mult: 0
  }
  convolution_param {
    num_output: 128
    pad: 2
    kernel_size: 5
    weight_filler {
      type: "xavier"
      std: 0.03
    }
    bias_filler {
      type: "constant"
      value: 0.2
    }
  }
}
layer {
  name: "inception_4e/relu_5x5"
  type: "ReLU"
  bottom: "inception_4e/5x5"
  top: "inception_4e/5x5"
}
layer {
  name: "inception_4e/pool"
  type: "Pooling"
  bottom: "inception_4d/output"
  top: "inception_4e/pool"
  pooling_param {
    pool: MAX
    kernel_size: 3
    stride: 1
    pad: 1
  }
}
layer {
  name: "inception_4e/pool_proj"
  type: "Convolution"
  bottom: "inception_4e/pool"
  top: "inception_4e/pool_proj"
  param {
    lr_mult: 1
    decay_mult: 1
  }
  param {
    lr_mult: 2
    decay_mult: 0
  }
  convolution_param {
    num_output: 128
    kernel_size: 1
    weight_filler {
      type: "xavier"
      std: 0.1
    }
    bias_filler {
      type: "constant"
      value: 0.2
    }
  }
}
layer {
  name: "inception_4e/relu_pool_proj"
  type: "ReLU"
  bottom: "inception_4e/pool_proj"
  top: "inception_4e/pool_proj"
}
layer {
  name: "inception_4e/output"
  type: "Concat"
  bottom: "inception_4e/1x1"
  bottom: "inception_4e/3x3"
  bottom: "inception_4e/5x5"
  bottom: "inception_4e/pool_proj"
  top: "inception_4e/output"
}
layer {
  name: "pool4/3x3_s2"
  type: "Pooling"
  bottom: "inception_4e/output"
  top: "pool4/3x3_s2"
  pooling_param {
    pool: MAX
    kernel_size: 3
    stride: 2
  }
}
layer {
  name: "inception_5a/1x1"
  type: "Convolution"
  bottom: "pool4/3x3_s2"
  top: "inception_5a/1x1"
  param {
    lr_mult: 1
    decay_mult: 1
  }
  param {
    lr_mult: 2
    decay_mult: 0
  }
  convolution_param {
    num_output: 256
    kernel_size: 1
    weight_filler {
      type: "xavier"
      std: 0.03
    }
    bias_filler {
      type: "constant"
      value: 0.2
    }
  }
}
layer {
  name: "inception_5a/relu_1x1"
  type: "ReLU"
  bottom: "inception_5a/1x1"
  top: "inception_5a/1x1"
}
layer {
  name: "inception_5a/3x3_reduce"
  type: "Convolution"
  bottom: "pool4/3x3_s2"
  top: "inception_5a/3x3_reduce"
  param {
    lr_mult: 1
    decay_mult: 1
  }
  param {
    lr_mult: 2
    decay_mult: 0
  }
  convolution_param {
    num_output: 160
    kernel_size: 1
    weight_filler {
      type: "xavier"
      std: 0.09
    }
    bias_filler {
      type: "constant"
      value: 0.2
    }
  }
}
layer {
  name: "inception_5a/relu_3x3_reduce"
  type: "ReLU"
  bottom: "inception_5a/3x3_reduce"
  top: "inception_5a/3x3_reduce"
}
layer {
  name: "inception_5a/3x3"
  type: "Convolution"
  bottom: "inception_5a/3x3_reduce"
  top: "inception_5a/3x3"
  param {
    lr_mult: 1
    decay_mult: 1
  }
  param {
    lr_mult: 2
    decay_mult: 0
  }
  convolution_param {
    num_output: 320
    pad: 1
    kernel_size: 3
    weight_filler {
      type: "xavier"
      std: 0.03
    }
    bias_filler {
      type: "constant"
      value: 0.2
    }
  }
}
layer {
  name: "inception_5a/relu_3x3"
  type: "ReLU"
  bottom: "inception_5a/3x3"
  top: "inception_5a/3x3"
}
layer {
  name: "inception_5a/5x5_reduce"
  type: "Convolution"
  bottom: "pool4/3x3_s2"
  top: "inception_5a/5x5_reduce"
  param {
    lr_mult: 1
    decay_mult: 1
  }
  param {
    lr_mult: 2
    decay_mult: 0
  }
  convolution_param {
    num_output: 32
    kernel_size: 1
    weight_filler {
      type: "xavier"
      std: 0.2
    }
    bias_filler {
      type: "constant"
      value: 0.2
    }
I0918 01:54:01.499816 14620 net.cpp:49] Initializing net from parameters: 
name: "GoogleNet"
state {
  phase: TEST
}
layer {
  name: "data"
  type: "Input"
  top: "data"
  input_param {
    shape {
      dim: 10
      dim: 3
      dim: 224
      dim: 224
    }
  }
}
layer {
  name: "conv1/7x7_s2"
  type: "Convolution"
  bottom: "data"
  top: "conv1/7x7_s2"
  param {
    lr_mult: 1
    decay_mult: 1
  }
  param {
    lr_mult: 2
    decay_mult: 0
  }
  convolution_param {
    num_output: 64
    pad: 3
    kernel_size: 7
    stride: 2
    weight_filler {
      type: "xavier"
      std: 0.1
    }
    bias_filler {
      type: "constant"
      value: 0.2
    }
  }
}
layer {
  name: "conv1/relu_7x7"
  type: "ReLU"
  bottom: "conv1/7x7_s2"
  top: "conv1/7x7_s2"
}
layer {
  name: "pool1/3x3_s2"
  type: "Pooling"
  bottom: "conv1/7x7_s2"
  top: "pool1/3x3_s2"
  pooling_param {
    pool: MAX
    kernel_size: 3
    stride: 2
  }
}
layer {
  name: "pool1/norm1"
  type: "LRN"
  bottom: "pool1/3x3_s2"
  top: "pool1/norm1"
  lrn_param {
    local_size: 5
    alpha: 0.0001
    beta: 0.75
  }
}
layer {
  name: "conv2/3x3_reduce"
  type: "Convolution"
  bottom: "pool1/norm1"
  top: "conv2/3x3_reduce"
  param {
    lr_mult: 1
    decay_mult: 1
  }
  param {
    lr_mult: 2
    decay_mult: 0
  }
  convolution_param {
    num_output: 64
    kernel_size: 1
    weight_filler {
      type: "xavier"
      std: 0.1
    }
    bias_filler {
      type: "constant"
      value: 0.2
    }
  }
}
layer {
  name: "conv2/relu_3x3_reduce"
  type: "ReLU"
  bottom: "conv2/3x3_reduce"
  top: "conv2/3x3_reduce"
}
layer {
  name: "conv2/3x3"
  type: "Convolution"
  bottom: "conv2/3x3_reduce"
  top: "conv2/3x3"
  param {
    lr_mult: 1
    decay_mult: 1
  }
  param {
    lr_mult: 2
    decay_mult: 0
  }
  convolution_param {
    num_output: 192
    pad: 1
    kernel_size: 3
    weight_filler {
      type: "xavier"
      std: 0.03
    }
    bias_filler {
      type: "constant"
      value: 0.2
    }
  }
}
layer {
  name: "conv2/relu_3x3"
  type: "ReLU"
  bottom: "conv2/3x3"
  top: "conv2/3x3"
}
layer {
  name: "conv2/norm2"
  type: "LRN"
  bottom: "conv2/3x3"
  top: "conv2/norm2"
  lrn_param {
    local_size: 5
    alpha: 0.0001
    beta: 0.75
  }
}
layer {
  name: "pool2/3x3_s2"
  type: "Pooling"
  bottom: "conv2/norm2"
  top: "pool2/3x3_s2"
  pooling_param {
    pool: MAX
    kernel_size: 3
    stride: 2
  }
}
layer {
  name: "inception_3a/1x1"
  type: "Convolution"
  bottom: "pool2/3x3_s2"
  top: "inception_3a/1x1"
  param {
    lr_mult: 1
    decay_mult: 1
  }
  param {
    lr_mult: 2
    decay_mult: 0
  }
  convolution_param {
    num_output: 64
    kernel_size: 1
    weight_filler {
      type: "xavier"
      std: 0.03
    }
    bias_filler {
      type: "constant"
      value: 0.2
    }
  }
}
layer {
  name: "inception_3a/relu_1x1"
  type: "ReLU"
  bottom: "inception_3a/1x1"
  top: "inception_3a/1x1"
}
layer {
  name: "inception_3a/3x3_reduce"
  type: "Convolution"
  bottom: "pool2/3x3_s2"
  top: "inception_3a/3x3_reduce"
  param {
    lr_mult: 1
    decay_mult: 1
  }
  param {
    lr_mult: 2
    decay_mult: 0
  }
  convolution_param {
    num_output: 96
    kernel_size: 1
    weight_filler {
      type: "xavier"
      std: 0.09
    }
    bias_filler {
      type: "constant"
      value: 0.2
    }
  }
}
layer {
  name: "inception_3a/relu_3x3_reduce"
  type: "ReLU"
  bottom: "inception_3a/3x3_reduce"
  top: "inception_3a/3x3_reduce"
}
layer {
  name: "inception_3a/3x3"
  type: "Convolution"
  bottom: "inception_3a/3x3_reduce"
  top: "inception_3a/3x3"
  param {
    lr_mult: 1
    decay_mult: 1
  }
  param {
    lr_mult: 2
    decay_mult: 0
  }
  convolution_param {
    num_output: 128
    pad: 1
    kernel_size: 3
    weight_filler {
      type: "xavier"
      std: 0.03
    }
    bias_filler {
      type: "constant"
      value: 0.2
    }
  }
}
layer {
  name: "inception_3a/relu_3x3"
  type: "ReLU"
  bottom: "inception_3a/3x3"
  top: "inception_3a/3x3"
}
layer {
  name: "inception_3a/5x5_reduce"
  type: "Convolution"
  bottom: "pool2/3x3_s2"
  top: "inception_3a/5x5_reduce"
  param {
    lr_mult: 1
    decay_mult: 1
  }
  param {
    lr_mult: 2
    decay_mult: 0
  }
  convolution_param {
    num_output: 16
    kernel_size: 1
    weight_filler {
      type: "xavier"
      std: 0.2
    }
    bias_filler {
      type: "constant"
      value: 0.2
    }
  }
}
layer {
  name: "inception_3a/relu_5x5_reduce"
  type: "ReLU"
  bottom: "inception_3a/5x5_reduce"
  top: "inception_3a/5x5_reduce"
}
layer {
  name: "inception_3a/5x5"
  type: "Convolution"
  bottom: "inception_3a/5x5_reduce"
  top: "inception_3a/5x5"
  param {
    lr_mult: 1
    decay_mult: 1
  }
  param {
    lr_mult: 2
    decay_mult: 0
  }
  convolution_param {
    num_output: 32
    pad: 2
    kernel_size: 5
    weight_filler {
      type: "xavier"
      std: 0.03
    }
    bias_filler {
      type: "constant"
      value: 0.2
    }
  }
}
layer {
  name: "inception_3a/relu_5x5"
  type: "ReLU"
  bottom: "inception_3a/5x5"
  top: "inception_3a/5x5"
}
layer {
  name: "inception_3a/pool"
  type: "Pooling"
  bottom: "pool2/3x3_s2"
  top: "inception_3a/pool"
  pooling_param {
    pool: MAX
    kernel_size: 3
    stride: 1
    pad: 1
  }
}
layer {
  name: "inception_3a/pool_proj"
  type: "Convolution"
  bottom: "inception_3a/pool"
  top: "inception_3a/pool_proj"
  param {
    lr_mult: 1
    decay_mult: 1
  }
  param {
    lr_mult: 2
    decay_mult: 0
  }
  convolution_param {
    num_output: 32
    kernel_size: 1
    weight_filler {
      type: "xavier"
      std: 0.1
    }
    bias_filler {
      type: "constant"
      value: 0.2
    }
  }
}
layer {
  name: "inception_3a/relu_pool_proj"
  type: "ReLU"
  bottom: "inception_3a/pool_proj"
  top: "inception_3a/pool_proj"
}
layer {
  name: "inception_3a/output"
  type: "Concat"
  bottom: "inception_3a/1x1"
  bottom: "inception_3a/3x3"
  bottom: "inception_3a/5x5"
  bottom: "inception_3a/pool_proj"
  top: "inception_3a/output"
}
layer {
  name: "inception_3b/1x1"
  type: "Convolution"
  bottom: "inception_3a/output"
  top: "inception_3b/1x1"
  param {
    lr_mult: 1
    decay_mult: 1
  }
  param {
    lr_mult: 2
    decay_mult: 0
  }
  convolution_param {
    num_output: 128
    kernel_size: 1
    weight_filler {
      type: "xavier"
      std: 0.03
    }
    bias_filler {
      type: "constant"
      value: 0.2
    }
  }
}
layer {
  name: "inception_3b/relu_1x1"
  type: "ReLU"
  bottom: "inception_3b/1x1"
  top: "inception_3b/1x1"
}
layer {
  name: "inception_3b/3x3_reduce"
  type: "Convolution"
  bottom: "inception_3a/output"
  top: "inception_3b/3x3_reduce"
  param {
    lr_mult: 1
    decay_mult: 1
  }
  param {
    lr_mult: 2
    decay_mult: 0
  }
  convolution_param {
    num_output: 128
    kernel_size: 1
    weight_filler {
      type: "xavier"
      std: 0.09
    }
    bias_filler {
      type: "constant"
      value: 0.2
    }
  }
}
layer {
  name: "inception_3b/relu_3x3_reduce"
  type: "ReLU"
  bottom: "inception_3b/3x3_reduce"
  top: "inception_3b/3x3_reduce"
}
layer {
  name: "inception_3b/3x3"
  type: "Convolution"
  bottom: "inception_3b/3x3_reduce"
  top: "inception_3b/3x3"
  param {
    lr_mult: 1
    decay_mult: 1
  }
  param {
    lr_mult: 2
    decay_mult: 0
  }
  convolution_param {
    num_output: 192
    pad: 1
    kernel_size: 3
    weight_filler {
      type: "xavier"
      std: 0.03
    }
    bias_filler {
      type: "constant"
      value: 0.2
    }
  }
}
layer {
  name: "inception_3b/relu_3x3"
  type: "ReLU"
  bottom: "inception_3b/3x3"
  top: "inception_3b/3x3"
}
layer {
  name: "inception_3b/5x5_reduce"
  type: "Convolution"
  bottom: "inception_3a/output"
  top: "inception_3b/5x5_reduce"
  param {
    lr_mult: 1
    decay_mult: 1
  }
  param {
    lr_mult: 2
    decay_mult: 0
  }
  convolution_param {
    num_output: 32
    kernel_size: 1
    weight_filler {
      type: "xavier"
      std: 0.2
    }
    bias_filler {
      type: "constant"
      value: 0.2
    }
  }
}
layer {
  name: "inception_3b/relu_5x5_reduce"
  type: "ReLU"
  bottom: "inception_3b/5x5_reduce"
  top: "inception_3b/5x5_reduce"
}
layer {
  name: "inception_3b/5x5"
  type: "Convolution"
  bottom: "inception_3b/5x5_reduce"
  top: "inception_3b/5x5"
  param {
    lr_mult: 1
    decay_mult: 1
  }
  param {
    lr_mult: 2
    decay_mult: 0
  }
  convolution_param {
    num_output: 96
    pad: 2
    kernel_size: 5
    weight_filler {
      type: "xavier"
      std: 0.03
    }
    bias_filler {
      type: "constant"
      value: 0.2
    }
  }
}
layer {
  name: "inception_3b/relu_5x5"
  type: "ReLU"
  bottom: "inception_3b/5x5"
  top: "inception_3b/5x5"
}
layer {
  name: "inception_3b/pool"
  type: "Pooling"
  bottom: "inception_3a/output"
  top: "inception_3b/pool"
  pooling_param {
    pool: MAX
    kernel_size: 3
    stride: 1
    pad: 1
  }
}
layer {
  name: "inception_3b/pool_proj"
  type: "Convolution"
  bottom: "inception_3b/pool"
  top: "inception_3b/pool_proj"
  param {
    lr_mult: 1
    decay_mult: 1
  }
  param {
    lr_mult: 2
    decay_mult: 0
  }
  convolution_param {
    num_output: 64
    kernel_size: 1
    weight_filler {
      type: "xavier"
      std: 0.1
    }
    bias_filler {
      type: "constant"
      value: 0.2
    }
  }
}
layer {
  name: "inception_3b/relu_pool_proj"
  type: "ReLU"
  bottom: "inception_3b/pool_proj"
  top: "inception_3b/pool_proj"
}
layer {
  name: "inception_3b/output"
  type: "Concat"
  bottom: "inception_3b/1x1"
  bottom: "inception_3b/3x3"
  bottom: "inception_3b/5x5"
  bottom: "inception_3b/pool_proj"
  top: "inception_3b/output"
}
layer {
  name: "pool3/3x3_s2"
  type: "Pooling"
  bottom: "inception_3b/output"
  top: "pool3/3x3_s2"
  pooling_param {
    pool: MAX
    kernel_size: 3
    stride: 2
  }
}
layer {
  name: "inception_4a/1x1"
  type: "Convolution"
  bottom: "pool3/3x3_s2"
  top: "inception_4a/1x1"
  param {
    lr_mult: 1
    decay_mult: 1
  }
  param {
    lr_mult: 2
    decay_mult: 0
  }
  convolution_param {
    num_output: 192
    kernel_size: 1
    weight_filler {
      type: "xavier"
      std: 0.03
    }
    bias_filler {
      type: "constant"
      value: 0.2
    }
  }
}
layer {
  name: "inception_4a/relu_1x1"
  type: "ReLU"
  bottom: "inception_4a/1x1"
  top: "inception_4a/1x1"
}
layer {
  name: "inception_4a/3x3_reduce"
  type: "Convolution"
  bottom: "pool3/3x3_s2"
  top: "inception_4a/3x3_reduce"
  param {
    lr_mult: 1
    decay_mult: 1
  }
  param {
    lr_mult: 2
    decay_mult: 0
  }
  convolution_param {
    num_output: 96
    kernel_size: 1
    weight_filler {
      type: "xavier"
      std: 0.09
    }
    bias_filler {
      type: "constant"
      value: 0.2
    }
  }
}
layer {
  name: "inception_4a/relu_3x3_reduce"
  type: "ReLU"
  bottom: "inception_4a/3x3_reduce"
  top: "inception_4a/3x3_reduce"
}
layer {
  name: "inception_4a/3x3"
  type: "Convolution"
  bottom: "inception_4a/3x3_reduce"
  top: "inception_4a/3x3"
  param {
    lr_mult: 1
    decay_mult: 1
  }
  param {
    lr_mult: 2
    decay_mult: 0
  }
  convolution_param {
    num_output: 208
    pad: 1
    kernel_size: 3
    weight_filler {
      type: "xavier"
      std: 0.03
    }
    bias_filler {
      type: "constant"
      value: 0.2
    }
  }
}
layer {
  name: "inception_4a/relu_3x3"
  type: "ReLU"
  bottom: "inception_4a/3x3"
  top: "inception_4a/3x3"
}
layer {
  name: "inception_4a/5x5_reduce"
  type: "Convolution"
  bottom: "pool3/3x3_s2"
  top: "inception_4a/5x5_reduce"
  param {
    lr_mult: 1
    decay_mult: 1
  }
  param {
    lr_mult: 2
    decay_mult: 0
  }
  convolution_param {
    num_output: 16
    kernel_size: 1
    weight_filler {
      type: "xavier"
      std: 0.2
    }
    bias_filler {
      type: "constant"
      value: 0.2
    }
  }
}
layer {
  name: "inception_4a/relu_5x5_reduce"
  type: "ReLU"
  bottom: "inception_4a/5x5_reduce"
  top: "inception_4a/5x5_reduce"
}
layer {
  name: "inception_4a/5x5"
  type: "Convolution"
  bottom: "inception_4a/5x5_reduce"
  top: "inception_4a/5x5"
  param {
    lr_mult: 1
    decay_mult: 1
  }
  param {
    lr_mult: 2
    decay_mult: 0
  }
  convolution_param {
    num_output: 48
    pad: 2
    kernel_size: 5
    weight_filler {
      type: "xavier"
      std: 0.03
    }
    bias_filler {
      type: "constant"
      value: 0.2
    }
  }
}
layer {
  name: "inception_4a/relu_5x5"
  type: "ReLU"
  bottom: "inception_4a/5x5"
  top: "inception_4a/5x5"
}
layer {
  name: "inception_4a/pool"
  type: "Pooling"
  bottom: "pool3/3x3_s2"
  top: "inception_4a/pool"
  pooling_param {
    pool: MAX
    kernel_size: 3
    stride: 1
    pad: 1
  }
}
layer {
  name: "inception_4a/pool_proj"
  type: "Convolution"
  bottom: "inception_4a/pool"
  top: "inception_4a/pool_proj"
  param {
    lr_mult: 1
    decay_mult: 1
  }
  param {
    lr_mult: 2
    decay_mult: 0
  }
  convolution_param {
    num_output: 64
    kernel_size: 1
    weight_filler {
      type: "xavier"
      std: 0.1
    }
    bias_filler {
      type: "constant"
      value: 0.2
    }
  }
}
layer {
  name: "inception_4a/relu_pool_proj"
  type: "ReLU"
  bottom: "inception_4a/pool_proj"
  top: "inception_4a/pool_proj"
}
layer {
  name: "inception_4a/output"
  type: "Concat"
  bottom: "inception_4a/1x1"
  bottom: "inception_4a/3x3"
  bottom: "inception_4a/5x5"
  bottom: "inception_4a/pool_proj"
  top: "inception_4a/output"
}
layer {
  name: "inception_4b/1x1"
  type: "Convolution"
  bottom: "inception_4a/output"
  top: "inception_4b/1x1"
  param {
    lr_mult: 1
    decay_mult: 1
  }
  param {
    lr_mult: 2
    decay_mult: 0
  }
  convolution_param {
    num_output: 160
    kernel_size: 1
    weight_filler {
      type: "xavier"
      std: 0.03
    }
    bias_filler {
      type: "constant"
      value: 0.2
    }
  }
}
layer {
  name: "inception_4b/relu_1x1"
  type: "ReLU"
  bottom: "inception_4b/1x1"
  top: "inception_4b/1x1"
}
layer {
  name: "inception_4b/3x3_reduce"
  type: "Convolution"
  bottom: "inception_4a/output"
  top: "inception_4b/3x3_reduce"
  param {
    lr_mult: 1
    decay_mult: 1
  }
  param {
    lr_mult: 2
    decay_mult: 0
  }
  convolution_param {
    num_output: 112
    kernel_size: 1
    weight_filler {
      type: "xavier"
      std: 0.09
    }
    bias_filler {
      type: "constant"
      value: 0.2
    }
  }
}
layer {
  name: "inception_4b/relu_3x3_reduce"
  type: "ReLU"
  bottom: "inception_4b/3x3_reduce"
  top: "inception_4b/3x3_reduce"
}
layer {
  name: "inception_4b/3x3"
  type: "Convolution"
  bottom: "inception_4b/3x3_reduce"
  top: "inception_4b/3x3"
  param {
    lr_mult: 1
    decay_mult: 1
  }
  param {
    lr_mult: 2
    decay_mult: 0
  }
  convolution_param {
    num_output: 224
    pad: 1
    kernel_size: 3
    weight_filler {
      type: "xavier"
      std: 0.03
    }
    bias_filler {
      type: "constant"
      value: 0.2
    }
  }
}
layer {
  name: "inception_4b/relu_3x3"
  type: "ReLU"
  bottom: "inception_4b/3x3"
  top: "inception_4b/3x3"
}
layer {
  name: "inception_4b/5x5_reduce"
  type: "Convolution"
  bottom: "inception_4a/output"
  top: "inception_4b/5x5_reduce"
  param {
    lr_mult: 1
    decay_mult: 1
  }
  param {
    lr_mult: 2
    decay_mult: 0
  }
  convolution_param {
    num_output: 24
    kernel_size: 1
    weight_filler {
      type: "xavier"
      std: 0.2
    }
    bias_filler {
      type: "constant"
      value: 0.2
    }
  }
}
layer {
  name: "inception_4b/relu_5x5_reduce"
  type: "ReLU"
  bottom: "inception_4b/5x5_reduce"
  top: "inception_4b/5x5_reduce"
}
layer {
  name: "inception_4b/5x5"
  type: "Convolution"
  bottom: "inception_4b/5x5_reduce"
  top: "inception_4b/5x5"
  param {
    lr_mult: 1
    decay_mult: 1
  }
  param {
    lr_mult: 2
    decay_mult: 0
  }
  convolution_param {
    num_output: 64
    pad: 2
    kernel_size: 5
    weight_filler {
      type: "xavier"
      std: 0.03
    }
    bias_filler {
      type: "constant"
      value: 0.2
    }
  }
}
layer {
  name: "inception_4b/relu_5x5"
  type: "ReLU"
  bottom: "inception_4b/5x5"
  top: "inception_4b/5x5"
}
layer {
  name: "inception_4b/pool"
  type: "Pooling"
  bottom: "inception_4a/output"
  top: "inception_4b/pool"
  pooling_param {
    pool: MAX
    kernel_size: 3
    stride: 1
    pad: 1
  }
}
layer {
  name: "inception_4b/pool_proj"
  type: "Convolution"
  bottom: "inception_4b/pool"
  top: "inception_4b/pool_proj"
  param {
    lr_mult: 1
    decay_mult: 1
  }
  param {
    lr_mult: 2
    decay_mult: 0
  }
  convolution_param {
    num_output: 64
    kernel_size: 1
    weight_filler {
      type: "xavier"
      std: 0.1
    }
    bias_filler {
      type: "constant"
      value: 0.2
    }
  }
}
layer {
  name: "inception_4b/relu_pool_proj"
  type: "ReLU"
  bottom: "inception_4b/pool_proj"
  top: "inception_4b/pool_proj"
}
layer {
  name: "inception_4b/output"
  type: "Concat"
  bottom: "inception_4b/1x1"
  bottom: "inception_4b/3x3"
  bottom: "inception_4b/5x5"
  bottom: "inception_4b/pool_proj"
  top: "inception_4b/output"
}
layer {
  name: "inception_4c/1x1"
  type: "Convolution"
  bottom: "inception_4b/output"
  top: "inception_4c/1x1"
  param {
    lr_mult: 1
    decay_mult: 1
  }
  param {
    lr_mult: 2
    decay_mult: 0
  }
  convolution_param {
    num_output: 128
    kernel_size: 1
    weight_filler {
      type: "xavier"
      std: 0.03
    }
    bias_filler {
      type: "constant"
      value: 0.2
    }
  }
}
layer {
  name: "inception_4c/relu_1x1"
  type: "ReLU"
  bottom: "inception_4c/1x1"
  top: "inception_4c/1x1"
}
layer {
  name: "inception_4c/3x3_reduce"
  type: "Convolution"
  bottom: "inception_4b/output"
  top: "inception_4c/3x3_reduce"
  param {
    lr_mult: 1
    decay_mult: 1
  }
  param {
    lr_mult: 2
    decay_mult: 0
  }
  convolution_param {
    num_output: 128
    kernel_size: 1
    weight_filler {
      type: "xavier"
      std: 0.09
    }
    bias_filler {
      type: "constant"
      value: 0.2
    }
  }
}
layer {
  name: "inception_4c/relu_3x3_reduce"
  type: "ReLU"
  bottom: "inception_4c/3x3_reduce"
  top: "inception_4c/3x3_reduce"
}
layer {
  name: "inception_4c/3x3"
  type: "Convolution"
  bottom: "inception_4c/3x3_reduce"
  top: "inception_4c/3x3"
  param {
    lr_mult: 1
    decay_mult: 1
  }
  param {
    lr_mult: 2
    decay_mult: 0
  }
  convolution_param {
    num_output: 256
    pad: 1
    kernel_size: 3
    weight_filler {
      type: "xavier"
      std: 0.03
    }
    bias_filler {
      type: "constant"
      value: 0.2
    }
  }
}
layer {
  name: "inception_4c/relu_3x3"
  type: "ReLU"
  bottom: "inception_4c/3x3"
  top: "inception_4c/3x3"
}
layer {
  name: "inception_4c/5x5_reduce"
  type: "Convolution"
  bottom: "inception_4b/output"
  top: "inception_4c/5x5_reduce"
  param {
    lr_mult: 1
    decay_mult: 1
  }
  param {
    lr_mult: 2
    decay_mult: 0
  }
  convolution_param {
    num_output: 24
    kernel_size: 1
    weight_filler {
      type: "xavier"
      std: 0.2
    }
    bias_filler {
      type: "constant"
      value: 0.2
    }
  }
}
layer {
  name: "inception_4c/relu_5x5_reduce"
  type: "ReLU"
  bottom: "inception_4c/5x5_reduce"
  top: "inception_4c/5x5_reduce"
}
layer {
  name: "inception_4c/5x5"
  type: "Convolution"
  bottom: "inception_4c/5x5_reduce"
  top: "inception_4c/5x5"
  param {
    lr_mult: 1
    decay_mult: 1
  }
  param {
    lr_mult: 2
    decay_mult: 0
  }
  convolution_param {
    num_output: 64
    pad: 2
    kernel_size: 5
    weight_filler {
      type: "xavier"
      std: 0.03
    }
    bias_filler {
      type: "constant"
      value: 0.2
    }
  }
}
layer {
  name: "inception_4c/relu_5x5"
  type: "ReLU"
  bottom: "inception_4c/5x5"
  top: "inception_4c/5x5"
}
layer {
  name: "inception_4c/pool"
  type: "Pooling"
  bottom: "inception_4b/output"
  top: "inception_4c/pool"
  pooling_param {
    pool: MAX
    kernel_size: 3
    stride: 1
    pad: 1
  }
}
layer {
  name: "inception_4c/pool_proj"
  type: "Convolution"
  bottom: "inception_4c/pool"
  top: "inception_4c/pool_proj"
  param {
    lr_mult: 1
    decay_mult: 1
  }
  param {
    lr_mult: 2
    decay_mult: 0
  }
  convolution_param {
    num_output: 64
    kernel_size: 1
    weight_filler {
      type: "xavier"
      std: 0.1
    }
    bias_filler {
      type: "constant"
      value: 0.2
    }
  }
}
layer {
  name: "inception_4c/relu_pool_proj"
  type: "ReLU"
  bottom: "inception_4c/pool_proj"
  top: "inception_4c/pool_proj"
}
layer {
  name: "inception_4c/output"
  type: "Concat"
  bottom: "inception_4c/1x1"
  bottom: "inception_4c/3x3"
  bottom: "inception_4c/5x5"
  bottom: "inception_4c/pool_proj"
  top: "inception_4c/output"
}
layer {
  name: "inception_4d/1x1"
  type: "Convolution"
  bottom: "inception_4c/output"
  top: "inception_4d/1x1"
  param {
    lr_mult: 1
    decay_mult: 1
  }
  param {
    lr_mult: 2
    decay_mult: 0
  }
  convolution_param {
    num_output: 112
    kernel_size: 1
    weight_filler {
      type: "xavier"
      std: 0.03
    }
    bias_filler {
      type: "constant"
      value: 0.2
    }
  }
}
layer {
  name: "inception_4d/relu_1x1"
  type: "ReLU"
  bottom: "inception_4d/1x1"
  top: "inception_4d/1x1"
}
layer {
  name: "inception_4d/3x3_reduce"
  type: "Convolution"
  bottom: "inception_4c/output"
  top: "inception_4d/3x3_reduce"
  param {
    lr_mult: 1
    decay_mult: 1
  }
  param {
    lr_mult: 2
    decay_mult: 0
  }
  convolution_param {
    num_output: 144
    kernel_size: 1
    weight_filler {
      type: "xavier"
      std: 0.09
    }
    bias_filler {
      type: "constant"
      value: 0.2
    }
  }
}
layer {
  name: "inception_4d/relu_3x3_reduce"
  type: "ReLU"
  bottom: "inception_4d/3x3_reduce"
  top: "inception_4d/3x3_reduce"
}
layer {
  name: "inception_4d/3x3"
  type: "Convolution"
  bottom: "inception_4d/3x3_reduce"
  top: "inception_4d/3x3"
  param {
    lr_mult: 1
    decay_mult: 1
  }
  param {
    lr_mult: 2
    decay_mult: 0
  }
  convolution_param {
    num_output: 288
    pad: 1
    kernel_size: 3
    weight_filler {
      type: "xavier"
      std: 0.03
    }
    bias_filler {
      type: "constant"
      value: 0.2
    }
  }
}
layer {
  name: "inception_4d/relu_3x3"
  type: "ReLU"
  bottom: "inception_4d/3x3"
  top: "inception_4d/3x3"
}
layer {
  name: "inception_4d/5x5_reduce"
  type: "Convolution"
  bottom: "inception_4c/output"
  top: "inception_4d/5x5_reduce"
  param {
    lr_mult: 1
    decay_mult: 1
  }
  param {
    lr_mult: 2
    decay_mult: 0
  }
  convolution_param {
    num_output: 32
    kernel_size: 1
    weight_filler {
      type: "xavier"
      std: 0.2
    }
    bias_filler {
      type: "constant"
      value: 0.2
    }
  }
}
layer {
  name: "inception_4d/relu_5x5_reduce"
  type: "ReLU"
  bottom: "inception_4d/5x5_reduce"
  top: "inception_4d/5x5_reduce"
}
layer {
  name: "inception_4d/5x5"
  type: "Convolution"
  bottom: "inception_4d/5x5_reduce"
  top: "inception_4d/5x5"
  param {
    lr_mult: 1
    decay_mult: 1
  }
  param {
    lr_mult: 2
    decay_mult: 0
  }
  convolution_param {
    num_output: 64
    pad: 2
    kernel_size: 5
    weight_filler {
      type: "xavier"
      std: 0.03
    }
    bias_filler {
      type: "constant"
      value: 0.2
    }
  }
}
layer {
  name: "inception_4d/relu_5x5"
  type: "ReLU"
  bottom: "inception_4d/5x5"
  top: "inception_4d/5x5"
}
layer {
  name: "inception_4d/pool"
  type: "Pooling"
  bottom: "inception_4c/output"
  top: "inception_4d/pool"
  pooling_param {
    pool: MAX
    kernel_size: 3
    stride: 1
    pad: 1
  }
}
layer {
  name: "inception_4d/pool_proj"
  type: "Convolution"
  bottom: "inception_4d/pool"
  top: "inception_4d/pool_proj"
  param {
    lr_mult: 1
    decay_mult: 1
  }
  param {
    lr_mult: 2
    decay_mult: 0
  }
  convolution_param {
    num_output: 64
    kernel_size: 1
    weight_filler {
      type: "xavier"
      std: 0.1
    }
    bias_filler {
      type: "constant"
      value: 0.2
    }
  }
}
layer {
  name: "inception_4d/relu_pool_proj"
  type: "ReLU"
  bottom: "inception_4d/pool_proj"
  top: "inception_4d/pool_proj"
}
layer {
  name: "inception_4d/output"
  type: "Concat"
  bottom: "inception_4d/1x1"
  bottom: "inception_4d/3x3"
  bottom: "inception_4d/5x5"
  bottom: "inception_4d/pool_proj"
  top: "inception_4d/output"
}
layer {
  name: "inception_4e/1x1"
  type: "Convolution"
  bottom: "inception_4d/output"
  top: "inception_4e/1x1"
  param {
    lr_mult: 1
    decay_mult: 1
  }
  param {
    lr_mult: 2
    decay_mult: 0
  }
  convolution_param {
    num_output: 256
    kernel_size: 1
    weight_filler {
      type: "xavier"
      std: 0.03
    }
    bias_filler {
      type: "constant"
      value: 0.2
    }
  }
}
layer {
  name: "inception_4e/relu_1x1"
  type: "ReLU"
  bottom: "inception_4e/1x1"
  top: "inception_4e/1x1"
}
layer {
  name: "inception_4e/3x3_reduce"
  type: "Convolution"
  bottom: "inception_4d/output"
  top: "inception_4e/3x3_reduce"
  param {
    lr_mult: 1
    decay_mult: 1
  }
  param {
    lr_mult: 2
    decay_mult: 0
  }
  convolution_param {
    num_output: 160
    kernel_size: 1
    weight_filler {
      type: "xavier"
      std: 0.09
    }
    bias_filler {
      type: "constant"
      value: 0.2
    }
  }
}
layer {
  name: "inception_4e/relu_3x3_reduce"
  type: "ReLU"
  bottom: "inception_4e/3x3_reduce"
  top: "inception_4e/3x3_reduce"
}
layer {
  name: "inception_4e/3x3"
  type: "Convolution"
  bottom: "inception_4e/3x3_reduce"
  top: "inception_4e/3x3"
  param {
    lr_mult: 1
    decay_mult: 1
  }
  param {
    lr_mult: 2
    decay_mult: 0
  }
  convolution_param {
    num_output: 320
    pad: 1
    kernel_size: 3
    weight_filler {
      type: "xavier"
      std: 0.03
    }
    bias_filler {
      type: "constant"
      value: 0.2
    }
  }
}
layer {
  name: "inception_4e/relu_3x3"
  type: "ReLU"
  bottom: "inception_4e/3x3"
  top: "inception_4e/3x3"
}
layer {
  name: "inception_4e/5x5_reduce"
  type: "Convolution"
  bottom: "inception_4d/output"
  top: "inception_4e/5x5_reduce"
  param {
    lr_mult: 1
    decay_mult: 1
  }
  param {
    lr_mult: 2
    decay_mult: 0
  }
  convolution_param {
    num_output: 32
    kernel_size: 1
    weight_filler {
      type: "xavier"
      std: 0.2
    }
    bias_filler {
      type: "constant"
      value: 0.2
    }
  }
}
layer {
  name: "inception_4e/relu_5x5_reduce"
  type: "ReLU"
  bottom: "inception_4e/5x5_reduce"
  top: "inception_4e/5x5_reduce"
}
layer {
  name: "inception_4e/5x5"
  type: "Convolution"
  bottom: "inception_4e/5x5_reduce"
  top: "inception_4e/5x5"
  param {
    lr_mult: 1
    decay_mult: 1
  }
  param {
    lr_mult: 2
    decay_mult: 0
  }
  convolution_param {
    num_output: 128
    pad: 2
    kernel_size: 5
    weight_filler {
      type: "xavier"
      std: 0.03
    }
    bias_filler {
      type: "constant"
      value: 0.2
    }
  }
}
layer {
  name: "inception_4e/relu_5x5"
  type: "ReLU"
  bottom: "inception_4e/5x5"
  top: "inception_4e/5x5"
}
layer {
  name: "inception_4e/pool"
  type: "Pooling"
  bottom: "inception_4d/output"
  top: "inception_4e/pool"
  pooling_param {
    pool: MAX
    kernel_size: 3
    stride: 1
    pad: 1
  }
}
layer {
  name: "inception_4e/pool_proj"
  type: "Convolution"
  bottom: "inception_4e/pool"
  top: "inception_4e/pool_proj"
  param {
    lr_mult: 1
    decay_mult: 1
  }
  param {
    lr_mult: 2
    decay_mult: 0
  }
  convolution_param {
    num_output: 128
    kernel_size: 1
    weight_filler {
      type: "xavier"
      std: 0.1
    }
    bias_filler {
      type: "constant"
      value: 0.2
    }
  }
}
layer {
  name: "inception_4e/relu_pool_proj"
  type: "ReLU"
  bottom: "inception_4e/pool_proj"
  top: "inception_4e/pool_proj"
}
layer {
  name: "inception_4e/output"
  type: "Concat"
  bottom: "inception_4e/1x1"
  bottom: "inception_4e/3x3"
  bottom: "inception_4e/5x5"
  bottom: "inception_4e/pool_proj"
  top: "inception_4e/output"
}
layer {
  name: "pool4/3x3_s2"
  type: "Pooling"
  bottom: "inception_4e/output"
  top: "pool4/3x3_s2"
  pooling_param {
    pool: MAX
    kernel_size: 3
    stride: 2
  }
}
layer {
  name: "inception_5a/1x1"
  type: "Convolution"
  bottom: "pool4/3x3_s2"
  top: "inception_5a/1x1"
  param {
    lr_mult: 1
    decay_mult: 1
  }
  param {
    lr_mult: 2
    decay_mult: 0
  }
  convolution_param {
    num_output: 256
    kernel_size: 1
    weight_filler {
      type: "xavier"
      std: 0.03
    }
    bias_filler {
      type: "constant"
      value: 0.2
    }
  }
}
layer {
  name: "inception_5a/relu_1x1"
  type: "ReLU"
  bottom: "inception_5a/1x1"
  top: "inception_5a/1x1"
}
layer {
  name: "inception_5a/3x3_reduce"
  type: "Convolution"
  bottom: "pool4/3x3_s2"
  top: "inception_5a/3x3_reduce"
  param {
    lr_mult: 1
    decay_mult: 1
  }
  param {
    lr_mult: 2
    decay_mult: 0
  }
  convolution_param {
    num_output: 160
    kernel_size: 1
    weight_filler {
      type: "xavier"
      std: 0.09
    }
    bias_filler {
      type: "constant"
      value: 0.2
    }
  }
}
layer {
  name: "inception_5a/relu_3x3_reduce"
  type: "ReLU"
  bottom: "inception_5a/3x3_reduce"
  top: "inception_5a/3x3_reduce"
}
layer {
  name: "inception_5a/3x3"
  type: "Convolution"
  bottom: "inception_5a/3x3_reduce"
  top: "inception_5a/3x3"
  param {
    lr_mult: 1
    decay_mult: 1
  }
  param {
    lr_mult: 2
    decay_mult: 0
  }
  convolution_param {
    num_output: 320
    pad: 1
    kernel_size: 3
    weight_filler {
      type: "xavier"
      std: 0.03
    }
    bias_filler {
      type: "constant"
      value: 0.2
    }
  }
}
layer {
  name: "inception_5a/relu_3x3"
  type: "ReLU"
  bottom: "inception_5a/3x3"
  top: "inception_5a/3x3"
}
layer {
  name: "inception_5a/5x5_reduce"
  type: "Convolution"
  bottom: "pool4/3x3_s2"
  top: "inception_5a/5x5_reduce"
  param {
    lr_mult: 1
    decay_mult: 1
  }
  param {
    lr_mult: 2
    decay_mult: 0
  }
  convolution_param {
    num_output: 32
    kernel_size: 1
    weight_filler {
      type: "xavier"
      std: 0.2
    }
    bias_filler {
      type: "constant"
      value: 0.2
    }
I0918 01:54:01.500500 14608 layer_factory.hpp:77] Creating layer data
I0918 01:54:01.500504 14610 layer_factory.hpp:77] Creating layer data
I0918 01:54:01.582088 14610 net.cpp:91] Creating Layer data
I0918 01:54:01.582088 14608 net.cpp:91] Creating Layer data
I0918 01:54:01.582108 14610 net.cpp:399] data -> data
I0918 01:54:01.582108 14608 net.cpp:399] data -> data
I0918 01:54:01.582170 14608 net.cpp:141] Setting up data
I0918 01:54:01.582170 14610 net.cpp:141] Setting up data
I0918 01:54:01.582190 14608 net.cpp:148] Top shape: 10 3 224 224 (1505280)
I0918 01:54:01.582191 14610 net.cpp:148] Top shape: 10 3 224 224 (1505280)
I0918 01:54:01.582197 14608 net.cpp:156] Memory required for data: 6021120
I0918 01:54:01.582201 14610 net.cpp:156] Memory required for data: 6021120
I0918 01:54:01.582207 14608 layer_factory.hpp:77] Creating layer conv1/7x7_s2
I0918 01:54:01.582207 14610 layer_factory.hpp:77] Creating layer conv1/7x7_s2
I0918 01:54:01.582228 14608 net.cpp:91] Creating Layer conv1/7x7_s2
I0918 01:54:01.582229 14610 net.cpp:91] Creating Layer conv1/7x7_s2
I0918 01:54:01.582237 14608 net.cpp:425] conv1/7x7_s2 <- data
I0918 01:54:01.582238 14610 net.cpp:425] conv1/7x7_s2 <- data
I0918 01:54:01.582248 14608 net.cpp:399] conv1/7x7_s2 -> conv1/7x7_s2
I0918 01:54:01.582253 14610 net.cpp:399] conv1/7x7_s2 -> conv1/7x7_s2
I0918 01:54:01.582828 14620 layer_factory.hpp:77] Creating layer data
I0918 01:54:01.582850 14620 net.cpp:91] Creating Layer data
I0918 01:54:01.582856 14620 net.cpp:399] data -> data
I0918 01:54:01.582873 14620 net.cpp:141] Setting up data
I0918 01:54:01.582881 14620 net.cpp:148] Top shape: 10 3 224 224 (1505280)
I0918 01:54:01.582885 14620 net.cpp:156] Memory required for data: 6021120
I0918 01:54:01.582890 14620 layer_factory.hpp:77] Creating layer conv1/7x7_s2
I0918 01:54:01.582901 14620 net.cpp:91] Creating Layer conv1/7x7_s2
I0918 01:54:01.582903 14620 net.cpp:425] conv1/7x7_s2 <- data
I0918 01:54:01.582911 14620 net.cpp:399] conv1/7x7_s2 -> conv1/7x7_s2
I0918 01:54:01.583122 14608 net.cpp:141] Setting up conv1/7x7_s2
I0918 01:54:01.583133 14608 net.cpp:148] Top shape: 10 64 112 112 (8028160)
I0918 01:54:01.583137 14610 net.cpp:141] Setting up conv1/7x7_s2
I0918 01:54:01.583137 14608 net.cpp:156] Memory required for data: 38133760
I0918 01:54:01.583151 14610 net.cpp:148] Top shape: 10 64 112 112 (8028160)
I0918 01:54:01.583155 14610 net.cpp:156] Memory required for data: 38133760
I0918 01:54:01.583161 14608 layer_factory.hpp:77] Creating layer conv1/relu_7x7
I0918 01:54:01.583166 14610 layer_factory.hpp:77] Creating layer conv1/relu_7x7
I0918 01:54:01.583173 14608 net.cpp:91] Creating Layer conv1/relu_7x7
I0918 01:54:01.583178 14610 net.cpp:91] Creating Layer conv1/relu_7x7
I0918 01:54:01.583178 14608 net.cpp:425] conv1/relu_7x7 <- conv1/7x7_s2
I0918 01:54:01.583183 14610 net.cpp:425] conv1/relu_7x7 <- conv1/7x7_s2
I0918 01:54:01.583184 14608 net.cpp:386] conv1/relu_7x7 -> conv1/7x7_s2 (in-place)
I0918 01:54:01.583187 14610 net.cpp:386] conv1/relu_7x7 -> conv1/7x7_s2 (in-place)
I0918 01:54:01.583197 14608 net.cpp:141] Setting up conv1/relu_7x7
I0918 01:54:01.583199 14610 net.cpp:141] Setting up conv1/relu_7x7
I0918 01:54:01.583204 14608 net.cpp:148] Top shape: 10 64 112 112 (8028160)
I0918 01:54:01.583204 14610 net.cpp:148] Top shape: 10 64 112 112 (8028160)
I0918 01:54:01.583209 14608 net.cpp:156] Memory required for data: 70246400
I0918 01:54:01.583215 14610 net.cpp:156] Memory required for data: 70246400
I0918 01:54:01.583220 14608 layer_factory.hpp:77] Creating layer pool1/3x3_s2
I0918 01:54:01.583222 14610 layer_factory.hpp:77] Creating layer pool1/3x3_s2
I0918 01:54:01.583230 14608 net.cpp:91] Creating Layer pool1/3x3_s2
I0918 01:54:01.583232 14610 net.cpp:91] Creating Layer pool1/3x3_s2
I0918 01:54:01.583233 14608 net.cpp:425] pool1/3x3_s2 <- conv1/7x7_s2
I0918 01:54:01.583238 14610 net.cpp:425] pool1/3x3_s2 <- conv1/7x7_s2
I0918 01:54:01.583242 14608 net.cpp:399] pool1/3x3_s2 -> pool1/3x3_s2
I0918 01:54:01.583243 14610 net.cpp:399] pool1/3x3_s2 -> pool1/3x3_s2
I0918 01:54:01.583261 14608 net.cpp:141] Setting up pool1/3x3_s2
I0918 01:54:01.583261 14610 net.cpp:141] Setting up pool1/3x3_s2
I0918 01:54:01.598048 14608 net.cpp:148] Top shape: 10 64 56 56 (2007040)
I0918 01:54:01.583473 14620 net.cpp:141] Setting up conv1/7x7_s2
I0918 01:54:01.598059 14610 net.cpp:148] Top shape: 10 64 56 56 (2007040)
I0918 01:54:01.598078 14608 net.cpp:156] Memory required for data: 78274560
I0918 01:54:01.598095 14610 net.cpp:156] Memory required for data: 78274560
I0918 01:54:01.598101 14620 net.cpp:148] Top shape: 10 64 112 112 (8028160)
I0918 01:54:01.598105 14608 layer_factory.hpp:77] Creating layer pool1/norm1
I0918 01:54:01.598109 14620 net.cpp:156] Memory required for data: 38133760
I0918 01:54:01.598106 14610 layer_factory.hpp:77] Creating layer pool1/norm1
I0918 01:54:01.598126 14610 net.cpp:91] Creating Layer pool1/norm1
I0918 01:54:01.598134 14610 net.cpp:425] pool1/norm1 <- pool1/3x3_s2
I0918 01:54:01.598126 14620 layer_factory.hpp:77] Creating layer conv1/relu_7x7
I0918 01:54:01.598145 14610 net.cpp:399] pool1/norm1 -> pool1/norm1
I0918 01:54:01.598134 14608 net.cpp:91] Creating Layer pool1/norm1
I0918 01:54:01.598152 14620 net.cpp:91] Creating Layer conv1/relu_7x7
I0918 01:54:01.598158 14608 net.cpp:425] pool1/norm1 <- pool1/3x3_s2
I0918 01:54:01.598158 14620 net.cpp:425] conv1/relu_7x7 <- conv1/7x7_s2
I0918 01:54:01.598170 14608 net.cpp:399] pool1/norm1 -> pool1/norm1
I0918 01:54:01.598170 14620 net.cpp:386] conv1/relu_7x7 -> conv1/7x7_s2 (in-place)
I0918 01:54:01.598189 14620 net.cpp:141] Setting up conv1/relu_7x7
I0918 01:54:01.598194 14620 net.cpp:148] Top shape: 10 64 112 112 (8028160)
I0918 01:54:01.598197 14620 net.cpp:156] Memory required for data: 70246400
I0918 01:54:01.598201 14620 layer_factory.hpp:77] Creating layer pool1/3x3_s2
I0918 01:54:01.598209 14610 net.cpp:141] Setting up pool1/norm1
I0918 01:54:01.598213 14620 net.cpp:91] Creating Layer pool1/3x3_s2
I0918 01:54:01.598211 14608 net.cpp:141] Setting up pool1/norm1
I0918 01:54:01.598218 14620 net.cpp:425] pool1/3x3_s2 <- conv1/7x7_s2
I0918 01:54:01.598219 14610 net.cpp:148] Top shape: 10 64 56 56 (2007040)
I0918 01:54:01.598224 14620 net.cpp:399] pool1/3x3_s2 -> pool1/3x3_s2
I0918 01:54:01.598227 14608 net.cpp:148] Top shape: 10 64 56 56 (2007040)
I0918 01:54:01.598232 14608 net.cpp:156] Memory required for data: 86302720
I0918 01:54:01.598224 14610 net.cpp:156] Memory required for data: 86302720
I0918 01:54:01.598237 14608 layer_factory.hpp:77] Creating layer conv2/3x3_reduce
I0918 01:54:01.598237 14610 layer_factory.hpp:77] Creating layer conv2/3x3_reduce
I0918 01:54:01.598239 14620 net.cpp:141] Setting up pool1/3x3_s2
I0918 01:54:01.598248 14620 net.cpp:148] Top shape: 10 64 56 56 (2007040)
I0918 01:54:01.598249 14608 net.cpp:91] Creating Layer conv2/3x3_reduce
I0918 01:54:01.598251 14610 net.cpp:91] Creating Layer conv2/3x3_reduce
I0918 01:54:01.598254 14608 net.cpp:425] conv2/3x3_reduce <- pool1/norm1
I0918 01:54:01.598258 14610 net.cpp:425] conv2/3x3_reduce <- pool1/norm1
I0918 01:54:01.598253 14620 net.cpp:156] Memory required for data: 78274560
I0918 01:54:01.598266 14610 net.cpp:399] conv2/3x3_reduce -> conv2/3x3_reduce
I0918 01:54:01.598264 14608 net.cpp:399] conv2/3x3_reduce -> conv2/3x3_reduce
I0918 01:54:01.598270 14620 layer_factory.hpp:77] Creating layer pool1/norm1
I0918 01:54:01.598278 14620 net.cpp:91] Creating Layer pool1/norm1
I0918 01:54:01.598281 14620 net.cpp:425] pool1/norm1 <- pool1/3x3_s2
I0918 01:54:01.598285 14620 net.cpp:399] pool1/norm1 -> pool1/norm1
I0918 01:54:01.598300 14620 net.cpp:141] Setting up pool1/norm1
I0918 01:54:01.598305 14620 net.cpp:148] Top shape: 10 64 56 56 (2007040)
I0918 01:54:01.598307 14620 net.cpp:156] Memory required for data: 86302720
I0918 01:54:01.598310 14620 layer_factory.hpp:77] Creating layer conv2/3x3_reduce
I0918 01:54:01.598321 14620 net.cpp:91] Creating Layer conv2/3x3_reduce
I0918 01:54:01.598325 14620 net.cpp:425] conv2/3x3_reduce <- pool1/norm1
I0918 01:54:01.598327 14610 net.cpp:141] Setting up conv2/3x3_reduce
I0918 01:54:01.598330 14620 net.cpp:399] conv2/3x3_reduce -> conv2/3x3_reduce
I0918 01:54:01.598335 14610 net.cpp:148] Top shape: 10 64 56 56 (2007040)
I0918 01:54:01.598338 14610 net.cpp:156] Memory required for data: 94330880
I0918 01:54:01.598346 14610 layer_factory.hpp:77] Creating layer conv2/relu_3x3_reduce
I0918 01:54:01.598359 14608 net.cpp:141] Setting up conv2/3x3_reduce
I0918 01:54:01.598363 14610 net.cpp:91] Creating Layer conv2/relu_3x3_reduce
I0918 01:54:01.598366 14608 net.cpp:148] Top shape: 10 64 56 56 (2007040)
I0918 01:54:01.598368 14610 net.cpp:425] conv2/relu_3x3_reduce <- conv2/3x3_reduce
I0918 01:54:01.598371 14608 net.cpp:156] Memory required for data: 94330880
I0918 01:54:01.598374 14610 net.cpp:386] conv2/relu_3x3_reduce -> conv2/3x3_reduce (in-place)
I0918 01:54:01.598381 14608 layer_factory.hpp:77] Creating layer conv2/relu_3x3_reduce
I0918 01:54:01.598382 14610 net.cpp:141] Setting up conv2/relu_3x3_reduce
I0918 01:54:01.598392 14608 net.cpp:91] Creating Layer conv2/relu_3x3_reduce
I0918 01:54:01.598397 14620 net.cpp:141] Setting up conv2/3x3_reduce
I0918 01:54:01.598399 14608 net.cpp:425] conv2/relu_3x3_reduce <- conv2/3x3_reduce
I0918 01:54:01.598407 14620 net.cpp:148] Top shape: 10 64 56 56 (2007040)
I0918 01:54:01.598393 14610 net.cpp:148] Top shape: 10 64 56 56 (2007040)
I0918 01:54:01.598410 14620 net.cpp:156] Memory required for data: 94330880
I0918 01:54:01.598410 14608 net.cpp:386] conv2/relu_3x3_reduce -> conv2/3x3_reduce (in-place)
I0918 01:54:01.598417 14610 net.cpp:156] Memory required for data: 102359040
I0918 01:54:01.598430 14608 net.cpp:141] Setting up conv2/relu_3x3_reduce
I0918 01:54:01.598433 14610 layer_factory.hpp:77] Creating layer conv2/3x3
I0918 01:54:01.598426 14620 layer_factory.hpp:77] Creating layer conv2/relu_3x3_reduce
I0918 01:54:01.598439 14608 net.cpp:148] Top shape: 10 64 56 56 (2007040)
I0918 01:54:01.598443 14608 net.cpp:156] Memory required for data: 102359040
I0918 01:54:01.598445 14610 net.cpp:91] Creating Layer conv2/3x3
I0918 01:54:01.598453 14610 net.cpp:425] conv2/3x3 <- conv2/3x3_reduce
I0918 01:54:01.598446 14620 net.cpp:91] Creating Layer conv2/relu_3x3_reduce
I0918 01:54:01.598461 14610 net.cpp:399] conv2/3x3 -> conv2/3x3
I0918 01:54:01.598446 14608 layer_factory.hpp:77] Creating layer conv2/3x3
I0918 01:54:01.598465 14620 net.cpp:425] conv2/relu_3x3_reduce <- conv2/3x3_reduce
I0918 01:54:01.598471 14620 net.cpp:386] conv2/relu_3x3_reduce -> conv2/3x3_reduce (in-place)
I0918 01:54:01.598477 14620 net.cpp:141] Setting up conv2/relu_3x3_reduce
I0918 01:54:01.598482 14620 net.cpp:148] Top shape: 10 64 56 56 (2007040)
I0918 01:54:01.598484 14608 net.cpp:91] Creating Layer conv2/3x3
I0918 01:54:01.598485 14620 net.cpp:156] Memory required for data: 102359040
I0918 01:54:01.598490 14608 net.cpp:425] conv2/3x3 <- conv2/3x3_reduce
I0918 01:54:01.598493 14620 layer_factory.hpp:77] Creating layer conv2/3x3
I0918 01:54:01.598496 14608 net.cpp:399] conv2/3x3 -> conv2/3x3
I0918 01:54:01.598510 14620 net.cpp:91] Creating Layer conv2/3x3
I0918 01:54:01.598515 14620 net.cpp:425] conv2/3x3 <- conv2/3x3_reduce
I0918 01:54:01.598520 14620 net.cpp:399] conv2/3x3 -> conv2/3x3
I0918 01:54:01.599496 14610 net.cpp:141] Setting up conv2/3x3
I0918 01:54:01.599504 14610 net.cpp:148] Top shape: 10 192 56 56 (6021120)
I0918 01:54:01.599508 14610 net.cpp:156] Memory required for data: 126443520
I0918 01:54:01.599515 14610 layer_factory.hpp:77] Creating layer conv2/relu_3x3
I0918 01:54:01.599524 14610 net.cpp:91] Creating Layer conv2/relu_3x3
I0918 01:54:01.599529 14610 net.cpp:425] conv2/relu_3x3 <- conv2/3x3
I0918 01:54:01.599534 14610 net.cpp:386] conv2/relu_3x3 -> conv2/3x3 (in-place)
I0918 01:54:01.599539 14610 net.cpp:141] Setting up conv2/relu_3x3
I0918 01:54:01.599545 14610 net.cpp:148] Top shape: 10 192 56 56 (6021120)
I0918 01:54:01.599547 14610 net.cpp:156] Memory required for data: 150528000
I0918 01:54:01.599550 14610 layer_factory.hpp:77] Creating layer conv2/norm2
I0918 01:54:01.599570 14610 net.cpp:91] Creating Layer conv2/norm2
I0918 01:54:01.599575 14610 net.cpp:425] conv2/norm2 <- conv2/3x3
I0918 01:54:01.599601 14608 net.cpp:141] Setting up conv2/3x3
I0918 01:54:01.599921 14620 net.cpp:141] Setting up conv2/3x3
I0918 01:54:01.621124 14608 net.cpp:148] Top shape: 10 192 56 56 (6021120)
I0918 01:54:01.621114 14610 net.cpp:399] conv2/norm2 -> conv2/norm2
I0918 01:54:01.621132 14608 net.cpp:156] Memory required for data: 126443520
I0918 01:54:01.621142 14620 net.cpp:148] Top shape: 10 192 56 56 (6021120)
I0918 01:54:01.621150 14620 net.cpp:156] Memory required for data: 126443520
I0918 01:54:01.621160 14610 net.cpp:141] Setting up conv2/norm2
I0918 01:54:01.621161 14608 layer_factory.hpp:77] Creating layer conv2/relu_3x3
I0918 01:54:01.621167 14610 net.cpp:148] Top shape: 10 192 56 56 (6021120)
I0918 01:54:01.621170 14610 net.cpp:156] Memory required for data: 174612480
I0918 01:54:01.621173 14620 layer_factory.hpp:77] Creating layer conv2/relu_3x3
I0918 01:54:01.621176 14608 net.cpp:91] Creating Layer conv2/relu_3x3
I0918 01:54:01.621175 14610 layer_factory.hpp:77] Creating layer pool2/3x3_s2
I0918 01:54:01.621181 14608 net.cpp:425] conv2/relu_3x3 <- conv2/3x3
I0918 01:54:01.621187 14620 net.cpp:91] Creating Layer conv2/relu_3x3
I0918 01:54:01.621188 14608 net.cpp:386] conv2/relu_3x3 -> conv2/3x3 (in-place)
I0918 01:54:01.621191 14610 net.cpp:91] Creating Layer pool2/3x3_s2
I0918 01:54:01.621192 14620 net.cpp:425] conv2/relu_3x3 <- conv2/3x3
I0918 01:54:01.621194 14610 net.cpp:425] pool2/3x3_s2 <- conv2/norm2
I0918 01:54:01.621198 14608 net.cpp:141] Setting up conv2/relu_3x3
I0918 01:54:01.621201 14620 net.cpp:386] conv2/relu_3x3 -> conv2/3x3 (in-place)
I0918 01:54:01.621203 14610 net.cpp:399] pool2/3x3_s2 -> pool2/3x3_s2
I0918 01:54:01.621204 14608 net.cpp:148] Top shape: 10 192 56 56 (6021120)
I0918 01:54:01.621217 14610 net.cpp:141] Setting up pool2/3x3_s2
I0918 01:54:01.621209 14620 net.cpp:141] Setting up conv2/relu_3x3
I0918 01:54:01.621223 14610 net.cpp:148] Top shape: 10 192 28 28 (1505280)
I0918 01:54:01.621217 14608 net.cpp:156] Memory required for data: 150528000
I0918 01:54:01.621228 14620 net.cpp:148] Top shape: 10 192 56 56 (6021120)
I0918 01:54:01.621227 14610 net.cpp:156] Memory required for data: 180633600
I0918 01:54:01.621232 14620 net.cpp:156] Memory required for data: 150528000
I0918 01:54:01.621233 14608 layer_factory.hpp:77] Creating layer conv2/norm2
I0918 01:54:01.621235 14610 layer_factory.hpp:77] Creating layer pool2/3x3_s2_pool2/3x3_s2_0_split
I0918 01:54:01.621237 14620 layer_factory.hpp:77] Creating layer conv2/norm2
I0918 01:54:01.621244 14620 net.cpp:91] Creating Layer conv2/norm2
I0918 01:54:01.621248 14620 net.cpp:425] conv2/norm2 <- conv2/3x3
I0918 01:54:01.621254 14610 net.cpp:91] Creating Layer pool2/3x3_s2_pool2/3x3_s2_0_split
I0918 01:54:01.621258 14610 net.cpp:425] pool2/3x3_s2_pool2/3x3_s2_0_split <- pool2/3x3_s2
I0918 01:54:01.621260 14620 net.cpp:399] conv2/norm2 -> conv2/norm2
I0918 01:54:01.621263 14608 net.cpp:91] Creating Layer conv2/norm2
I0918 01:54:01.621264 14610 net.cpp:399] pool2/3x3_s2_pool2/3x3_s2_0_split -> pool2/3x3_s2_pool2/3x3_s2_0_split_0
I0918 01:54:01.621266 14608 net.cpp:425] conv2/norm2 <- conv2/3x3
I0918 01:54:01.621268 14620 net.cpp:141] Setting up conv2/norm2
I0918 01:54:01.621273 14610 net.cpp:399] pool2/3x3_s2_pool2/3x3_s2_0_split -> pool2/3x3_s2_pool2/3x3_s2_0_split_1
I0918 01:54:01.621274 14620 net.cpp:148] Top shape: 10 192 56 56 (6021120)
I0918 01:54:01.621273 14608 net.cpp:399] conv2/norm2 -> conv2/norm2
I0918 01:54:01.621280 14610 net.cpp:399] pool2/3x3_s2_pool2/3x3_s2_0_split -> pool2/3x3_s2_pool2/3x3_s2_0_split_2
I0918 01:54:01.621278 14620 net.cpp:156] Memory required for data: 174612480
I0918 01:54:01.621285 14620 layer_factory.hpp:77] Creating layer pool2/3x3_s2
I0918 01:54:01.621289 14608 net.cpp:141] Setting up conv2/norm2
I0918 01:54:01.621286 14610 net.cpp:399] pool2/3x3_s2_pool2/3x3_s2_0_split -> pool2/3x3_s2_pool2/3x3_s2_0_split_3
I0918 01:54:01.621294 14620 net.cpp:91] Creating Layer pool2/3x3_s2
I0918 01:54:01.621296 14608 net.cpp:148] Top shape: 10 192 56 56 (6021120)
I0918 01:54:01.621304 14610 net.cpp:141] Setting up pool2/3x3_s2_pool2/3x3_s2_0_split
I0918 01:54:01.621297 14620 net.cpp:425] pool2/3x3_s2 <- conv2/norm2
I0918 01:54:01.621305 14608 net.cpp:156] Memory required for data: 174612480
I0918 01:54:01.621312 14610 net.cpp:148] Top shape: 10 192 28 28 (1505280)
I0918 01:54:01.621314 14608 layer_factory.hpp:77] Creating layer pool2/3x3_s2
I0918 01:54:01.621315 14620 net.cpp:399] pool2/3x3_s2 -> pool2/3x3_s2
I0918 01:54:01.621317 14610 net.cpp:148] Top shape: 10 192 28 28 (1505280)
I0918 01:54:01.621321 14608 net.cpp:91] Creating Layer pool2/3x3_s2
I0918 01:54:01.621322 14610 net.cpp:148] Top shape: 10 192 28 28 (1505280)
I0918 01:54:01.621325 14620 net.cpp:141] Setting up pool2/3x3_s2
I0918 01:54:01.621327 14610 net.cpp:148] Top shape: 10 192 28 28 (1505280)
I0918 01:54:01.621325 14608 net.cpp:425] pool2/3x3_s2 <- conv2/norm2
I0918 01:54:01.621331 14610 net.cpp:156] Memory required for data: 204718080
I0918 01:54:01.621332 14620 net.cpp:148] Top shape: 10 192 28 28 (1505280)
I0918 01:54:01.621335 14608 net.cpp:399] pool2/3x3_s2 -> pool2/3x3_s2
I0918 01:54:01.621336 14610 layer_factory.hpp:77] Creating layer inception_3a/1x1
I0918 01:54:01.621337 14620 net.cpp:156] Memory required for data: 180633600
I0918 01:54:01.621343 14608 net.cpp:141] Setting up pool2/3x3_s2
I0918 01:54:01.621345 14620 layer_factory.hpp:77] Creating layer pool2/3x3_s2_pool2/3x3_s2_0_split
I0918 01:54:01.621348 14608 net.cpp:148] Top shape: 10 192 28 28 (1505280)
I0918 01:54:01.621352 14608 net.cpp:156] Memory required for data: 180633600
I0918 01:54:01.621352 14620 net.cpp:91] Creating Layer pool2/3x3_s2_pool2/3x3_s2_0_split
I0918 01:54:01.621357 14610 net.cpp:91] Creating Layer inception_3a/1x1
I0918 01:54:01.621357 14608 layer_factory.hpp:77] Creating layer pool2/3x3_s2_pool2/3x3_s2_0_split
I0918 01:54:01.621362 14610 net.cpp:425] inception_3a/1x1 <- pool2/3x3_s2_pool2/3x3_s2_0_split_0
…
I0918 01:54:01.621398 14608 net.cpp:399] pool2/3x3_s2_pool2/3x3_s2_0_split -> pool2/3x3_s2_pool2/3x3_s2_0_split_1
I0918 01:54:01.621403 14620 net.cpp:399] pool2/3x3_s2_pool2/3x3_s2_0_split -> pool2/3x3_s2_pool2/3x3_s2_0_split_3
I0918 01:54:01.621405 14608 net.cpp:399] pool2/3x3_s2_pool2/3x3_s2_0_split -> pool2/3x3_s2_pool2/3x3_s2_0_split_2
I0918 01:54:01.621410 14608 net.cpp:399] pool2/3x3_s2_pool2/3x3_s2_0_split -> pool2/3x3_s2_pool2/3x3_s2_0_split_3
I0918 01:54:01.621412 14620 net.cpp:141] Setting up pool2/3x3_s2_pool2/3x3_s2_0_split
I0918 01:54:01.621417 14608 net.cpp:141] Setting up pool2/3x3_s2_pool2/3x3_s2_0_split
I0918 01:54:01.621417 14620 net.cpp:148] Top shape: 10 192 28 28 (1505280)
I0918 01:54:01.621424 14608 net.cpp:148] Top shape: 10 192 28 28 (1505280)
I0918 01:54:01.621426 14620 net.cpp:148] Top shape: 10 192 28 28 (1505280)
I0918 01:54:01.621429 14608 net.cpp:148] Top shape: 10 192 28 28 (1505280)
I0918 01:54:01.621431 14620 net.cpp:148] Top shape: 10 192 28 28 (1505280)
I0918 01:54:01.621434 14608 net.cpp:148] Top shape: 10 192 28 28 (1505280)
I0918 01:54:01.621435 14620 net.cpp:148] Top shape: 10 192 28 28 (1505280)
I0918 01:54:01.621438 14608 net.cpp:148] Top shape: 10 192 28 28 (1505280)
I0918 01:54:01.621439 14620 net.cpp:156] Memory required for data: 204718080
I0918 01:54:01.621441 14608 net.cpp:156] Memory required for data: 204718080
I0918 01:54:01.621531 14610 net.cpp:141] Setting up inception_3a/1x1
I0918 01:54:01.640504 14620 layer_factory.hpp:77] Creating layer inception_3a/1x1
I0918 01:54:01.640517 14608 layer_factory.hpp:77] Creating layer inception_3a/1x1
I0918 01:54:01.640542 14610 net.cpp:148] Top shape: 10 64 28 28 (501760)
I0918 01:54:01.640549 14610 net.cpp:156] Memory required for data: 206725120
I0918 01:54:01.640563 14610 layer_factory.hpp:77] Creating layer inception_3a/relu_1x1
I0918 01:54:01.640573 14610 net.cpp:91] Creating Layer inception_3a/relu_1x1
I0918 01:54:01.640576 14608 net.cpp:91] Creating Layer inception_3a/1x1
I0918 01:54:01.640579 14610 net.cpp:425] inception_3a/relu_1x1 <- inception_3a/1x1
I0918 01:54:01.640573 14620 net.cpp:91] Creating Layer inception_3a/1x1
I0918 01:54:01.640584 14608 net.cpp:425] inception_3a/1x1 <- pool2/3x3_s2_pool2/3x3_s2_0_split_0
I0918 01:54:01.640589 14610 net.cpp:386] inception_3a/relu_1x1 -> inception_3a/1x1 (in-place)
I0918 01:54:01.640600 14608 net.cpp:399] inception_3a/1x1 -> inception_3a/1x1
I0918 01:54:01.640594 14620 net.cpp:425] inception_3a/1x1 <- pool2/3x3_s2_pool2/3x3_s2_0_split_0
I0918 01:54:01.640614 14610 net.cpp:141] Setting up inception_3a/relu_1x1
I0918 01:54:01.640619 14610 net.cpp:148] Top shape: 10 64 28 28 (501760)
I0918 01:54:01.640619 14620 net.cpp:399] inception_3a/1x1 -> inception_3a/1x1
I0918 01:54:01.640622 14610 net.cpp:156] Memory required for data: 208732160
I0918 01:54:01.640626 14610 layer_factory.hpp:77] Creating layer inception_3a/3x3_reduce
I0918 01:54:01.640640 14610 net.cpp:91] Creating Layer inception_3a/3x3_reduce
I0918 01:54:01.640643 14610 net.cpp:425] inception_3a/3x3_reduce <- pool2/3x3_s2_pool2/3x3_s2_0_split_1
I0918 01:54:01.640651 14610 net.cpp:399] inception_3a/3x3_reduce -> inception_3a/3x3_reduce
I0918 01:54:01.640761 14608 net.cpp:141] Setting up inception_3a/1x1
I0918 01:54:01.640770 14608 net.cpp:148] Top shape: 10 64 28 28 (501760)
I0918 01:54:01.640774 14608 net.cpp:156] Memory required for data: 206725120
I0918 01:54:01.640781 14608 layer_factory.hpp:77] Creating layer inception_3a/relu_1x1
I0918 01:54:01.640791 14608 net.cpp:91] Creating Layer inception_3a/relu_1x1
I0918 01:54:01.640795 14608 net.cpp:425] inception_3a/relu_1x1 <- inception_3a/1x1
I0918 01:54:01.640800 14608 net.cpp:386] inception_3a/relu_1x1 -> inception_3a/1x1 (in-place)
I0918 01:54:01.640806 14608 net.cpp:141] Setting up inception_3a/relu_1x1
I0918 01:54:01.640804 14620 net.cpp:141] Setting up inception_3a/1x1
I0918 01:54:01.640815 14608 net.cpp:148] Top shape: 10 64 28 28 (501760)
I0918 01:54:01.640825 14608 net.cpp:156] Memory required for data: 208732160
I0918 01:54:01.640828 14608 layer_factory.hpp:77] Creating layer inception_3a/3x3_reduce
I0918 01:54:01.640827 14620 net.cpp:148] Top shape: 10 64 28 28 (501760)
I0918 01:54:01.640838 14620 net.cpp:156] Memory required for data: 206725120
I0918 01:54:01.640843 14608 net.cpp:91] Creating Layer inception_3a/3x3_reduce
I0918 01:54:01.640847 14608 net.cpp:425] inception_3a/3x3_reduce <- pool2/3x3_s2_pool2/3x3_s2_0_split_1
I0918 01:54:01.640849 14620 layer_factory.hpp:77] Creating layer inception_3a/relu_1x1
I0918 01:54:01.640854 14608 net.cpp:399] inception_3a/3x3_reduce -> inception_3a/3x3_reduce
I0918 01:54:01.640863 14620 net.cpp:91] Creating Layer inception_3a/relu_1x1
I0918 01:54:01.640869 14620 net.cpp:425] inception_3a/relu_1x1 <- inception_3a/1x1
I0918 01:54:01.640877 14620 net.cpp:386] inception_3a/relu_1x1 -> inception_3a/1x1 (in-place)
I0918 01:54:01.640887 14620 net.cpp:141] Setting up inception_3a/relu_1x1
I0918 01:54:01.640895 14620 net.cpp:148] Top shape: 10 64 28 28 (501760)
I0918 01:54:01.640897 14610 net.cpp:141] Setting up inception_3a/3x3_reduce
I0918 01:54:01.640900 14620 net.cpp:156] Memory required for data: 208732160
I0918 01:54:01.640915 14610 net.cpp:148] Top shape: 10 96 28 28 (752640)
I0918 01:54:01.640915 14620 layer_factory.hpp:77] Creating layer inception_3a/3x3_reduce
I0918 01:54:01.640925 14610 net.cpp:156] Memory required for data: 211742720
I0918 01:54:01.640938 14620 net.cpp:91] Creating Layer inception_3a/3x3_reduce
I0918 01:54:01.640945 14620 net.cpp:425] inception_3a/3x3_reduce <- pool2/3x3_s2_pool2/3x3_s2_0_split_1
I0918 01:54:01.640946 14610 layer_factory.hpp:77] Creating layer inception_3a/relu_3x3_reduce
I0918 01:54:01.640957 14610 net.cpp:91] Creating Layer inception_3a/relu_3x3_reduce
I0918 01:54:01.640959 14620 net.cpp:399] inception_3a/3x3_reduce -> inception_3a/3x3_reduce
I0918 01:54:01.640964 14610 net.cpp:425] inception_3a/relu_3x3_reduce <- inception_3a/3x3_reduce
I0918 01:54:01.640972 14610 net.cpp:386] inception_3a/relu_3x3_reduce -> inception_3a/3x3_reduce (in-place)
I0918 01:54:01.640982 14610 net.cpp:141] Setting up inception_3a/relu_3x3_reduce
I0918 01:54:01.640991 14610 net.cpp:148] Top shape: 10 96 28 28 (752640)
I0918 01:54:01.640996 14610 net.cpp:156] Memory required for data: 214753280
I0918 01:54:01.641002 14610 layer_factory.hpp:77] Creating layer inception_3a/3x3
I0918 01:54:01.641026 14610 net.cpp:91] Creating Layer inception_3a/3x3
I0918 01:54:01.641033 14608 net.cpp:141] Setting up inception_3a/3x3_reduce
I0918 01:54:01.641033 14610 net.cpp:425] inception_3a/3x3 <- inception_3a/3x3_reduce
I0918 01:54:01.641044 14608 net.cpp:148] Top shape: 10 96 28 28 (752640)
I0918 01:54:01.641054 14608 net.cpp:156] Memory required for data: 211742720
I0918 01:54:01.641062 14610 net.cpp:399] inception_3a/3x3 -> inception_3a/3x3
I0918 01:54:01.641064 14608 layer_factory.hpp:77] Creating layer inception_3a/relu_3x3_reduce
I0918 01:54:01.641077 14608 net.cpp:91] Creating Layer inception_3a/relu_3x3_reduce
I0918 01:54:01.641080 14608 net.cpp:425] inception_3a/relu_3x3_reduce <- inception_3a/3x3_reduce
I0918 01:54:01.641088 14608 net.cpp:386] inception_3a/relu_3x3_reduce -> inception_3a/3x3_reduce (in-place)
I0918 01:54:01.641093 14608 net.cpp:141] Setting up inception_3a/relu_3x3_reduce
I0918 01:54:01.641098 14608 net.cpp:148] Top shape: 10 96 28 28 (752640)
I0918 01:54:01.641100 14608 net.cpp:156] Memory required for data: 214753280
I0918 01:54:01.641103 14608 layer_factory.hpp:77] Creating layer inception_3a/3x3
I0918 01:54:01.641119 14608 net.cpp:91] Creating Layer inception_3a/3x3
I0918 01:54:01.641122 14608 net.cpp:425] inception_3a/3x3 <- inception_3a/3x3_reduce
I0918 01:54:01.641127 14608 net.cpp:399] inception_3a/3x3 -> inception_3a/3x3
I0918 01:54:01.641242 14620 net.cpp:141] Setting up inception_3a/3x3_reduce
I0918 01:54:01.641253 14620 net.cpp:148] Top shape: 10 96 28 28 (752640)
I0918 01:54:01.641259 14620 net.cpp:156] Memory required for data: 211742720
I0918 01:54:01.641274 14620 layer_factory.hpp:77] Creating layer inception_3a/relu_3x3_reduce
I0918 01:54:01.641297 14620 net.cpp:91] Creating Layer inception_3a/relu_3x3_reduce
I0918 01:54:01.641304 14620 net.cpp:425] inception_3a/relu_3x3_reduce <- inception_3a/3x3_reduce
I0918 01:54:01.641312 14620 net.cpp:386] inception_3a/relu_3x3_reduce -> inception_3a/3x3_reduce (in-place)
I0918 01:54:01.641322 14620 net.cpp:141] Setting up inception_3a/relu_3x3_reduce
I0918 01:54:01.641330 14620 net.cpp:148] Top shape: 10 96 28 28 (752640)
I0918 01:54:01.641335 14620 net.cpp:156] Memory required for data: 214753280
I0918 01:54:01.641341 14620 layer_factory.hpp:77] Creating layer inception_3a/3x3
I0918 01:54:01.641360 14620 net.cpp:91] Creating Layer inception_3a/3x3
I0918 01:54:01.641366 14620 net.cpp:425] inception_3a/3x3 <- inception_3a/3x3_reduce
I0918 01:54:01.641389 14620 net.cpp:399] inception_3a/3x3 -> inception_3a/3x3
I0918 01:54:01.642663 14610 net.cpp:141] Setting up inception_3a/3x3
I0918 01:54:01.642681 14610 net.cpp:148] Top shape: 10 128 28 28 (1003520)
I0918 01:54:01.642680 14608 net.cpp:141] Setting up inception_3a/3x3
I0918 01:54:01.642693 14610 net.cpp:156] Memory required for data: 218767360
I0918 01:54:01.642702 14608 net.cpp:148] Top shape: 10 128 28 28 (1003520)
I0918 01:54:01.642707 14608 net.cpp:156] Memory required for data: 218767360
I0918 01:54:01.642709 14610 layer_factory.hpp:77] Creating layer inception_3a/relu_3x3
I0918 01:54:01.642813 14620 net.cpp:141] Setting up inception_3a/3x3
I0918 01:54:01.654043 14608 layer_factory.hpp:77] Creating layer inception_3a/relu_3x3
I0918 01:54:01.654044 14610 net.cpp:91] Creating Layer inception_3a/relu_3x3
I0918 01:54:01.654043 14620 net.cpp:148] Top shape: 10 128 28 28 (1003520)
I0918 01:54:01.654078 14608 net.cpp:91] Creating Layer inception_3a/relu_3x3
I0918 01:54:01.654080 14620 net.cpp:156] Memory required for data: 218767360
I0918 01:54:01.654086 14608 net.cpp:425] inception_3a/relu_3x3 <- inception_3a/3x3
I0918 01:54:01.654080 14610 net.cpp:425] inception_3a/relu_3x3 <- inception_3a/3x3
I0918 01:54:01.654100 14608 net.cpp:386] inception_3a/relu_3x3 -> inception_3a/3x3 (in-place)
I0918 01:54:01.654109 14620 layer_factory.hpp:77] Creating layer inception_3a/relu_3x3
I0918 01:54:01.654114 14610 net.cpp:386] inception_3a/relu_3x3 -> inception_3a/3x3 (in-place)
I0918 01:54:01.654121 14620 net.cpp:91] Creating Layer inception_3a/relu_3x3
I0918 01:54:01.654124 14608 net.cpp:141] Setting up inception_3a/relu_3x3
I0918 01:54:01.654130 14620 net.cpp:425] inception_3a/relu_3x3 <- inception_3a/3x3
I0918 01:54:01.654131 14610 net.cpp:141] Setting up inception_3a/relu_3x3
I0918 01:54:01.654134 14608 net.cpp:148] Top shape: 10 128 28 28 (1003520)
I0918 01:54:01.654140 14608 net.cpp:156] Memory required for data: 222781440
I0918 01:54:01.654144 14610 net.cpp:148] Top shape: 10 128 28 28 (1003520)
I0918 01:54:01.654146 14608 layer_factory.hpp:77] Creating layer inception_3a/5x5_reduce
I0918 01:54:01.654147 14620 net.cpp:386] inception_3a/relu_3x3 -> inception_3a/3x3 (in-place)
I0918 01:54:01.654151 14610 net.cpp:156] Memory required for data: 222781440
I0918 01:54:01.654158 14610 layer_factory.hpp:77] Creating layer inception_3a/5x5_reduce
I0918 01:54:01.654161 14620 net.cpp:141] Setting up inception_3a/relu_3x3
I0918 01:54:01.654168 14608 net.cpp:91] Creating Layer inception_3a/5x5_reduce
I0918 01:54:01.654171 14620 net.cpp:148] Top shape: 10 128 28 28 (1003520)
I0918 01:54:01.654176 14608 net.cpp:425] inception_3a/5x5_reduce <- pool2/3x3_s2_pool2/3x3_s2_0_split_2
I0918 01:54:01.654178 14620 net.cpp:156] Memory required for data: 222781440
I0918 01:54:01.654180 14610 net.cpp:91] Creating Layer inception_3a/5x5_reduce
I0918 01:54:01.654184 14620 layer_factory.hpp:77] Creating layer inception_3a/5x5_reduce
I0918 01:54:01.654191 14610 net.cpp:425] inception_3a/5x5_reduce <- pool2/3x3_s2_pool2/3x3_s2_0_split_2
I0918 01:54:01.654194 14608 net.cpp:399] inception_3a/5x5_reduce -> inception_3a/5x5_reduce
I0918 01:54:01.654202 14610 net.cpp:399] inception_3a/5x5_reduce -> inception_3a/5x5_reduce
I0918 01:54:01.654203 14620 net.cpp:91] Creating Layer inception_3a/5x5_reduce
I0918 01:54:01.654228 14620 net.cpp:425] inception_3a/5x5_reduce <- pool2/3x3_s2_pool2/3x3_s2_0_split_2
I0918 01:54:01.654240 14620 net.cpp:399] inception_3a/5x5_reduce -> inception_3a/5x5_reduce
I0918 01:54:01.654330 14610 net.cpp:141] Setting up inception_3a/5x5_reduce
I0918 01:54:01.654332 14608 net.cpp:141] Setting up inception_3a/5x5_reduce
I0918 01:54:01.654340 14620 net.cpp:141] Setting up inception_3a/5x5_reduce
I0918 01:54:01.654350 14608 net.cpp:148] Top shape: 10 16 28 28 (125440)
I0918 01:54:01.654343 14610 net.cpp:148] Top shape: 10 16 28 28 (125440)
I0918 01:54:01.654363 14620 net.cpp:148] Top shape: 10 16 28 28 (125440)
I0918 01:54:01.654369 14610 net.cpp:156] Memory required for data: 223283200
I0918 01:54:01.654356 14608 net.cpp:156] Memory required for data: 223283200
I0918 01:54:01.654376 14620 net.cpp:156] Memory required for data: 223283200
I0918 01:54:01.654383 14608 layer_factory.hpp:77] Creating layer inception_3a/relu_5x5_reduce
I0918 01:54:01.654386 14610 layer_factory.hpp:77] Creating layer inception_3a/relu_5x5_reduce
I0918 01:54:01.654389 14620 layer_factory.hpp:77] Creating layer inception_3a/relu_5x5_reduce
I0918 01:54:01.654392 14608 net.cpp:91] Creating Layer inception_3a/relu_5x5_reduce
I0918 01:54:01.654397 14608 net.cpp:425] inception_3a/relu_5x5_reduce <- inception_3a/5x5_reduce
I0918 01:54:01.654400 14620 net.cpp:91] Creating Layer inception_3a/relu_5x5_reduce
I0918 01:54:01.654407 14608 net.cpp:386] inception_3a/relu_5x5_reduce -> inception_3a/5x5_reduce (in-place)
I0918 01:54:01.654400 14610 net.cpp:91] Creating Layer inception_3a/relu_5x5_reduce
I0918 01:54:01.654417 14608 net.cpp:141] Setting up inception_3a/relu_5x5_reduce
I0918 01:54:01.654425 14608 net.cpp:148] Top shape: 10 16 28 28 (125440)
I0918 01:54:01.654430 14608 net.cpp:156] Memory required for data: 223784960
I0918 01:54:01.654435 14610 net.cpp:425] inception_3a/relu_5x5_reduce <- inception_3a/5x5_reduce
I0918 01:54:01.654414 14620 net.cpp:425] inception_3a/relu_5x5_reduce <- inception_3a/5x5_reduce
I0918 01:54:01.654443 14608 layer_factory.hpp:77] Creating layer inception_3a/5x5
I0918 01:54:01.654446 14610 net.cpp:386] inception_3a/relu_5x5_reduce -> inception_3a/5x5_reduce (in-place)
I0918 01:54:01.654451 14620 net.cpp:386] inception_3a/relu_5x5_reduce -> inception_3a/5x5_reduce (in-place)
I0918 01:54:01.654454 14608 net.cpp:91] Creating Layer inception_3a/5x5
I0918 01:54:01.654458 14610 net.cpp:141] Setting up inception_3a/relu_5x5_reduce
I0918 01:54:01.654469 14608 net.cpp:425] inception_3a/5x5 <- inception_3a/5x5_reduce
I0918 01:54:01.654467 14620 net.cpp:141] Setting up inception_3a/relu_5x5_reduce
I0918 01:54:01.654480 14608 net.cpp:399] inception_3a/5x5 -> inception_3a/5x5
I0918 01:54:01.654486 14610 net.cpp:148] Top shape: 10 16 28 28 (125440)
I0918 01:54:01.654489 14620 net.cpp:148] Top shape: 10 16 28 28 (125440)
I0918 01:54:01.654494 14610 net.cpp:156] Memory required for data: 223784960
I0918 01:54:01.654495 14620 net.cpp:156] Memory required for data: 223784960
I0918 01:54:01.654500 14610 layer_factory.hpp:77] Creating layer inception_3a/5x5
I0918 01:54:01.654502 14620 layer_factory.hpp:77] Creating layer inception_3a/5x5
I0918 01:54:01.654523 14610 net.cpp:91] Creating Layer inception_3a/5x5
I0918 01:54:01.654530 14620 net.cpp:91] Creating Layer inception_3a/5x5
I0918 01:54:01.654531 14610 net.cpp:425] inception_3a/5x5 <- inception_3a/5x5_reduce
I0918 01:54:01.654544 14620 net.cpp:425] inception_3a/5x5 <- inception_3a/5x5_reduce
I0918 01:54:01.654554 14610 net.cpp:399] inception_3a/5x5 -> inception_3a/5x5
I0918 01:54:01.654556 14620 net.cpp:399] inception_3a/5x5 -> inception_3a/5x5
I0918 01:54:01.654631 14608 net.cpp:141] Setting up inception_3a/5x5
I0918 01:54:01.654641 14608 net.cpp:148] Top shape: 10 32 28 28 (250880)
I0918 01:54:01.654644 14608 net.cpp:156] Memory required for data: 224788480
I0918 01:54:01.654651 14608 layer_factory.hpp:77] Creating layer inception_3a/relu_5x5
I0918 01:54:01.654657 14608 net.cpp:91] Creating Layer inception_3a/relu_5x5
I0918 01:54:01.654660 14608 net.cpp:425] inception_3a/relu_5x5 <- inception_3a/5x5
I0918 01:54:01.654665 14608 net.cpp:386] inception_3a/relu_5x5 -> inception_3a/5x5 (in-place)
I0918 01:54:01.654671 14608 net.cpp:141] Setting up inception_3a/relu_5x5
I0918 01:54:01.654675 14608 net.cpp:148] Top shape: 10 32 28 28 (250880)
I0918 01:54:01.654678 14608 net.cpp:156] Memory required for data: 225792000
I0918 01:54:01.654681 14608 layer_factory.hpp:77] Creating layer inception_3a/pool
I0918 01:54:01.654691 14608 net.cpp:91] Creating Layer inception_3a/pool
I0918 01:54:01.654695 14608 net.cpp:425] inception_3a/pool <- pool2/3x3_s2_pool2/3x3_s2_0_split_3
I0918 01:54:01.654700 14608 net.cpp:399] inception_3a/pool -> inception_3a/pool
I0918 01:54:01.654711 14608 net.cpp:141] Setting up inception_3a/pool
I0918 01:54:01.654714 14608 net.cpp:148] Top shape: 10 192 28 28 (1505280)
I0918 01:54:01.654717 14608 net.cpp:156] Memory required for data: 231813120
I0918 01:54:01.654721 14608 layer_factory.hpp:77] Creating layer inception_3a/pool_proj
I0918 01:54:01.654731 14608 net.cpp:91] Creating Layer inception_3a/pool_proj
I0918 01:54:01.654734 14608 net.cpp:425] inception_3a/pool_proj <- inception_3a/pool
I0918 01:54:01.654742 14608 net.cpp:399] inception_3a/pool_proj -> inception_3a/pool_proj
I0918 01:54:01.654778 14610 net.cpp:141] Setting up inception_3a/5x5
I0918 01:54:01.654790 14610 net.cpp:148] Top shape: 10 32 28 28 (250880)
I0918 01:54:01.654796 14610 net.cpp:156] Memory required for data: 224788480
I0918 01:54:01.654800 14620 net.cpp:141] Setting up inception_3a/5x5
I0918 01:54:01.654808 14610 layer_factory.hpp:77] Creating layer inception_3a/relu_5x5
I0918 01:54:01.654816 14620 net.cpp:148] Top shape: 10 32 28 28 (250880)
I0918 01:54:01.654817 14610 net.cpp:91] Creating Layer inception_3a/relu_5x5
I0918 01:54:01.654827 14620 net.cpp:156] Memory required for data: 224788480
I0918 01:54:01.654832 14610 net.cpp:425] inception_3a/relu_5x5 <- inception_3a/5x5
I0918 01:54:01.654829 14608 net.cpp:141] Setting up inception_3a/pool_proj
I0918 01:54:01.654842 14620 layer_factory.hpp:77] Creating layer inception_3a/relu_5x5
I0918 01:54:01.654847 14610 net.cpp:386] inception_3a/relu_5x5 -> inception_3a/5x5 (in-place)
I0918 01:54:01.654845 14608 net.cpp:148] Top shape: 10 32 28 28 (250880)
I0918 01:54:01.654856 14620 net.cpp:91] Creating Layer inception_3a/relu_5x5
I0918 01:54:01.654860 14608 net.cpp:156] Memory required for data: 232816640
I0918 01:54:01.654861 14610 net.cpp:141] Setting up inception_3a/relu_5x5
I0918 01:54:01.654863 14620 net.cpp:425] inception_3a/relu_5x5 <- inception_3a/5x5
I0918 01:54:01.654875 14608 layer_factory.hpp:77] Creating layer inception_3a/relu_pool_proj
I0918 01:54:01.654876 14610 net.cpp:148] Top shape: 10 32 28 28 (250880)
I0918 01:54:01.654881 14608 net.cpp:91] Creating Layer inception_3a/relu_pool_proj
I0918 01:54:01.654883 14610 net.cpp:156] Memory required for data: 225792000
I0918 01:54:01.654887 14620 net.cpp:386] inception_3a/relu_5x5 -> inception_3a/5x5 (in-place)
I0918 01:54:01.654893 14610 layer_factory.hpp:77] Creating layer inception_3a/pool
I0918 01:54:01.654886 14608 net.cpp:425] inception_3a/relu_pool_proj <- inception_3a/pool_proj
I0918 01:54:01.654902 14620 net.cpp:141] Setting up inception_3a/relu_5x5
I0918 01:54:01.654907 14608 net.cpp:386] inception_3a/relu_pool_proj -> inception_3a/pool_proj (in-place)
I0918 01:54:01.654912 14620 net.cpp:148] Top shape: 10 32 28 28 (250880)
I0918 01:54:01.654907 14610 net.cpp:91] Creating Layer inception_3a/pool
I0918 01:54:01.654917 14608 net.cpp:141] Setting up inception_3a/relu_pool_proj
I0918 01:54:01.654919 14620 net.cpp:156] Memory required for data: 225792000
I0918 01:54:01.654923 14608 net.cpp:148] Top shape: 10 32 28 28 (250880)
I0918 01:54:01.654923 14610 net.cpp:425] inception_3a/pool <- pool2/3x3_s2_pool2/3x3_s2_0_split_3
I0918 01:54:01.654925 14620 layer_factory.hpp:77] Creating layer inception_3a/pool
I0918 01:54:01.654927 14608 net.cpp:156] Memory required for data: 233820160
I0918 01:54:01.654935 14608 layer_factory.hpp:77] Creating layer inception_3a/output
I0918 01:54:01.654937 14620 net.cpp:91] Creating Layer inception_3a/pool
I0918 01:54:01.654938 14610 net.cpp:399] inception_3a/pool -> inception_3a/pool
I0918 01:54:01.654944 14620 net.cpp:425] inception_3a/pool <- pool2/3x3_s2_pool2/3x3_s2_0_split_3
I0918 01:54:01.654954 14608 net.cpp:91] Creating Layer inception_3a/output
I0918 01:54:01.654954 14610 net.cpp:141] Setting up inception_3a/pool
I0918 01:54:01.654958 14620 net.cpp:399] inception_3a/pool -> inception_3a/pool
I0918 01:54:01.654959 14608 net.cpp:425] inception_3a/output <- inception_3a/1x1
I0918 01:54:01.654964 14610 net.cpp:148] Top shape: 10 192 28 28 (1505280)
I0918 01:54:01.654970 14608 net.cpp:425] inception_3a/output <- inception_3a/3x3
I0918 01:54:01.654971 14610 net.cpp:156] Memory required for data: 231813120
I0918 01:54:01.654975 14608 net.cpp:425] inception_3a/output <- inception_3a/5x5
I0918 01:54:01.654976 14620 net.cpp:141] Setting up inception_3a/pool
I0918 01:54:01.654979 14608 net.cpp:425] inception_3a/output <- inception_3a/pool_proj
I0918 01:54:01.654978 14610 layer_factory.hpp:77] Creating layer inception_3a/pool_proj
I0918 01:54:01.654988 14608 net.cpp:399] inception_3a/output -> inception_3a/output
I0918 01:54:01.654986 14620 net.cpp:148] Top shape: 10 192 28 28 (1505280)
I0918 01:54:01.672123 14608 net.cpp:141] Setting up inception_3a/output
I0918 01:54:01.672119 14620 net.cpp:156] Memory required for data: 231813120
I0918 01:54:01.672125 14610 net.cpp:91] Creating Layer inception_3a/pool_proj
I0918 01:54:01.672142 14620 layer_factory.hpp:77] Creating layer inception_3a/pool_proj
I0918 01:54:01.672147 14608 net.cpp:148] Top shape: 10 256 28 28 (2007040)
I0918 01:54:01.672152 14608 net.cpp:156] Memory required for data: 241848320
I0918 01:54:01.672150 14610 net.cpp:425] inception_3a/pool_proj <- inception_3a/pool
I0918 01:54:01.672157 14608 layer_factory.hpp:77] Creating layer inception_3a/output_inception_3a/output_0_split
I0918 01:54:01.672165 14610 net.cpp:399] inception_3a/pool_proj -> inception_3a/pool_proj
I0918 01:54:01.672168 14620 net.cpp:91] Creating Layer inception_3a/pool_proj
…
I0918 01:54:01.672191 14620 net.cpp:399] inception_3a/pool_proj -> inception_3a/pool_proj
I0918 01:54:01.672197 14608 net.cpp:399] inception_3a/output_inception_3a/output_0_split -> inception_3a/output_inception_3a/output_0_split_1
I0918 01:54:01.672204 14608 net.cpp:399] inception_3a/output_inception_3a/output_0_split -> inception_3a/output_inception_3a/output_0_split_2
I0918 01:54:01.672209 14608 net.cpp:399] inception_3a/output_inception_3a/output_0_split -> inception_3a/output_inception_3a/output_0_split_3
I0918 01:54:01.672217 14608 net.cpp:141] Setting up inception_3a/output_inception_3a/output_0_split
I0918 01:54:01.672221 14608 net.cpp:148] Top shape: 10 256 28 28 (2007040)
I0918 01:54:01.672225 14608 net.cpp:148] Top shape: 10 256 28 28 (2007040)
I0918 01:54:01.672230 14608 net.cpp:148] Top shape: 10 256 28 28 (2007040)
I0918 01:54:01.672233 14608 net.cpp:148] Top shape: 10 256 28 28 (2007040)
I0918 01:54:01.672236 14608 net.cpp:156] Memory required for data: 273960960
I0918 01:54:01.672240 14608 layer_factory.hpp:77] Creating layer inception_3b/1x1
I0918 01:54:01.672256 14608 net.cpp:91] Creating Layer inception_3b/1x1
I0918 01:54:01.672260 14608 net.cpp:425] inception_3b/1x1 <- inception_3a/output_inception_3a/output_0_split_0
I0918 01:54:01.672266 14608 net.cpp:399] inception_3b/1x1 -> inception_3b/1x1
I0918 01:54:01.672297 14610 net.cpp:141] Setting up inception_3a/pool_proj
I0918 01:54:01.672310 14610 net.cpp:148] Top shape: 10 32 28 28 (250880)
I0918 01:54:01.672313 14620 net.cpp:141] Setting up inception_3a/pool_proj
I0918 01:54:01.672317 14610 net.cpp:156] Memory required for data: 232816640
I0918 01:54:01.672330 14620 net.cpp:148] Top shape: 10 32 28 28 (250880)
I0918 01:54:01.672336 14620 net.cpp:156] Memory required for data: 232816640
I0918 01:54:01.672346 14610 layer_factory.hpp:77] Creating layer inception_3a/relu_pool_proj
I0918 01:54:01.672358 14620 layer_factory.hpp:77] Creating layer inception_3a/relu_pool_proj
I0918 01:54:01.672358 14610 net.cpp:91] Creating Layer inception_3a/relu_pool_proj
I0918 01:54:01.672370 14620 net.cpp:91] Creating Layer inception_3a/relu_pool_proj
I0918 01:54:01.672371 14610 net.cpp:425] inception_3a/relu_pool_proj <- inception_3a/pool_proj
I0918 01:54:01.672380 14620 net.cpp:425] inception_3a/relu_pool_proj <- inception_3a/pool_proj
I0918 01:54:01.672389 14610 net.cpp:386] inception_3a/relu_pool_proj -> inception_3a/pool_proj (in-place)
I0918 01:54:01.672391 14620 net.cpp:386] inception_3a/relu_pool_proj -> inception_3a/pool_proj (in-place)
I0918 01:54:01.672399 14610 net.cpp:141] Setting up inception_3a/relu_pool_proj
I0918 01:54:01.672402 14620 net.cpp:141] Setting up inception_3a/relu_pool_proj
I0918 01:54:01.672415 14610 net.cpp:148] Top shape: 10 32 28 28 (250880)
I0918 01:54:01.672420 14620 net.cpp:148] Top shape: 10 32 28 28 (250880)
I0918 01:54:01.672421 14610 net.cpp:156] Memory required for data: 233820160
I0918 01:54:01.672430 14620 net.cpp:156] Memory required for data: 233820160
I0918 01:54:01.672435 14610 layer_factory.hpp:77] Creating layer inception_3a/output
I0918 01:54:01.672436 14620 layer_factory.hpp:77] Creating layer inception_3a/output
I0918 01:54:01.672446 14610 net.cpp:91] Creating Layer inception_3a/output
…
I0918 01:54:01.672574 14620 net.cpp:399] inception_3a/output_inception_3a/output_0_split -> inception_3a/output_inception_3a/output_0_split_1
I0918 01:54:01.672577 14610 net.cpp:399] inception_3a/output_inception_3a/output_0_split -> inception_3a/output_inception_3a/output_0_split_3
I0918 01:54:01.672580 14608 net.cpp:141] Setting up inception_3b/1x1
I0918 01:54:01.672585 14620 net.cpp:399] inception_3a/output_inception_3a/output_0_split -> inception_3a/output_inception_3a/output_0_split_2
I0918 01:54:01.672591 14610 net.cpp:141] Setting up inception_3a/output_inception_3a/output_0_split
I0918 01:54:01.672588 14608 net.cpp:148] Top shape: 10 128 28 28 (1003520)
I0918 01:54:01.672598 14608 net.cpp:156] Memory required for data: 277975040
I0918 01:54:01.672600 14610 net.cpp:148] Top shape: 10 256 28 28 (2007040)
I0918 01:54:01.672601 14620 net.cpp:399] inception_3a/output_inception_3a/output_0_split -> inception_3a/output_inception_3a/output_0_split_3
I0918 01:54:01.683187 14610 net.cpp:148] Top shape: 10 256 28 28 (2007040)
I0918 01:54:01.672606 14608 layer_factory.hpp:77] Creating layer inception_3b/relu_1x1
I0918 01:54:01.683200 14610 net.cpp:148] Top shape: 10 256 28 28 (2007040)
I0918 01:54:01.683212 14610 net.cpp:148] Top shape: 10 256 28 28 (2007040)
I0918 01:54:01.683209 14620 net.cpp:141] Setting up inception_3a/output_inception_3a/output_0_split
I0918 01:54:01.683215 14610 net.cpp:156] Memory required for data: 273960960
I0918 01:54:01.683228 14610 layer_factory.hpp:77] Creating layer inception_3b/1x1
I0918 01:54:01.683228 14620 net.cpp:148] Top shape: 10 256 28 28 (2007040)
I0918 01:54:01.683224 14608 net.cpp:91] Creating Layer inception_3b/relu_1x1
I0918 01:54:01.683238 14620 net.cpp:148] Top shape: 10 256 28 28 (2007040)
I0918 01:54:01.683240 14608 net.cpp:425] inception_3b/relu_1x1 <- inception_3b/1x1
I0918 01:54:01.683245 14620 net.cpp:148] Top shape: 10 256 28 28 (2007040)
I0918 01:54:01.683250 14608 net.cpp:386] inception_3b/relu_1x1 -> inception_3b/1x1 (in-place)
I0918 01:54:01.683253 14620 net.cpp:148] Top shape: 10 256 28 28 (2007040)
I0918 01:54:01.683254 14610 net.cpp:91] Creating Layer inception_3b/1x1
I0918 01:54:01.683260 14608 net.cpp:141] Setting up inception_3b/relu_1x1
I0918 01:54:01.683260 14620 net.cpp:156] Memory required for data: 273960960
I0918 01:54:01.683264 14610 net.cpp:425] inception_3b/1x1 <- inception_3a/output_inception_3a/output_0_split_0
I0918 01:54:01.683266 14608 net.cpp:148] Top shape: 10 128 28 28 (1003520)
I0918 01:54:01.683269 14620 layer_factory.hpp:77] Creating layer inception_3b/1x1
I0918 01:54:01.683274 14610 net.cpp:399] inception_3b/1x1 -> inception_3b/1x1
I0918 01:54:01.683270 14608 net.cpp:156] Memory required for data: 281989120
I0918 01:54:01.683279 14608 layer_factory.hpp:77] Creating layer inception_3b/3x3_reduce
I0918 01:54:01.683296 14620 net.cpp:91] Creating Layer inception_3b/1x1
I0918 01:54:01.683305 14620 net.cpp:425] inception_3b/1x1 <- inception_3a/output_inception_3a/output_0_split_0
I0918 01:54:01.683310 14608 net.cpp:91] Creating Layer inception_3b/3x3_reduce
I0918 01:54:01.683316 14608 net.cpp:425] inception_3b/3x3_reduce <- inception_3a/output_inception_3a/output_0_split_1
I0918 01:54:01.683318 14620 net.cpp:399] inception_3b/1x1 -> inception_3b/1x1
I0918 01:54:01.683326 14608 net.cpp:399] inception_3b/3x3_reduce -> inception_3b/3x3_reduce
I0918 01:54:01.683609 14610 net.cpp:141] Setting up inception_3b/1x1
I0918 01:54:01.683616 14610 net.cpp:148] Top shape: 10 128 28 28 (1003520)
I0918 01:54:01.683619 14610 net.cpp:156] Memory required for data: 277975040
I0918 01:54:01.683627 14610 layer_factory.hpp:77] Creating layer inception_3b/relu_1x1
I0918 01:54:01.683634 14610 net.cpp:91] Creating Layer inception_3b/relu_1x1
I0918 01:54:01.683637 14610 net.cpp:425] inception_3b/relu_1x1 <- inception_3b/1x1
I0918 01:54:01.683641 14608 net.cpp:141] Setting up inception_3b/3x3_reduce
I0918 01:54:01.683645 14610 net.cpp:386] inception_3b/relu_1x1 -> inception_3b/1x1 (in-place)
I0918 01:54:01.683650 14608 net.cpp:148] Top shape: 10 128 28 28 (1003520)
I0918 01:54:01.683651 14610 net.cpp:141] Setting up inception_3b/relu_1x1
I0918 01:54:01.683652 14608 net.cpp:156] Memory required for data: 286003200
I0918 01:54:01.683656 14610 net.cpp:148] Top shape: 10 128 28 28 (1003520)
I0918 01:54:01.683660 14610 net.cpp:156] Memory required for data: 281989120
I0918 01:54:01.683661 14608 layer_factory.hpp:77] Creating layer inception_3b/relu_3x3_reduce
I0918 01:54:01.683663 14610 layer_factory.hpp:77] Creating layer inception_3b/3x3_reduce
I0918 01:54:01.683670 14608 net.cpp:91] Creating Layer inception_3b/relu_3x3_reduce
I0918 01:54:01.683675 14610 net.cpp:91] Creating Layer inception_3b/3x3_reduce
I0918 01:54:01.683675 14608 net.cpp:425] inception_3b/relu_3x3_reduce <- inception_3b/3x3_reduce
I0918 01:54:01.683681 14610 net.cpp:425] inception_3b/3x3_reduce <- inception_3a/output_inception_3a/output_0_split_1
I0918 01:54:01.683689 14608 net.cpp:386] inception_3b/relu_3x3_reduce -> inception_3b/3x3_reduce (in-place)
I0918 01:54:01.683694 14610 net.cpp:399] inception_3b/3x3_reduce -> inception_3b/3x3_reduce
I0918 01:54:01.683696 14608 net.cpp:141] Setting up inception_3b/relu_3x3_reduce
I0918 01:54:01.683701 14608 net.cpp:148] Top shape: 10 128 28 28 (1003520)
I0918 01:54:01.683704 14608 net.cpp:156] Memory required for data: 290017280
I0918 01:54:01.683707 14608 layer_factory.hpp:77] Creating layer inception_3b/3x3
I0918 01:54:01.683724 14608 net.cpp:91] Creating Layer inception_3b/3x3
I0918 01:54:01.683728 14608 net.cpp:425] inception_3b/3x3 <- inception_3b/3x3_reduce
I0918 01:54:01.683735 14608 net.cpp:399] inception_3b/3x3 -> inception_3b/3x3
I0918 01:54:01.683784 14620 net.cpp:141] Setting up inception_3b/1x1
I0918 01:54:01.683809 14620 net.cpp:148] Top shape: 10 128 28 28 (1003520)
I0918 01:54:01.683816 14620 net.cpp:156] Memory required for data: 277975040
I0918 01:54:01.683828 14620 layer_factory.hpp:77] Creating layer inception_3b/relu_1x1
I0918 01:54:01.683837 14620 net.cpp:91] Creating Layer inception_3b/relu_1x1
I0918 01:54:01.683845 14620 net.cpp:425] inception_3b/relu_1x1 <- inception_3b/1x1
I0918 01:54:01.683856 14620 net.cpp:386] inception_3b/relu_1x1 -> inception_3b/1x1 (in-place)
I0918 01:54:01.683866 14620 net.cpp:141] Setting up inception_3b/relu_1x1
I0918 01:54:01.683873 14620 net.cpp:148] Top shape: 10 128 28 28 (1003520)
I0918 01:54:01.683878 14620 net.cpp:156] Memory required for data: 281989120
I0918 01:54:01.683883 14620 layer_factory.hpp:77] Creating layer inception_3b/3x3_reduce
I0918 01:54:01.683897 14620 net.cpp:91] Creating Layer inception_3b/3x3_reduce
I0918 01:54:01.683902 14620 net.cpp:425] inception_3b/3x3_reduce <- inception_3a/output_inception_3a/output_0_split_1
I0918 01:54:01.683919 14620 net.cpp:399] inception_3b/3x3_reduce -> inception_3b/3x3_reduce
I0918 01:54:01.684036 14610 net.cpp:141] Setting up inception_3b/3x3_reduce
I0918 01:54:01.684046 14610 net.cpp:148] Top shape: 10 128 28 28 (1003520)
I0918 01:54:01.684049 14610 net.cpp:156] Memory required for data: 286003200
I0918 01:54:01.684056 14610 layer_factory.hpp:77] Creating layer inception_3b/relu_3x3_reduce
I0918 01:54:01.684062 14610 net.cpp:91] Creating Layer inception_3b/relu_3x3_reduce
I0918 01:54:01.684067 14610 net.cpp:425] inception_3b/relu_3x3_reduce <- inception_3b/3x3_reduce
I0918 01:54:01.684072 14610 net.cpp:386] inception_3b/relu_3x3_reduce -> inception_3b/3x3_reduce (in-place)
I0918 01:54:01.684077 14610 net.cpp:141] Setting up inception_3b/relu_3x3_reduce
I0918 01:54:01.684082 14610 net.cpp:148] Top shape: 10 128 28 28 (1003520)
I0918 01:54:01.684084 14610 net.cpp:156] Memory required for data: 290017280
I0918 01:54:01.684087 14610 layer_factory.hpp:77] Creating layer inception_3b/3x3
I0918 01:54:01.684098 14610 net.cpp:91] Creating Layer inception_3b/3x3
I0918 01:54:01.684101 14610 net.cpp:425] inception_3b/3x3 <- inception_3b/3x3_reduce
I0918 01:54:01.684109 14610 net.cpp:399] inception_3b/3x3 -> inception_3b/3x3
I0918 01:54:01.684367 14620 net.cpp:141] Setting up inception_3b/3x3_reduce
I0918 01:54:01.684379 14620 net.cpp:148] Top shape: 10 128 28 28 (1003520)
I0918 01:54:01.684384 14620 net.cpp:156] Memory required for data: 286003200
I0918 01:54:01.684396 14620 layer_factory.hpp:77] Creating layer inception_3b/relu_3x3_reduce
I0918 01:54:01.684414 14620 net.cpp:91] Creating Layer inception_3b/relu_3x3_reduce
I0918 01:54:01.684422 14620 net.cpp:425] inception_3b/relu_3x3_reduce <- inception_3b/3x3_reduce
I0918 01:54:01.684429 14620 net.cpp:386] inception_3b/relu_3x3_reduce -> inception_3b/3x3_reduce (in-place)
I0918 01:54:01.684438 14620 net.cpp:141] Setting up inception_3b/relu_3x3_reduce
I0918 01:54:01.684445 14620 net.cpp:148] Top shape: 10 128 28 28 (1003520)
I0918 01:54:01.684453 14620 net.cpp:156] Memory required for data: 290017280
I0918 01:54:01.684458 14620 layer_factory.hpp:77] Creating layer inception_3b/3x3
I0918 01:54:01.685669 14608 net.cpp:141] Setting up inception_3b/3x3
I0918 01:54:01.686007 14610 net.cpp:141] Setting up inception_3b/3x3
I0918 01:54:01.698940 14608 net.cpp:148] Top shape: 10 192 28 28 (1505280)
I0918 01:54:01.698935 14620 net.cpp:91] Creating Layer inception_3b/3x3
I0918 01:54:01.698956 14610 net.cpp:148] Top shape: 10 192 28 28 (1505280)
I0918 01:54:01.698951 14608 net.cpp:156] Memory required for data: 296038400
I0918 01:54:01.698962 14610 net.cpp:156] Memory required for data: 296038400
I0918 01:54:01.698966 14620 net.cpp:425] inception_3b/3x3 <- inception_3b/3x3_reduce
I0918 01:54:01.698972 14608 layer_factory.hpp:77] Creating layer inception_3b/relu_3x3
I0918 01:54:01.698973 14610 layer_factory.hpp:77] Creating layer inception_3b/relu_3x3
I0918 01:54:01.698987 14620 net.cpp:399] inception_3b/3x3 -> inception_3b/3x3
I0918 01:54:01.698995 14608 net.cpp:91] Creating Layer inception_3b/relu_3x3
I0918 01:54:01.698997 14610 net.cpp:91] Creating Layer inception_3b/relu_3x3
I0918 01:54:01.699002 14608 net.cpp:425] inception_3b/relu_3x3 <- inception_3b/3x3
I0918 01:54:01.699004 14610 net.cpp:425] inception_3b/relu_3x3 <- inception_3b/3x3
I0918 01:54:01.699008 14608 net.cpp:386] inception_3b/relu_3x3 -> inception_3b/3x3 (in-place)
I0918 01:54:01.699012 14610 net.cpp:386] inception_3b/relu_3x3 -> inception_3b/3x3 (in-place)
I0918 01:54:01.699019 14608 net.cpp:141] Setting up inception_3b/relu_3x3
I0918 01:54:01.699019 14610 net.cpp:141] Setting up inception_3b/relu_3x3
I0918 01:54:01.699028 14608 net.cpp:148] Top shape: 10 192 28 28 (1505280)
I0918 01:54:01.699031 14608 net.cpp:156] Memory required for data: 302059520
I0918 01:54:01.699033 14610 net.cpp:148] Top shape: 10 192 28 28 (1505280)
I0918 01:54:01.699035 14608 layer_factory.hpp:77] Creating layer inception_3b/5x5_reduce
I0918 01:54:01.699036 14610 net.cpp:156] Memory required for data: 302059520
I0918 01:54:01.699040 14610 layer_factory.hpp:77] Creating layer inception_3b/5x5_reduce
I0918 01:54:01.699059 14608 net.cpp:91] Creating Layer inception_3b/5x5_reduce
I0918 01:54:01.699064 14610 net.cpp:91] Creating Layer inception_3b/5x5_reduce
I0918 01:54:01.699064 14608 net.cpp:425] inception_3b/5x5_reduce <- inception_3a/output_inception_3a/output_0_split_2
I0918 01:54:01.699071 14610 net.cpp:425] inception_3b/5x5_reduce <- inception_3a/output_inception_3a/output_0_split_2
I0918 01:54:01.699079 14608 net.cpp:399] inception_3b/5x5_reduce -> inception_3b/5x5_reduce
I0918 01:54:01.699080 14610 net.cpp:399] inception_3b/5x5_reduce -> inception_3b/5x5_reduce
I0918 01:54:01.699190 14608 net.cpp:141] Setting up inception_3b/5x5_reduce
I0918 01:54:01.699192 14610 net.cpp:141] Setting up inception_3b/5x5_reduce
I0918 01:54:01.699199 14608 net.cpp:148] Top shape: 10 32 28 28 (250880)
I0918 01:54:01.699201 14610 net.cpp:148] Top shape: 10 32 28 28 (250880)
I0918 01:54:01.699203 14608 net.cpp:156] Memory required for data: 303063040
I0918 01:54:01.699205 14610 net.cpp:156] Memory required for data: 303063040
I0918 01:54:01.699209 14608 layer_factory.hpp:77] Creating layer inception_3b/relu_5x5_reduce
I0918 01:54:01.699213 14610 layer_factory.hpp:77] Creating layer inception_3b/relu_5x5_reduce
I0918 01:54:01.699219 14608 net.cpp:91] Creating Layer inception_3b/relu_5x5_reduce
I0918 01:54:01.699219 14610 net.cpp:91] Creating Layer inception_3b/relu_5x5_reduce
I0918 01:54:01.699225 14608 net.cpp:425] inception_3b/relu_5x5_reduce <- inception_3b/5x5_reduce
I0918 01:54:01.699229 14610 net.cpp:425] inception_3b/relu_5x5_reduce <- inception_3b/5x5_reduce
I0918 01:54:01.699230 14608 net.cpp:386] inception_3b/relu_5x5_reduce -> inception_3b/5x5_reduce (in-place)
I0918 01:54:01.699235 14610 net.cpp:386] inception_3b/relu_5x5_reduce -> inception_3b/5x5_reduce (in-place)
I0918 01:54:01.699236 14608 net.cpp:141] Setting up inception_3b/relu_5x5_reduce
I0918 01:54:01.699245 14610 net.cpp:141] Setting up inception_3b/relu_5x5_reduce
I0918 01:54:01.699246 14608 net.cpp:148] Top shape: 10 32 28 28 (250880)
I0918 01:54:01.699250 14610 net.cpp:148] Top shape: 10 32 28 28 (250880)
I0918 01:54:01.699251 14608 net.cpp:156] Memory required for data: 304066560
I0918 01:54:01.699254 14610 net.cpp:156] Memory required for data: 304066560
I0918 01:54:01.699255 14608 layer_factory.hpp:77] Creating layer inception_3b/5x5
I0918 01:54:01.699259 14610 layer_factory.hpp:77] Creating layer inception_3b/5x5
I0918 01:54:01.699267 14610 net.cpp:91] Creating Layer inception_3b/5x5
I0918 01:54:01.699268 14608 net.cpp:91] Creating Layer inception_3b/5x5
I0918 01:54:01.699270 14610 net.cpp:425] inception_3b/5x5 <- inception_3b/5x5_reduce
I0918 01:54:01.699272 14608 net.cpp:425] inception_3b/5x5 <- inception_3b/5x5_reduce
I0918 01:54:01.699280 14610 net.cpp:399] inception_3b/5x5 -> inception_3b/5x5
I0918 01:54:01.699287 14608 net.cpp:399] inception_3b/5x5 -> inception_3b/5x5
I0918 01:54:01.699987 14608 net.cpp:141] Setting up inception_3b/5x5
I0918 01:54:01.699990 14610 net.cpp:141] Setting up inception_3b/5x5
I0918 01:54:01.699996 14608 net.cpp:148] Top shape: 10 96 28 28 (752640)
I0918 01:54:01.700000 14610 net.cpp:148] Top shape: 10 96 28 28 (752640)
I0918 01:54:01.700001 14608 net.cpp:156] Memory required for data: 307077120
I0918 01:54:01.700003 14610 net.cpp:156] Memory required for data: 307077120
I0918 01:54:01.700008 14608 layer_factory.hpp:77] Creating layer inception_3b/relu_5x5
I0918 01:54:01.700011 14610 layer_factory.hpp:77] Creating layer inception_3b/relu_5x5
I0918 01:54:01.700014 14608 net.cpp:91] Creating Layer inception_3b/relu_5x5
I0918 01:54:01.700018 14610 net.cpp:91] Creating Layer inception_3b/relu_5x5
I0918 01:54:01.700019 14608 net.cpp:425] inception_3b/relu_5x5 <- inception_3b/5x5
I0918 01:54:01.700026 14610 net.cpp:425] inception_3b/relu_5x5 <- inception_3b/5x5
I0918 01:54:01.700031 14610 net.cpp:386] inception_3b/relu_5x5 -> inception_3b/5x5 (in-place)
I0918 01:54:01.700032 14608 net.cpp:386] inception_3b/relu_5x5 -> inception_3b/5x5 (in-place)
I0918 01:54:01.700037 14610 net.cpp:141] Setting up inception_3b/relu_5x5
I0918 01:54:01.700038 14608 net.cpp:141] Setting up inception_3b/relu_5x5
I0918 01:54:01.700042 14610 net.cpp:148] Top shape: 10 96 28 28 (752640)
I0918 01:54:01.700044 14608 net.cpp:148] Top shape: 10 96 28 28 (752640)
I0918 01:54:01.700047 14610 net.cpp:156] Memory required for data: 310087680
I0918 01:54:01.700047 14608 net.cpp:156] Memory required for data: 310087680
I0918 01:54:01.700049 14610 layer_factory.hpp:77] Creating layer inception_3b/pool
I0918 01:54:01.700052 14608 layer_factory.hpp:77] Creating layer inception_3b/pool
…
I0918 01:54:01.789798 14620 net.cpp:156] Memory required for data: 529984000
I0918 01:54:01.789801 14620 layer_factory.hpp:77] Creating layer inception_5a/3x3_reduce
I0918 01:54:01.789811 14620 net.cpp:91] Creating Layer inception_5a/3x3_reduce
I0918 01:54:01.789815 14620 net.cpp:425] inception_5a/3x3_reduce <- pool4/3x3_s2_pool4/3x3_s2_0_split_1
I0918 01:54:01.789822 14620 net.cpp:399] inception_5a/3x3_reduce -> inception_5a/3x3_reduce
I0918 01:54:01.790624 14610 net.cpp:141] Setting up inception_5a/5x5
I0918 01:54:01.790638 14610 net.cpp:148] Top shape: 10 128 7 7 (62720)
I0918 01:54:01.790643 14610 net.cpp:156] Memory required for data: 532241920
I0918 01:54:01.790652 14610 layer_factory.hpp:77] Creating layer inception_5a/relu_5x5
I0918 01:54:01.790690 14610 net.cpp:91] Creating Layer inception_5a/relu_5x5
I0918 01:54:01.790699 14610 net.cpp:425] inception_5a/relu_5x5 <- inception_5a/5x5
I0918 01:54:01.790706 14610 net.cpp:386] inception_5a/relu_5x5 -> inception_5a/5x5 (in-place)
I0918 01:54:01.790714 14610 net.cpp:141] Setting up inception_5a/relu_5x5
I0918 01:54:01.790722 14610 net.cpp:148] Top shape: 10 128 7 7 (62720)
I0918 01:54:01.790726 14610 net.cpp:156] Memory required for data: 532492800
I0918 01:54:01.790732 14610 layer_factory.hpp:77] Creating layer inception_5a/pool
I0918 01:54:01.790745 14610 net.cpp:91] Creating Layer inception_5a/pool
I0918 01:54:01.790751 14610 net.cpp:425] inception_5a/pool <- pool4/3x3_s2_pool4/3x3_s2_0_split_3
I0918 01:54:01.790760 14610 net.cpp:399] inception_5a/pool -> inception_5a/pool
I0918 01:54:01.790771 14610 net.cpp:141] Setting up inception_5a/pool
I0918 01:54:01.790779 14610 net.cpp:148] Top shape: 10 832 7 7 (407680)
I0918 01:54:01.790783 14610 net.cpp:156] Memory required for data: 534123520
I0918 01:54:01.790788 14610 layer_factory.hpp:77] Creating layer inception_5a/pool_proj
I0918 01:54:01.790804 14610 net.cpp:91] Creating Layer inception_5a/pool_proj
I0918 01:54:01.790810 14610 net.cpp:425] inception_5a/pool_proj <- inception_5a/pool
I0918 01:54:01.790820 14610 net.cpp:399] inception_5a/pool_proj -> inception_5a/pool_proj
I0918 01:54:01.790963 14620 net.cpp:141] Setting up inception_5a/3x3_reduce
I0918 01:54:01.790973 14620 net.cpp:148] Top shape: 10 160 7 7 (78400)
I0918 01:54:01.790977 14620 net.cpp:156] Memory required for data: 530297600
I0918 01:54:01.790982 14620 layer_factory.hpp:77] Creating layer inception_5a/relu_3x3_reduce
I0918 01:54:01.790987 14620 net.cpp:91] Creating Layer inception_5a/relu_3x3_reduce
I0918 01:54:01.790992 14620 net.cpp:425] inception_5a/relu_3x3_reduce <- inception_5a/3x3_reduce
I0918 01:54:01.790995 14620 net.cpp:386] inception_5a/relu_3x3_reduce -> inception_5a/3x3_reduce (in-place)
I0918 01:54:01.791002 14620 net.cpp:141] Setting up inception_5a/relu_3x3_reduce
I0918 01:54:01.791005 14620 net.cpp:148] Top shape: 10 160 7 7 (78400)
I0918 01:54:01.791008 14620 net.cpp:156] Memory required for data: 530611200
I0918 01:54:01.791012 14620 layer_factory.hpp:77] Creating layer inception_5a/3x3
I0918 01:54:01.791033 14620 net.cpp:91] Creating Layer inception_5a/3x3
I0918 01:54:01.791038 14620 net.cpp:425] inception_5a/3x3 <- inception_5a/3x3_reduce
I0918 01:54:01.791044 14620 net.cpp:399] inception_5a/3x3 -> inception_5a/3x3
I0918 01:54:01.792165 14610 net.cpp:141] Setting up inception_5a/pool_proj
I0918 01:54:01.792183 14610 net.cpp:148] Top shape: 10 128 7 7 (62720)
I0918 01:54:01.792188 14610 net.cpp:156] Memory required for data: 534374400
I0918 01:54:01.792198 14610 layer_factory.hpp:77] Creating layer inception_5a/relu_pool_proj
I0918 01:54:01.792207 14610 net.cpp:91] Creating Layer inception_5a/relu_pool_proj
I0918 01:54:01.792214 14610 net.cpp:425] inception_5a/relu_pool_proj <- inception_5a/pool_proj
I0918 01:54:01.792222 14610 net.cpp:386] inception_5a/relu_pool_proj -> inception_5a/pool_proj (in-place)
I0918 01:54:01.792230 14610 net.cpp:141] Setting up inception_5a/relu_pool_proj
I0918 01:54:01.792238 14610 net.cpp:148] Top shape: 10 128 7 7 (62720)
I0918 01:54:01.792243 14610 net.cpp:156] Memory required for data: 534625280
I0918 01:54:01.792248 14610 layer_factory.hpp:77] Creating layer inception_5a/output
I0918 01:54:01.792263 14610 net.cpp:91] Creating Layer inception_5a/output
I0918 01:54:01.792268 14610 net.cpp:425] inception_5a/output <- inception_5a/1x1
I0918 01:54:01.792276 14610 net.cpp:425] inception_5a/output <- inception_5a/3x3
I0918 01:54:01.792282 14610 net.cpp:425] inception_5a/output <- inception_5a/5x5
I0918 01:54:01.792289 14610 net.cpp:425] inception_5a/output <- inception_5a/pool_proj
I0918 01:54:01.792295 14610 net.cpp:399] inception_5a/output -> inception_5a/output
I0918 01:54:01.792309 14610 net.cpp:141] Setting up inception_5a/output
I0918 01:54:01.792315 14610 net.cpp:148] Top shape: 10 832 7 7 (407680)
I0918 01:54:01.792320 14610 net.cpp:156] Memory required for data: 536256000
I0918 01:54:01.792325 14610 layer_factory.hpp:77] Creating layer inception_5a/output_inception_5a/output_0_split
I0918 01:54:01.792340 14610 net.cpp:91] Creating Layer inception_5a/output_inception_5a/output_0_split
I0918 01:54:01.792346 14610 net.cpp:425] inception_5a/output_inception_5a/output_0_split <- inception_5a/output
I0918 01:54:01.792352 14610 net.cpp:399] inception_5a/output_inception_5a/output_0_split -> inception_5a/output_inception_5a/output_0_split_0
I0918 01:54:01.792362 14610 net.cpp:399] inception_5a/output_inception_5a/output_0_split -> inception_5a/output_inception_5a/output_0_split_1
I0918 01:54:01.792371 14610 net.cpp:399] inception_5a/output_inception_5a/output_0_split -> inception_5a/output_inception_5a/output_0_split_2
I0918 01:54:01.792379 14610 net.cpp:399] inception_5a/output_inception_5a/output_0_split -> inception_5a/output_inception_5a/output_0_split_3
I0918 01:54:01.792393 14610 net.cpp:141] Setting up inception_5a/output_inception_5a/output_0_split
I0918 01:54:01.792400 14610 net.cpp:148] Top shape: 10 832 7 7 (407680)
I0918 01:54:01.792407 14610 net.cpp:148] Top shape: 10 832 7 7 (407680)
I0918 01:54:01.792413 14610 net.cpp:148] Top shape: 10 832 7 7 (407680)
I0918 01:54:01.792420 14610 net.cpp:148] Top shape: 10 832 7 7 (407680)
I0918 01:54:01.792424 14610 net.cpp:156] Memory required for data: 542778880
I0918 01:54:01.792429 14610 layer_factory.hpp:77] Creating layer inception_5b/1x1
I0918 01:54:01.792444 14610 net.cpp:91] Creating Layer inception_5b/1x1
I0918 01:54:01.792450 14610 net.cpp:425] inception_5b/1x1 <- inception_5a/output_inception_5a/output_0_split_0
I0918 01:54:01.792459 14610 net.cpp:399] inception_5b/1x1 -> inception_5b/1x1
I0918 01:54:01.792970 14608 net.cpp:141] Setting up inception_5a/3x3
I0918 01:54:01.792984 14608 net.cpp:148] Top shape: 10 320 7 7 (156800)
I0918 01:54:01.792989 14608 net.cpp:156] Memory required for data: 531238400
I0918 01:54:01.792997 14608 layer_factory.hpp:77] Creating layer inception_5a/relu_3x3
I0918 01:54:01.793007 14608 net.cpp:91] Creating Layer inception_5a/relu_3x3
I0918 01:54:01.793015 14608 net.cpp:425] inception_5a/relu_3x3 <- inception_5a/3x3
I0918 01:54:01.793020 14608 net.cpp:386] inception_5a/relu_3x3 -> inception_5a/3x3 (in-place)
I0918 01:54:01.793027 14608 net.cpp:141] Setting up inception_5a/relu_3x3
I0918 01:54:01.793032 14608 net.cpp:148] Top shape: 10 320 7 7 (156800)
I0918 01:54:01.793035 14608 net.cpp:156] Memory required for data: 531865600
I0918 01:54:01.793038 14608 layer_factory.hpp:77] Creating layer inception_5a/5x5_reduce
I0918 01:54:01.793053 14608 net.cpp:91] Creating Layer inception_5a/5x5_reduce
I0918 01:54:01.793058 14608 net.cpp:425] inception_5a/5x5_reduce <- pool4/3x3_s2_pool4/3x3_s2_0_split_2
I0918 01:54:01.793067 14608 net.cpp:399] inception_5a/5x5_reduce -> inception_5a/5x5_reduce
I0918 01:54:01.793316 14608 net.cpp:141] Setting up inception_5a/5x5_reduce
I0918 01:54:01.793323 14608 net.cpp:148] Top shape: 10 32 7 7 (15680)
I0918 01:54:01.793326 14608 net.cpp:156] Memory required for data: 531928320
I0918 01:54:01.793332 14608 layer_factory.hpp:77] Creating layer inception_5a/relu_5x5_reduce
I0918 01:54:01.793340 14608 net.cpp:91] Creating Layer inception_5a/relu_5x5_reduce
I0918 01:54:01.793344 14608 net.cpp:425] inception_5a/relu_5x5_reduce <- inception_5a/5x5_reduce
I0918 01:54:01.793349 14608 net.cpp:386] inception_5a/relu_5x5_reduce -> inception_5a/5x5_reduce (in-place)
I0918 01:54:01.793354 14608 net.cpp:141] Setting up inception_5a/relu_5x5_reduce
I0918 01:54:01.793359 14608 net.cpp:148] Top shape: 10 32 7 7 (15680)
I0918 01:54:01.793361 14608 net.cpp:156] Memory required for data: 531991040
I0918 01:54:01.793365 14608 layer_factory.hpp:77] Creating layer inception_5a/5x5
I0918 01:54:01.793377 14608 net.cpp:91] Creating Layer inception_5a/5x5
I0918 01:54:01.793380 14608 net.cpp:425] inception_5a/5x5 <- inception_5a/5x5_reduce
I0918 01:54:01.793387 14608 net.cpp:399] inception_5a/5x5 -> inception_5a/5x5
I0918 01:54:01.794265 14608 net.cpp:141] Setting up inception_5a/5x5
I0918 01:54:01.794273 14608 net.cpp:148] Top shape: 10 128 7 7 (62720)
I0918 01:54:01.794276 14608 net.cpp:156] Memory required for data: 532241920
I0918 01:54:01.794282 14608 layer_factory.hpp:77] Creating layer inception_5a/relu_5x5
I0918 01:54:01.794312 14608 net.cpp:91] Creating Layer inception_5a/relu_5x5
I0918 01:54:01.794317 14608 net.cpp:425] inception_5a/relu_5x5 <- inception_5a/5x5
I0918 01:54:01.794322 14608 net.cpp:386] inception_5a/relu_5x5 -> inception_5a/5x5 (in-place)
I0918 01:54:01.794327 14608 net.cpp:141] Setting up inception_5a/relu_5x5
I0918 01:54:01.794332 14608 net.cpp:148] Top shape: 10 128 7 7 (62720)
I0918 01:54:01.794334 14608 net.cpp:156] Memory required for data: 532492800
I0918 01:54:01.794338 14608 layer_factory.hpp:77] Creating layer inception_5a/pool
I0918 01:54:01.794345 14608 net.cpp:91] Creating Layer inception_5a/pool
I0918 01:54:01.794349 14608 net.cpp:425] inception_5a/pool <- pool4/3x3_s2_pool4/3x3_s2_0_split_3
I0918 01:54:01.794356 14608 net.cpp:399] inception_5a/pool -> inception_5a/pool
I0918 01:54:01.794365 14608 net.cpp:141] Setting up inception_5a/pool
I0918 01:54:01.794369 14608 net.cpp:148] Top shape: 10 832 7 7 (407680)
I0918 01:54:01.794373 14608 net.cpp:156] Memory required for data: 534123520
I0918 01:54:01.794375 14608 layer_factory.hpp:77] Creating layer inception_5a/pool_proj
I0918 01:54:01.794386 14608 net.cpp:91] Creating Layer inception_5a/pool_proj
I0918 01:54:01.794390 14608 net.cpp:425] inception_5a/pool_proj <- inception_5a/pool
I0918 01:54:01.794397 14608 net.cpp:399] inception_5a/pool_proj -> inception_5a/pool_proj
I0918 01:54:01.795101 14620 net.cpp:141] Setting up inception_5a/3x3
I0918 01:54:01.795117 14620 net.cpp:148] Top shape: 10 320 7 7 (156800)
I0918 01:54:01.795121 14620 net.cpp:156] Memory required for data: 531238400
I0918 01:54:01.795130 14620 layer_factory.hpp:77] Creating layer inception_5a/relu_3x3
I0918 01:54:01.795136 14620 net.cpp:91] Creating Layer inception_5a/relu_3x3
I0918 01:54:01.795141 14620 net.cpp:425] inception_5a/relu_3x3 <- inception_5a/3x3
I0918 01:54:01.795150 14620 net.cpp:386] inception_5a/relu_3x3 -> inception_5a/3x3 (in-place)
I0918 01:54:01.795157 14620 net.cpp:141] Setting up inception_5a/relu_3x3
I0918 01:54:01.795162 14620 net.cpp:148] Top shape: 10 320 7 7 (156800)
I0918 01:54:01.795164 14620 net.cpp:156] Memory required for data: 531865600
I0918 01:54:01.795168 14620 layer_factory.hpp:77] Creating layer inception_5a/5x5_reduce
I0918 01:54:01.795197 14620 net.cpp:91] Creating Layer inception_5a/5x5_reduce
I0918 01:54:01.795207 14620 net.cpp:425] inception_5a/5x5_reduce <- pool4/3x3_s2_pool4/3x3_s2_0_split_2
I0918 01:54:01.795219 14620 net.cpp:399] inception_5a/5x5_reduce -> inception_5a/5x5_reduce
I0918 01:54:01.795310 14608 net.cpp:141] Setting up inception_5a/pool_proj
I0918 01:54:01.795320 14608 net.cpp:148] Top shape: 10 128 7 7 (62720)
I0918 01:54:01.795322 14608 net.cpp:156] Memory required for data: 534374400
I0918 01:54:01.795328 14608 layer_factory.hpp:77] Creating layer inception_5a/relu_pool_proj
I0918 01:54:01.795334 14608 net.cpp:91] Creating Layer inception_5a/relu_pool_proj
I0918 01:54:01.795338 14608 net.cpp:425] inception_5a/relu_pool_proj <- inception_5a/pool_proj
I0918 01:54:01.795343 14608 net.cpp:386] inception_5a/relu_pool_proj -> inception_5a/pool_proj (in-place)
I0918 01:54:01.795348 14608 net.cpp:141] Setting up inception_5a/relu_pool_proj
I0918 01:54:01.795352 14608 net.cpp:148] Top shape: 10 128 7 7 (62720)
I0918 01:54:01.795356 14608 net.cpp:156] Memory required for data: 534625280
I0918 01:54:01.795358 14608 layer_factory.hpp:77] Creating layer inception_5a/output
I0918 01:54:01.795366 14608 net.cpp:91] Creating Layer inception_5a/output
I0918 01:54:01.795368 14608 net.cpp:425] inception_5a/output <- inception_5a/1x1
I0918 01:54:01.795372 14608 net.cpp:425] inception_5a/output <- inception_5a/3x3
I0918 01:54:01.795377 14608 net.cpp:425] inception_5a/output <- inception_5a/5x5
I0918 01:54:01.795380 14608 net.cpp:425] inception_5a/output <- inception_5a/pool_proj
I0918 01:54:01.795387 14608 net.cpp:399] inception_5a/output -> inception_5a/output
I0918 01:54:01.795395 14608 net.cpp:141] Setting up inception_5a/output
I0918 01:54:01.795400 14608 net.cpp:148] Top shape: 10 832 7 7 (407680)
I0918 01:54:01.795403 14608 net.cpp:156] Memory required for data: 536256000
I0918 01:54:01.795406 14608 layer_factory.hpp:77] Creating layer inception_5a/output_inception_5a/output_0_split
I0918 01:54:01.795413 14608 net.cpp:91] Creating Layer inception_5a/output_inception_5a/output_0_split
I0918 01:54:01.795416 14608 net.cpp:425] inception_5a/output_inception_5a/output_0_split <- inception_5a/output
I0918 01:54:01.795423 14608 net.cpp:399] inception_5a/output_inception_5a/output_0_split -> inception_5a/output_inception_5a/output_0_split_0
I0918 01:54:01.795430 14608 net.cpp:399] inception_5a/output_inception_5a/output_0_split -> inception_5a/output_inception_5a/output_0_split_1
I0918 01:54:01.795436 14608 net.cpp:399] inception_5a/output_inception_5a/output_0_split -> inception_5a/output_inception_5a/output_0_split_2
I0918 01:54:01.795441 14608 net.cpp:399] inception_5a/output_inception_5a/output_0_split -> inception_5a/output_inception_5a/output_0_split_3
I0918 01:54:01.795449 14608 net.cpp:141] Setting up inception_5a/output_inception_5a/output_0_split
I0918 01:54:01.795454 14608 net.cpp:148] Top shape: 10 832 7 7 (407680)
I0918 01:54:01.795457 14608 net.cpp:148] Top shape: 10 832 7 7 (407680)
I0918 01:54:01.795461 14608 net.cpp:148] Top shape: 10 832 7 7 (407680)
I0918 01:54:01.795464 14608 net.cpp:148] Top shape: 10 832 7 7 (407680)
I0918 01:54:01.795467 14608 net.cpp:156] Memory required for data: 542778880
I0918 01:54:01.795470 14608 layer_factory.hpp:77] Creating layer inception_5b/1x1
I0918 01:54:01.795482 14608 net.cpp:91] Creating Layer inception_5b/1x1
I0918 01:54:01.795486 14608 net.cpp:425] inception_5b/1x1 <- inception_5a/output_inception_5a/output_0_split_0
I0918 01:54:01.795491 14608 net.cpp:399] inception_5b/1x1 -> inception_5b/1x1
I0918 01:54:01.795575 14620 net.cpp:141] Setting up inception_5a/5x5_reduce
I0918 01:54:01.795588 14620 net.cpp:148] Top shape: 10 32 7 7 (15680)
I0918 01:54:01.795591 14620 net.cpp:156] Memory required for data: 531928320
I0918 01:54:01.795598 14620 layer_factory.hpp:77] Creating layer inception_5a/relu_5x5_reduce
I0918 01:54:01.795604 14620 net.cpp:91] Creating Layer inception_5a/relu_5x5_reduce
I0918 01:54:01.795609 14620 net.cpp:425] inception_5a/relu_5x5_reduce <- inception_5a/5x5_reduce
I0918 01:54:01.795614 14620 net.cpp:386] inception_5a/relu_5x5_reduce -> inception_5a/5x5_reduce (in-place)
I0918 01:54:01.795621 14620 net.cpp:141] Setting up inception_5a/relu_5x5_reduce
I0918 01:54:01.795626 14620 net.cpp:148] Top shape: 10 32 7 7 (15680)
I0918 01:54:01.795629 14620 net.cpp:156] Memory required for data: 531991040
I0918 01:54:01.795632 14620 layer_factory.hpp:77] Creating layer inception_5a/5x5
I0918 01:54:01.795651 14620 net.cpp:91] Creating Layer inception_5a/5x5
I0918 01:54:01.795655 14620 net.cpp:425] inception_5a/5x5 <- inception_5a/5x5_reduce
I0918 01:54:01.795661 14620 net.cpp:399] inception_5a/5x5 -> inception_5a/5x5
I0918 01:54:01.796169 14610 net.cpp:141] Setting up inception_5b/1x1
I0918 01:54:01.796186 14610 net.cpp:148] Top shape: 10 384 7 7 (188160)
I0918 01:54:01.796192 14610 net.cpp:156] Memory required for data: 543531520
I0918 01:54:01.796205 14610 layer_factory.hpp:77] Creating layer inception_5b/relu_1x1
I0918 01:54:01.796214 14610 net.cpp:91] Creating Layer inception_5b/relu_1x1
I0918 01:54:01.796222 14610 net.cpp:425] inception_5b/relu_1x1 <- inception_5b/1x1
I0918 01:54:01.796233 14610 net.cpp:386] inception_5b/relu_1x1 -> inception_5b/1x1 (in-place)
I0918 01:54:01.796243 14610 net.cpp:141] Setting up inception_5b/relu_1x1
I0918 01:54:01.796252 14610 net.cpp:148] Top shape: 10 384 7 7 (188160)
I0918 01:54:01.796255 14610 net.cpp:156] Memory required for data: 544284160
I0918 01:54:01.796260 14610 layer_factory.hpp:77] Creating layer inception_5b/3x3_reduce
I0918 01:54:01.796274 14610 net.cpp:91] Creating Layer inception_5b/3x3_reduce
I0918 01:54:01.796280 14610 net.cpp:425] inception_5b/3x3_reduce <- inception_5a/output_inception_5a/output_0_split_1
I0918 01:54:01.796293 14610 net.cpp:399] inception_5b/3x3_reduce -> inception_5b/3x3_reduce
I0918 01:54:01.796586 14620 net.cpp:141] Setting up inception_5a/5x5
I0918 01:54:01.796596 14620 net.cpp:148] Top shape: 10 128 7 7 (62720)
I0918 01:54:01.796598 14620 net.cpp:156] Memory required for data: 532241920
I0918 01:54:01.796604 14620 layer_factory.hpp:77] Creating layer inception_5a/relu_5x5
I0918 01:54:01.796634 14620 net.cpp:91] Creating Layer inception_5a/relu_5x5
I0918 01:54:01.796639 14620 net.cpp:425] inception_5a/relu_5x5 <- inception_5a/5x5
I0918 01:54:01.796643 14620 net.cpp:386] inception_5a/relu_5x5 -> inception_5a/5x5 (in-place)
I0918 01:54:01.796649 14620 net.cpp:141] Setting up inception_5a/relu_5x5
I0918 01:54:01.796654 14620 net.cpp:148] Top shape: 10 128 7 7 (62720)
I0918 01:54:01.796658 14620 net.cpp:156] Memory required for data: 532492800
I0918 01:54:01.796660 14620 layer_factory.hpp:77] Creating layer inception_5a/pool
I0918 01:54:01.796666 14620 net.cpp:91] Creating Layer inception_5a/pool
I0918 01:54:01.796670 14620 net.cpp:425] inception_5a/pool <- pool4/3x3_s2_pool4/3x3_s2_0_split_3
I0918 01:54:01.796684 14620 net.cpp:399] inception_5a/pool -> inception_5a/pool
I0918 01:54:01.796700 14620 net.cpp:141] Setting up inception_5a/pool
I0918 01:54:01.796705 14620 net.cpp:148] Top shape: 10 832 7 7 (407680)
I0918 01:54:01.796707 14620 net.cpp:156] Memory required for data: 534123520
I0918 01:54:01.796710 14620 layer_factory.hpp:77] Creating layer inception_5a/pool_proj
I0918 01:54:01.796721 14620 net.cpp:91] Creating Layer inception_5a/pool_proj
I0918 01:54:01.796725 14620 net.cpp:425] inception_5a/pool_proj <- inception_5a/pool
I0918 01:54:01.796733 14620 net.cpp:399] inception_5a/pool_proj -> inception_5a/pool_proj
I0918 01:54:01.797886 14620 net.cpp:141] Setting up inception_5a/pool_proj
I0918 01:54:01.797900 14620 net.cpp:148] Top shape: 10 128 7 7 (62720)
I0918 01:54:01.797907 14620 net.cpp:156] Memory required for data: 534374400
I0918 01:54:01.797916 14620 layer_factory.hpp:77] Creating layer inception_5a/relu_pool_proj
I0918 01:54:01.797925 14620 net.cpp:91] Creating Layer inception_5a/relu_pool_proj
I0918 01:54:01.797932 14620 net.cpp:425] inception_5a/relu_pool_proj <- inception_5a/pool_proj
I0918 01:54:01.797940 14620 net.cpp:386] inception_5a/relu_pool_proj -> inception_5a/pool_proj (in-place)
I0918 01:54:01.797951 14620 net.cpp:141] Setting up inception_5a/relu_pool_proj
I0918 01:54:01.797958 14620 net.cpp:148] Top shape: 10 128 7 7 (62720)
I0918 01:54:01.797962 14620 net.cpp:156] Memory required for data: 534625280
I0918 01:54:01.797967 14620 layer_factory.hpp:77] Creating layer inception_5a/output
I0918 01:54:01.797976 14620 net.cpp:91] Creating Layer inception_5a/output
I0918 01:54:01.797981 14620 net.cpp:425] inception_5a/output <- inception_5a/1x1
I0918 01:54:01.797987 14620 net.cpp:425] inception_5a/output <- inception_5a/3x3
I0918 01:54:01.797993 14620 net.cpp:425] inception_5a/output <- inception_5a/5x5
I0918 01:54:01.797998 14620 net.cpp:425] inception_5a/output <- inception_5a/pool_proj
I0918 01:54:01.798007 14620 net.cpp:399] inception_5a/output -> inception_5a/output
I0918 01:54:01.798018 14620 net.cpp:141] Setting up inception_5a/output
I0918 01:54:01.798025 14620 net.cpp:148] Top shape: 10 832 7 7 (407680)
I0918 01:54:01.798029 14620 net.cpp:156] Memory required for data: 536256000
I0918 01:54:01.798034 14620 layer_factory.hpp:77] Creating layer inception_5a/output_inception_5a/output_0_split
I0918 01:54:01.798043 14620 net.cpp:91] Creating Layer inception_5a/output_inception_5a/output_0_split
I0918 01:54:01.798049 14620 net.cpp:425] inception_5a/output_inception_5a/output_0_split <- inception_5a/output
I0918 01:54:01.798060 14620 net.cpp:399] inception_5a/output_inception_5a/output_0_split -> inception_5a/output_inception_5a/output_0_split_0
I0918 01:54:01.798070 14620 net.cpp:399] inception_5a/output_inception_5a/output_0_split -> inception_5a/output_inception_5a/output_0_split_1
I0918 01:54:01.798079 14620 net.cpp:399] inception_5a/output_inception_5a/output_0_split -> inception_5a/output_inception_5a/output_0_split_2
I0918 01:54:01.798089 14620 net.cpp:399] inception_5a/output_inception_5a/output_0_split -> inception_5a/output_inception_5a/output_0_split_3
I0918 01:54:01.798102 14620 net.cpp:141] Setting up inception_5a/output_inception_5a/output_0_split
I0918 01:54:01.798110 14620 net.cpp:148] Top shape: 10 832 7 7 (407680)
I0918 01:54:01.798115 14620 net.cpp:148] Top shape: 10 832 7 7 (407680)
I0918 01:54:01.798121 14620 net.cpp:148] Top shape: 10 832 7 7 (407680)
I0918 01:54:01.798127 14620 net.cpp:148] Top shape: 10 832 7 7 (407680)
I0918 01:54:01.798135 14620 net.cpp:156] Memory required for data: 542778880
I0918 01:54:01.798141 14620 layer_factory.hpp:77] Creating layer inception_5b/1x1
I0918 01:54:01.798156 14620 net.cpp:91] Creating Layer inception_5b/1x1
I0918 01:54:01.798161 14620 net.cpp:425] inception_5b/1x1 <- inception_5a/output_inception_5a/output_0_split_0
I0918 01:54:01.798171 14620 net.cpp:399] inception_5b/1x1 -> inception_5b/1x1
I0918 01:54:01.798264 14608 net.cpp:141] Setting up inception_5b/1x1
I0918 01:54:01.798274 14608 net.cpp:148] Top shape: 10 384 7 7 (188160)
I0918 01:54:01.798277 14608 net.cpp:156] Memory required for data: 543531520
I0918 01:54:01.798285 14608 layer_factory.hpp:77] Creating layer inception_5b/relu_1x1
I0918 01:54:01.798296 14608 net.cpp:91] Creating Layer inception_5b/relu_1x1
I0918 01:54:01.798302 14608 net.cpp:425] inception_5b/relu_1x1 <- inception_5b/1x1
I0918 01:54:01.798306 14608 net.cpp:386] inception_5b/relu_1x1 -> inception_5b/1x1 (in-place)
I0918 01:54:01.798312 14608 net.cpp:141] Setting up inception_5b/relu_1x1
I0918 01:54:01.798317 14608 net.cpp:148] Top shape: 10 384 7 7 (188160)
I0918 01:54:01.798319 14608 net.cpp:156] Memory required for data: 544284160
I0918 01:54:01.798323 14608 layer_factory.hpp:77] Creating layer inception_5b/3x3_reduce
I0918 01:54:01.798336 14608 net.cpp:91] Creating Layer inception_5b/3x3_reduce
I0918 01:54:01.798341 14608 net.cpp:425] inception_5b/3x3_reduce <- inception_5a/output_inception_5a/output_0_split_1
I0918 01:54:01.798348 14608 net.cpp:399] inception_5b/3x3_reduce -> inception_5b/3x3_reduce
I0918 01:54:01.798995 14610 net.cpp:141] Setting up inception_5b/3x3_reduce
I0918 01:54:01.799011 14610 net.cpp:148] Top shape: 10 192 7 7 (94080)
I0918 01:54:01.799017 14610 net.cpp:156] Memory required for data: 544660480
I0918 01:54:01.799029 14610 layer_factory.hpp:77] Creating layer inception_5b/relu_3x3_reduce
I0918 01:54:01.799041 14610 net.cpp:91] Creating Layer inception_5b/relu_3x3_reduce
I0918 01:54:01.799047 14610 net.cpp:425] inception_5b/relu_3x3_reduce <- inception_5b/3x3_reduce
I0918 01:54:01.799058 14610 net.cpp:386] inception_5b/relu_3x3_reduce -> inception_5b/3x3_reduce (in-place)
I0918 01:54:01.799069 14610 net.cpp:141] Setting up inception_5b/relu_3x3_reduce
I0918 01:54:01.799077 14610 net.cpp:148] Top shape: 10 192 7 7 (94080)
I0918 01:54:01.799082 14610 net.cpp:156] Memory required for data: 545036800
I0918 01:54:01.799088 14610 layer_factory.hpp:77] Creating layer inception_5b/3x3
I0918 01:54:01.799109 14610 net.cpp:91] Creating Layer inception_5b/3x3
I0918 01:54:01.799115 14610 net.cpp:425] inception_5b/3x3 <- inception_5b/3x3_reduce
I0918 01:54:01.799125 14610 net.cpp:399] inception_5b/3x3 -> inception_5b/3x3
I0918 01:54:01.799760 14608 net.cpp:141] Setting up inception_5b/3x3_reduce
I0918 01:54:01.799768 14608 net.cpp:148] Top shape: 10 192 7 7 (94080)
I0918 01:54:01.799772 14608 net.cpp:156] Memory required for data: 544660480
I0918 01:54:01.799778 14608 layer_factory.hpp:77] Creating layer inception_5b/relu_3x3_reduce
I0918 01:54:01.799784 14608 net.cpp:91] Creating Layer inception_5b/relu_3x3_reduce
I0918 01:54:01.799789 14608 net.cpp:425] inception_5b/relu_3x3_reduce <- inception_5b/3x3_reduce
I0918 01:54:01.799795 14608 net.cpp:386] inception_5b/relu_3x3_reduce -> inception_5b/3x3_reduce (in-place)
I0918 01:54:01.799808 14608 net.cpp:141] Setting up inception_5b/relu_3x3_reduce
I0918 01:54:01.799813 14608 net.cpp:148] Top shape: 10 192 7 7 (94080)
I0918 01:54:01.799815 14608 net.cpp:156] Memory required for data: 545036800
I0918 01:54:01.799818 14608 layer_factory.hpp:77] Creating layer inception_5b/3x3
I0918 01:54:01.799827 14608 net.cpp:91] Creating Layer inception_5b/3x3
I0918 01:54:01.799831 14608 net.cpp:425] inception_5b/3x3 <- inception_5b/3x3_reduce
I0918 01:54:01.799845 14608 net.cpp:399] inception_5b/3x3 -> inception_5b/3x3
I0918 01:54:01.801404 14620 net.cpp:141] Setting up inception_5b/1x1
I0918 01:54:01.801415 14620 net.cpp:148] Top shape: 10 384 7 7 (188160)
I0918 01:54:01.801419 14620 net.cpp:156] Memory required for data: 543531520
I0918 01:54:01.801426 14620 layer_factory.hpp:77] Creating layer inception_5b/relu_1x1
I0918 01:54:01.801434 14620 net.cpp:91] Creating Layer inception_5b/relu_1x1
I0918 01:54:01.801437 14620 net.cpp:425] inception_5b/relu_1x1 <- inception_5b/1x1
I0918 01:54:01.801443 14620 net.cpp:386] inception_5b/relu_1x1 -> inception_5b/1x1 (in-place)
I0918 01:54:01.801450 14620 net.cpp:141] Setting up inception_5b/relu_1x1
I0918 01:54:01.801453 14620 net.cpp:148] Top shape: 10 384 7 7 (188160)
I0918 01:54:01.801456 14620 net.cpp:156] Memory required for data: 544284160
I0918 01:54:01.801460 14620 layer_factory.hpp:77] Creating layer inception_5b/3x3_reduce
I0918 01:54:01.801472 14620 net.cpp:91] Creating Layer inception_5b/3x3_reduce
I0918 01:54:01.801477 14620 net.cpp:425] inception_5b/3x3_reduce <- inception_5a/output_inception_5a/output_0_split_1
I0918 01:54:01.801483 14620 net.cpp:399] inception_5b/3x3_reduce -> inception_5b/3x3_reduce
I0918 01:54:01.802858 14620 net.cpp:141] Setting up inception_5b/3x3_reduce
I0918 01:54:01.802866 14620 net.cpp:148] Top shape: 10 192 7 7 (94080)
I0918 01:54:01.802870 14620 net.cpp:156] Memory required for data: 544660480
I0918 01:54:01.802875 14620 layer_factory.hpp:77] Creating layer inception_5b/relu_3x3_reduce
I0918 01:54:01.802881 14620 net.cpp:91] Creating Layer inception_5b/relu_3x3_reduce
I0918 01:54:01.802886 14620 net.cpp:425] inception_5b/relu_3x3_reduce <- inception_5b/3x3_reduce
I0918 01:54:01.802893 14620 net.cpp:386] inception_5b/relu_3x3_reduce -> inception_5b/3x3_reduce (in-place)
I0918 01:54:01.802898 14620 net.cpp:141] Setting up inception_5b/relu_3x3_reduce
I0918 01:54:01.802903 14620 net.cpp:148] Top shape: 10 192 7 7 (94080)
I0918 01:54:01.802906 14620 net.cpp:156] Memory required for data: 545036800
I0918 01:54:01.802909 14620 layer_factory.hpp:77] Creating layer inception_5b/3x3
I0918 01:54:01.802918 14620 net.cpp:91] Creating Layer inception_5b/3x3
I0918 01:54:01.802922 14620 net.cpp:425] inception_5b/3x3 <- inception_5b/3x3_reduce
I0918 01:54:01.802927 14620 net.cpp:399] inception_5b/3x3 -> inception_5b/3x3
I0918 01:54:01.805567 14608 net.cpp:141] Setting up inception_5b/3x3
I0918 01:54:01.805591 14608 net.cpp:148] Top shape: 10 384 7 7 (188160)
I0918 01:54:01.805595 14608 net.cpp:156] Memory required for data: 545789440
I0918 01:54:01.805603 14608 layer_factory.hpp:77] Creating layer inception_5b/relu_3x3
I0918 01:54:01.805613 14608 net.cpp:91] Creating Layer inception_5b/relu_3x3
I0918 01:54:01.805619 14608 net.cpp:425] inception_5b/relu_3x3 <- inception_5b/3x3
I0918 01:54:01.805626 14608 net.cpp:386] inception_5b/relu_3x3 -> inception_5b/3x3 (in-place)
I0918 01:54:01.805634 14608 net.cpp:141] Setting up inception_5b/relu_3x3
I0918 01:54:01.805637 14608 net.cpp:148] Top shape: 10 384 7 7 (188160)
I0918 01:54:01.805640 14608 net.cpp:156] Memory required for data: 546542080
I0918 01:54:01.805644 14608 layer_factory.hpp:77] Creating layer inception_5b/5x5_reduce
I0918 01:54:01.805655 14608 net.cpp:91] Creating Layer inception_5b/5x5_reduce
I0918 01:54:01.805658 14608 net.cpp:425] inception_5b/5x5_reduce <- inception_5a/output_inception_5a/output_0_split_2
I0918 01:54:01.805666 14608 net.cpp:399] inception_5b/5x5_reduce -> inception_5b/5x5_reduce
I0918 01:54:01.806023 14608 net.cpp:141] Setting up inception_5b/5x5_reduce
I0918 01:54:01.806030 14608 net.cpp:148] Top shape: 10 48 7 7 (23520)
I0918 01:54:01.806032 14608 net.cpp:156] Memory required for data: 546636160
I0918 01:54:01.806038 14608 layer_factory.hpp:77] Creating layer inception_5b/relu_5x5_reduce
I0918 01:54:01.806046 14608 net.cpp:91] Creating Layer inception_5b/relu_5x5_reduce
I0918 01:54:01.806049 14608 net.cpp:425] inception_5b/relu_5x5_reduce <- inception_5b/5x5_reduce
I0918 01:54:01.806053 14608 net.cpp:386] inception_5b/relu_5x5_reduce -> inception_5b/5x5_reduce (in-place)
I0918 01:54:01.806058 14608 net.cpp:141] Setting up inception_5b/relu_5x5_reduce
I0918 01:54:01.806062 14608 net.cpp:148] Top shape: 10 48 7 7 (23520)
I0918 01:54:01.806066 14608 net.cpp:156] Memory required for data: 546730240
I0918 01:54:01.806068 14608 layer_factory.hpp:77] Creating layer inception_5b/5x5
I0918 01:54:01.806079 14608 net.cpp:91] Creating Layer inception_5b/5x5
I0918 01:54:01.806082 14608 net.cpp:425] inception_5b/5x5 <- inception_5b/5x5_reduce
I0918 01:54:01.806089 14608 net.cpp:399] inception_5b/5x5 -> inception_5b/5x5
I0918 01:54:01.807456 14608 net.cpp:141] Setting up inception_5b/5x5
I0918 01:54:01.807473 14608 net.cpp:148] Top shape: 10 128 7 7 (62720)
I0918 01:54:01.807477 14608 net.cpp:156] Memory required for data: 546981120
I0918 01:54:01.807484 14608 layer_factory.hpp:77] Creating layer inception_5b/relu_5x5
I0918 01:54:01.807492 14608 net.cpp:91] Creating Layer inception_5b/relu_5x5
I0918 01:54:01.807497 14608 net.cpp:425] inception_5b/relu_5x5 <- inception_5b/5x5
I0918 01:54:01.807502 14608 net.cpp:386] inception_5b/relu_5x5 -> inception_5b/5x5 (in-place)
I0918 01:54:01.807508 14608 net.cpp:141] Setting up inception_5b/relu_5x5
I0918 01:54:01.807512 14608 net.cpp:148] Top shape: 10 128 7 7 (62720)
I0918 01:54:01.807515 14608 net.cpp:156] Memory required for data: 547232000
I0918 01:54:01.807519 14608 layer_factory.hpp:77] Creating layer inception_5b/pool
I0918 01:54:01.807526 14608 net.cpp:91] Creating Layer inception_5b/pool
I0918 01:54:01.807531 14608 net.cpp:425] inception_5b/pool <- inception_5a/output_inception_5a/output_0_split_3
I0918 01:54:01.807540 14608 net.cpp:399] inception_5b/pool -> inception_5b/pool
I0918 01:54:01.807550 14608 net.cpp:141] Setting up inception_5b/pool
I0918 01:54:01.807555 14608 net.cpp:148] Top shape: 10 832 7 7 (407680)
I0918 01:54:01.807557 14608 net.cpp:156] Memory required for data: 548862720
I0918 01:54:01.807560 14608 layer_factory.hpp:77] Creating layer inception_5b/pool_proj
I0918 01:54:01.807571 14608 net.cpp:91] Creating Layer inception_5b/pool_proj
I0918 01:54:01.807575 14608 net.cpp:425] inception_5b/pool_proj <- inception_5b/pool
I0918 01:54:01.807582 14608 net.cpp:399] inception_5b/pool_proj -> inception_5b/pool_proj
I0918 01:54:01.807715 14610 net.cpp:141] Setting up inception_5b/3x3
I0918 01:54:01.807732 14610 net.cpp:148] Top shape: 10 384 7 7 (188160)
I0918 01:54:01.807737 14610 net.cpp:156] Memory required for data: 545789440
I0918 01:54:01.807749 14610 layer_factory.hpp:77] Creating layer inception_5b/relu_3x3
I0918 01:54:01.807760 14610 net.cpp:91] Creating Layer inception_5b/relu_3x3
I0918 01:54:01.807767 14610 net.cpp:425] inception_5b/relu_3x3 <- inception_5b/3x3
I0918 01:54:01.807775 14610 net.cpp:386] inception_5b/relu_3x3 -> inception_5b/3x3 (in-place)
I0918 01:54:01.807785 14610 net.cpp:141] Setting up inception_5b/relu_3x3
I0918 01:54:01.807792 14610 net.cpp:148] Top shape: 10 384 7 7 (188160)
I0918 01:54:01.807797 14610 net.cpp:156] Memory required for data: 546542080
I0918 01:54:01.807811 14610 layer_factory.hpp:77] Creating layer inception_5b/5x5_reduce
I0918 01:54:01.807828 14610 net.cpp:91] Creating Layer inception_5b/5x5_reduce
I0918 01:54:01.807835 14610 net.cpp:425] inception_5b/5x5_reduce <- inception_5a/output_inception_5a/output_0_split_2
I0918 01:54:01.807847 14610 net.cpp:399] inception_5b/5x5_reduce -> inception_5b/5x5_reduce
I0918 01:54:01.808365 14610 net.cpp:141] Setting up inception_5b/5x5_reduce
I0918 01:54:01.808382 14610 net.cpp:148] Top shape: 10 48 7 7 (23520)
I0918 01:54:01.808388 14610 net.cpp:156] Memory required for data: 546636160
I0918 01:54:01.808398 14610 layer_factory.hpp:77] Creating layer inception_5b/relu_5x5_reduce
I0918 01:54:01.808406 14610 net.cpp:91] Creating Layer inception_5b/relu_5x5_reduce
I0918 01:54:01.808413 14610 net.cpp:425] inception_5b/relu_5x5_reduce <- inception_5b/5x5_reduce
I0918 01:54:01.808419 14610 net.cpp:386] inception_5b/relu_5x5_reduce -> inception_5b/5x5_reduce (in-place)
I0918 01:54:01.808429 14610 net.cpp:141] Setting up inception_5b/relu_5x5_reduce
I0918 01:54:01.808435 14610 net.cpp:148] Top shape: 10 48 7 7 (23520)
I0918 01:54:01.808439 14610 net.cpp:156] Memory required for data: 546730240
I0918 01:54:01.808444 14610 layer_factory.hpp:77] Creating layer inception_5b/5x5
I0918 01:54:01.808461 14610 net.cpp:91] Creating Layer inception_5b/5x5
I0918 01:54:01.808467 14610 net.cpp:425] inception_5b/5x5 <- inception_5b/5x5_reduce
I0918 01:54:01.808477 14610 net.cpp:399] inception_5b/5x5 -> inception_5b/5x5
I0918 01:54:01.808545 14608 net.cpp:141] Setting up inception_5b/pool_proj
I0918 01:54:01.808554 14608 net.cpp:148] Top shape: 10 128 7 7 (62720)
I0918 01:54:01.808557 14608 net.cpp:156] Memory required for data: 549113600
I0918 01:54:01.808564 14608 layer_factory.hpp:77] Creating layer inception_5b/relu_pool_proj
I0918 01:54:01.808573 14608 net.cpp:91] Creating Layer inception_5b/relu_pool_proj
I0918 01:54:01.808576 14608 net.cpp:425] inception_5b/relu_pool_proj <- inception_5b/pool_proj
I0918 01:54:01.808581 14608 net.cpp:386] inception_5b/relu_pool_proj -> inception_5b/pool_proj (in-place)
I0918 01:54:01.808586 14608 net.cpp:141] Setting up inception_5b/relu_pool_proj
I0918 01:54:01.808591 14608 net.cpp:148] Top shape: 10 128 7 7 (62720)
I0918 01:54:01.808593 14608 net.cpp:156] Memory required for data: 549364480
I0918 01:54:01.808596 14608 layer_factory.hpp:77] Creating layer inception_5b/output
I0918 01:54:01.808605 14608 net.cpp:91] Creating Layer inception_5b/output
I0918 01:54:01.808609 14608 net.cpp:425] inception_5b/output <- inception_5b/1x1
I0918 01:54:01.808614 14608 net.cpp:425] inception_5b/output <- inception_5b/3x3
I0918 01:54:01.808616 14608 net.cpp:425] inception_5b/output <- inception_5b/5x5
I0918 01:54:01.808620 14608 net.cpp:425] inception_5b/output <- inception_5b/pool_proj
I0918 01:54:01.808625 14608 net.cpp:399] inception_5b/output -> inception_5b/output
I0918 01:54:01.808634 14608 net.cpp:141] Setting up inception_5b/output
I0918 01:54:01.808639 14608 net.cpp:148] Top shape: 10 1024 7 7 (501760)
I0918 01:54:01.808641 14608 net.cpp:156] Memory required for data: 551371520
I0918 01:54:01.808645 14608 layer_factory.hpp:77] Creating layer pool5/7x7_s1
I0918 01:54:01.808651 14608 net.cpp:91] Creating Layer pool5/7x7_s1
I0918 01:54:01.808655 14608 net.cpp:425] pool5/7x7_s1 <- inception_5b/output
I0918 01:54:01.808662 14608 net.cpp:399] pool5/7x7_s1 -> pool5/7x7_s1
I0918 01:54:01.808670 14608 net.cpp:141] Setting up pool5/7x7_s1
I0918 01:54:01.808675 14608 net.cpp:148] Top shape: 10 1024 1 1 (10240)
I0918 01:54:01.808677 14608 net.cpp:156] Memory required for data: 551412480
I0918 01:54:01.808681 14608 layer_factory.hpp:77] Creating layer pool5/drop_7x7_s1
I0918 01:54:01.808698 14608 net.cpp:91] Creating Layer pool5/drop_7x7_s1
I0918 01:54:01.808703 14608 net.cpp:425] pool5/drop_7x7_s1 <- pool5/7x7_s1
I0918 01:54:01.808707 14608 net.cpp:386] pool5/drop_7x7_s1 -> pool5/7x7_s1 (in-place)
I0918 01:54:01.808724 14608 net.cpp:141] Setting up pool5/drop_7x7_s1
I0918 01:54:01.808728 14608 net.cpp:148] Top shape: 10 1024 1 1 (10240)
I0918 01:54:01.808732 14608 net.cpp:156] Memory required for data: 551453440
I0918 01:54:01.808734 14608 layer_factory.hpp:77] Creating layer loss3/classifier
I0918 01:54:01.808744 14608 net.cpp:91] Creating Layer loss3/classifier
I0918 01:54:01.808748 14608 net.cpp:425] loss3/classifier <- pool5/7x7_s1
I0918 01:54:01.808770 14608 net.cpp:399] loss3/classifier -> loss3/classifier
I0918 01:54:01.808773 14620 net.cpp:141] Setting up inception_5b/3x3
I0918 01:54:01.808786 14620 net.cpp:148] Top shape: 10 384 7 7 (188160)
I0918 01:54:01.808790 14620 net.cpp:156] Memory required for data: 545789440
I0918 01:54:01.808799 14620 layer_factory.hpp:77] Creating layer inception_5b/relu_3x3
I0918 01:54:01.808805 14620 net.cpp:91] Creating Layer inception_5b/relu_3x3
I0918 01:54:01.808812 14620 net.cpp:425] inception_5b/relu_3x3 <- inception_5b/3x3
I0918 01:54:01.808817 14620 net.cpp:386] inception_5b/relu_3x3 -> inception_5b/3x3 (in-place)
I0918 01:54:01.808826 14620 net.cpp:141] Setting up inception_5b/relu_3x3
I0918 01:54:01.808831 14620 net.cpp:148] Top shape: 10 384 7 7 (188160)
I0918 01:54:01.808835 14620 net.cpp:156] Memory required for data: 546542080
I0918 01:54:01.808837 14620 layer_factory.hpp:77] Creating layer inception_5b/5x5_reduce
I0918 01:54:01.808846 14620 net.cpp:91] Creating Layer inception_5b/5x5_reduce
I0918 01:54:01.808851 14620 net.cpp:425] inception_5b/5x5_reduce <- inception_5a/output_inception_5a/output_0_split_2
I0918 01:54:01.808866 14620 net.cpp:399] inception_5b/5x5_reduce -> inception_5b/5x5_reduce
I0918 01:54:01.809240 14620 net.cpp:141] Setting up inception_5b/5x5_reduce
I0918 01:54:01.809247 14620 net.cpp:148] Top shape: 10 48 7 7 (23520)
I0918 01:54:01.809250 14620 net.cpp:156] Memory required for data: 546636160
I0918 01:54:01.809257 14620 layer_factory.hpp:77] Creating layer inception_5b/relu_5x5_reduce
I0918 01:54:01.809269 14620 net.cpp:91] Creating Layer inception_5b/relu_5x5_reduce
I0918 01:54:01.809273 14620 net.cpp:425] inception_5b/relu_5x5_reduce <- inception_5b/5x5_reduce
I0918 01:54:01.809278 14620 net.cpp:386] inception_5b/relu_5x5_reduce -> inception_5b/5x5_reduce (in-place)
I0918 01:54:01.809284 14620 net.cpp:141] Setting up inception_5b/relu_5x5_reduce
I0918 01:54:01.809288 14620 net.cpp:148] Top shape: 10 48 7 7 (23520)
I0918 01:54:01.809291 14620 net.cpp:156] Memory required for data: 546730240
I0918 01:54:01.809294 14620 layer_factory.hpp:77] Creating layer inception_5b/5x5
I0918 01:54:01.809304 14620 net.cpp:91] Creating Layer inception_5b/5x5
I0918 01:54:01.809308 14620 net.cpp:425] inception_5b/5x5 <- inception_5b/5x5_reduce
I0918 01:54:01.812837 14620 net.cpp:399] inception_5b/5x5 -> inception_5b/5x5
I0918 01:54:01.812840 14610 net.cpp:141] Setting up inception_5b/5x5
I0918 01:54:01.812861 14610 net.cpp:148] Top shape: 10 128 7 7 (62720)
I0918 01:54:01.812867 14610 net.cpp:156] Memory required for data: 546981120
I0918 01:54:01.812878 14610 layer_factory.hpp:77] Creating layer inception_5b/relu_5x5
I0918 01:54:01.812888 14610 net.cpp:91] Creating Layer inception_5b/relu_5x5
I0918 01:54:01.812896 14610 net.cpp:425] inception_5b/relu_5x5 <- inception_5b/5x5
I0918 01:54:01.812904 14610 net.cpp:386] inception_5b/relu_5x5 -> inception_5b/5x5 (in-place)
I0918 01:54:01.812913 14610 net.cpp:141] Setting up inception_5b/relu_5x5
I0918 01:54:01.812921 14610 net.cpp:148] Top shape: 10 128 7 7 (62720)
I0918 01:54:01.812925 14610 net.cpp:156] Memory required for data: 547232000
I0918 01:54:01.812930 14610 layer_factory.hpp:77] Creating layer inception_5b/pool
I0918 01:54:01.812952 14610 net.cpp:91] Creating Layer inception_5b/pool
I0918 01:54:01.812960 14610 net.cpp:425] inception_5b/pool <- inception_5a/output_inception_5a/output_0_split_3
I0918 01:54:01.812968 14610 net.cpp:399] inception_5b/pool -> inception_5b/pool
I0918 01:54:01.812981 14610 net.cpp:141] Setting up inception_5b/pool
I0918 01:54:01.812991 14610 net.cpp:148] Top shape: 10 832 7 7 (407680)
I0918 01:54:01.812996 14610 net.cpp:156] Memory required for data: 548862720
I0918 01:54:01.813001 14610 layer_factory.hpp:77] Creating layer inception_5b/pool_proj
I0918 01:54:01.813014 14610 net.cpp:91] Creating Layer inception_5b/pool_proj
I0918 01:54:01.813019 14610 net.cpp:425] inception_5b/pool_proj <- inception_5b/pool
I0918 01:54:01.813041 14610 net.cpp:399] inception_5b/pool_proj -> inception_5b/pool_proj
I0918 01:54:01.816500 14610 net.cpp:141] Setting up inception_5b/pool_proj
I0918 01:54:01.816504 14620 net.cpp:141] Setting up inception_5b/5x5
I0918 01:54:01.816520 14610 net.cpp:148] Top shape: 10 128 7 7 (62720)
I0918 01:54:01.816524 14620 net.cpp:148] Top shape: 10 128 7 7 (62720)
I0918 01:54:01.816525 14610 net.cpp:156] Memory required for data: 549113600
I0918 01:54:01.816527 14620 net.cpp:156] Memory required for data: 546981120
I0918 01:54:01.816541 14620 layer_factory.hpp:77] Creating layer inception_5b/relu_5x5
I0918 01:54:01.816540 14610 layer_factory.hpp:77] Creating layer inception_5b/relu_pool_proj
I0918 01:54:01.816551 14620 net.cpp:91] Creating Layer inception_5b/relu_5x5
I0918 01:54:01.816556 14620 net.cpp:425] inception_5b/relu_5x5 <- inception_5b/5x5
I0918 01:54:01.816557 14610 net.cpp:91] Creating Layer inception_5b/relu_pool_proj
I0918 01:54:01.816565 14620 net.cpp:386] inception_5b/relu_5x5 -> inception_5b/5x5 (in-place)
I0918 01:54:01.816565 14610 net.cpp:425] inception_5b/relu_pool_proj <- inception_5b/pool_proj
I0918 01:54:01.816572 14620 net.cpp:141] Setting up inception_5b/relu_5x5
I0918 01:54:01.816577 14620 net.cpp:148] Top shape: 10 128 7 7 (62720)
I0918 01:54:01.816576 14610 net.cpp:386] inception_5b/relu_pool_proj -> inception_5b/pool_proj (in-place)
I0918 01:54:01.816584 14620 net.cpp:156] Memory required for data: 547232000
I0918 01:54:01.816593 14620 layer_factory.hpp:77] Creating layer inception_5b/pool
I0918 01:54:01.816596 14610 net.cpp:141] Setting up inception_5b/relu_pool_proj
I0918 01:54:01.816601 14620 net.cpp:91] Creating Layer inception_5b/pool
I0918 01:54:01.816606 14620 net.cpp:425] inception_5b/pool <- inception_5a/output_inception_5a/output_0_split_3
I0918 01:54:01.816606 14610 net.cpp:148] Top shape: 10 128 7 7 (62720)
I0918 01:54:01.816612 14620 net.cpp:399] inception_5b/pool -> inception_5b/pool
I0918 01:54:01.816612 14610 net.cpp:156] Memory required for data: 549364480
I0918 01:54:01.816617 14610 layer_factory.hpp:77] Creating layer inception_5b/output
I0918 01:54:01.816620 14620 net.cpp:141] Setting up inception_5b/pool
I0918 01:54:01.816625 14620 net.cpp:148] Top shape: 10 832 7 7 (407680)
I0918 01:54:01.816627 14610 net.cpp:91] Creating Layer inception_5b/output
I0918 01:54:01.816628 14620 net.cpp:156] Memory required for data: 548862720
I0918 01:54:01.816637 14620 layer_factory.hpp:77] Creating layer inception_5b/pool_proj
I0918 01:54:01.816635 14610 net.cpp:425] inception_5b/output <- inception_5b/1x1
I0918 01:54:01.816648 14610 net.cpp:425] inception_5b/output <- inception_5b/3x3
I0918 01:54:01.816653 14620 net.cpp:91] Creating Layer inception_5b/pool_proj
I0918 01:54:01.816656 14620 net.cpp:425] inception_5b/pool_proj <- inception_5b/pool
I0918 01:54:01.816655 14610 net.cpp:425] inception_5b/output <- inception_5b/5x5
I0918 01:54:01.816663 14620 net.cpp:399] inception_5b/pool_proj -> inception_5b/pool_proj
I0918 01:54:01.816663 14610 net.cpp:425] inception_5b/output <- inception_5b/pool_proj
I0918 01:54:01.816671 14610 net.cpp:399] inception_5b/output -> inception_5b/output
I0918 01:54:01.816684 14610 net.cpp:141] Setting up inception_5b/output
I0918 01:54:01.816691 14610 net.cpp:148] Top shape: 10 1024 7 7 (501760)
I0918 01:54:01.816696 14610 net.cpp:156] Memory required for data: 551371520
I0918 01:54:01.816701 14610 layer_factory.hpp:77] Creating layer pool5/7x7_s1
I0918 01:54:01.816718 14610 net.cpp:91] Creating Layer pool5/7x7_s1
I0918 01:54:01.816725 14610 net.cpp:425] pool5/7x7_s1 <- inception_5b/output
I0918 01:54:01.816735 14610 net.cpp:399] pool5/7x7_s1 -> pool5/7x7_s1
I0918 01:54:01.816745 14610 net.cpp:141] Setting up pool5/7x7_s1
I0918 01:54:01.816756 14610 net.cpp:148] Top shape: 10 1024 1 1 (10240)
I0918 01:54:01.816761 14610 net.cpp:156] Memory required for data: 551412480
I0918 01:54:01.816766 14610 layer_factory.hpp:77] Creating layer pool5/drop_7x7_s1
I0918 01:54:01.816774 14610 net.cpp:91] Creating Layer pool5/drop_7x7_s1
I0918 01:54:01.816781 14610 net.cpp:425] pool5/drop_7x7_s1 <- pool5/7x7_s1
I0918 01:54:01.816787 14610 net.cpp:386] pool5/drop_7x7_s1 -> pool5/7x7_s1 (in-place)
I0918 01:54:01.816797 14610 net.cpp:141] Setting up pool5/drop_7x7_s1
I0918 01:54:01.816804 14610 net.cpp:148] Top shape: 10 1024 1 1 (10240)
I0918 01:54:01.816809 14610 net.cpp:156] Memory required for data: 551453440
I0918 01:54:01.816815 14610 layer_factory.hpp:77] Creating layer loss3/classifier
I0918 01:54:01.816838 14610 net.cpp:91] Creating Layer loss3/classifier
I0918 01:54:01.816843 14610 net.cpp:425] loss3/classifier <- pool5/7x7_s1
I0918 01:54:01.816853 14610 net.cpp:399] loss3/classifier -> loss3/classifier
I0918 01:54:01.822562 14620 net.cpp:141] Setting up inception_5b/pool_proj
I0918 01:54:01.822592 14620 net.cpp:148] Top shape: 10 128 7 7 (62720)
I0918 01:54:01.822595 14620 net.cpp:156] Memory required for data: 549113600
I0918 01:54:01.822604 14620 layer_factory.hpp:77] Creating layer inception_5b/relu_pool_proj
I0918 01:54:01.822615 14620 net.cpp:91] Creating Layer inception_5b/relu_pool_proj
I0918 01:54:01.822623 14620 net.cpp:425] inception_5b/relu_pool_proj <- inception_5b/pool_proj
I0918 01:54:01.822641 14620 net.cpp:386] inception_5b/relu_pool_proj -> inception_5b/pool_proj (in-place)
I0918 01:54:01.822652 14620 net.cpp:141] Setting up inception_5b/relu_pool_proj
I0918 01:54:01.822656 14620 net.cpp:148] Top shape: 10 128 7 7 (62720)
I0918 01:54:01.822660 14620 net.cpp:156] Memory required for data: 549364480
I0918 01:54:01.822664 14620 layer_factory.hpp:77] Creating layer inception_5b/output
I0918 01:54:01.822670 14620 net.cpp:91] Creating Layer inception_5b/output
I0918 01:54:01.822674 14620 net.cpp:425] inception_5b/output <- inception_5b/1x1
I0918 01:54:01.822679 14620 net.cpp:425] inception_5b/output <- inception_5b/3x3
I0918 01:54:01.822684 14620 net.cpp:425] inception_5b/output <- inception_5b/5x5
I0918 01:54:01.822687 14620 net.cpp:425] inception_5b/output <- inception_5b/pool_proj
I0918 01:54:01.822692 14620 net.cpp:399] inception_5b/output -> inception_5b/output
I0918 01:54:01.822700 14620 net.cpp:141] Setting up inception_5b/output
I0918 01:54:01.822705 14620 net.cpp:148] Top shape: 10 1024 7 7 (501760)
I0918 01:54:01.822710 14620 net.cpp:156] Memory required for data: 551371520
I0918 01:54:01.822713 14620 layer_factory.hpp:77] Creating layer pool5/7x7_s1
I0918 01:54:01.822721 14620 net.cpp:91] Creating Layer pool5/7x7_s1
I0918 01:54:01.822723 14620 net.cpp:425] pool5/7x7_s1 <- inception_5b/output
I0918 01:54:01.822729 14620 net.cpp:399] pool5/7x7_s1 -> pool5/7x7_s1
I0918 01:54:01.822737 14620 net.cpp:141] Setting up pool5/7x7_s1
I0918 01:54:01.822741 14620 net.cpp:148] Top shape: 10 1024 1 1 (10240)
I0918 01:54:01.822744 14620 net.cpp:156] Memory required for data: 551412480
I0918 01:54:01.822747 14620 layer_factory.hpp:77] Creating layer pool5/drop_7x7_s1
I0918 01:54:01.822762 14620 net.cpp:91] Creating Layer pool5/drop_7x7_s1
I0918 01:54:01.822767 14620 net.cpp:425] pool5/drop_7x7_s1 <- pool5/7x7_s1
I0918 01:54:01.822770 14620 net.cpp:386] pool5/drop_7x7_s1 -> pool5/7x7_s1 (in-place)
I0918 01:54:01.822777 14620 net.cpp:141] Setting up pool5/drop_7x7_s1
I0918 01:54:01.822782 14620 net.cpp:148] Top shape: 10 1024 1 1 (10240)
I0918 01:54:01.822785 14620 net.cpp:156] Memory required for data: 551453440
I0918 01:54:01.822788 14620 layer_factory.hpp:77] Creating layer loss3/classifier
I0918 01:54:01.822798 14620 net.cpp:91] Creating Layer loss3/classifier
I0918 01:54:01.822803 14620 net.cpp:425] loss3/classifier <- pool5/7x7_s1
I0918 01:54:01.822808 14620 net.cpp:399] loss3/classifier -> loss3/classifier
I0918 01:54:01.826601 14608 net.cpp:141] Setting up loss3/classifier
I0918 01:54:01.826622 14608 net.cpp:148] Top shape: 10 1000 (10000)
I0918 01:54:01.826627 14608 net.cpp:156] Memory required for data: 551493440
I0918 01:54:01.826635 14608 layer_factory.hpp:77] Creating layer prob
I0918 01:54:01.826645 14608 net.cpp:91] Creating Layer prob
I0918 01:54:01.826653 14608 net.cpp:425] prob <- loss3/classifier
I0918 01:54:01.826659 14608 net.cpp:399] prob -> prob
I0918 01:54:01.826697 14608 net.cpp:141] Setting up prob
I0918 01:54:01.826704 14608 net.cpp:148] Top shape: 10 1000 (10000)
I0918 01:54:01.826706 14608 net.cpp:156] Memory required for data: 551533440
I0918 01:54:01.826710 14608 net.cpp:219] prob does not need backward computation.
I0918 01:54:01.826714 14608 net.cpp:219] loss3/classifier does not need backward computation.
I0918 01:54:01.826717 14608 net.cpp:219] pool5/drop_7x7_s1 does not need backward computation.
I0918 01:54:01.826721 14608 net.cpp:219] pool5/7x7_s1 does not need backward computation.
…
