…
2016-09-18 01:54:01.710 STDERR [INFO] I0918 01:54:01.582248 14608 net.cpp:399] conv1/7x7_s2 -> conv1/7x7_s2
2016-09-18 01:54:01.710 STDERR [INFO] I0918 01:54:01.582253 14610 net.cpp:399] conv1/7x7_s2 -> conv1/7x7_s2
2016-09-18 01:54:01.710 STDERR [INFO] I0918 01:54:01.582828 14620 layer_factory.hpp:77] Creating layer data
2016-09-18 01:54:01.710 STDERR [INFO] I0918 01:54:01.582850 14620 net.cpp:91] Creating Layer data
2016-09-18 01:54:01.710 STDERR [INFO] I0918 01:54:01.582856 14620 net.cpp:399] data -> data
2016-09-18 01:54:01.710 STDERR [INFO] I0918 01:54:01.582873 14620 net.cpp:141] Setting up data
2016-09-18 01:54:01.710 STDERR [INFO] I0918 01:54:01.582881 14620 net.cpp:148] Top shape: 10 3 224 224 (1505280)
2016-09-18 01:54:01.710 STDERR [INFO] I0918 01:54:01.582885 14620 net.cpp:156] Memory required for data: 6021120
2016-09-18 01:54:01.710 STDERR [INFO] I0918 01:54:01.582890 14620 layer_factory.hpp:77] Creating layer conv1/7x7_s2
2016-09-18 01:54:01.710 STDERR [INFO] I0918 01:54:01.582901 14620 net.cpp:91] Creating Layer conv1/7x7_s2
2016-09-18 01:54:01.710 STDERR [INFO] I0918 01:54:01.582903 14620 net.cpp:425] conv1/7x7_s2 <- data
2016-09-18 01:54:01.710 STDERR [INFO] I0918 01:54:01.582911 14620 net.cpp:399] conv1/7x7_s2 -> conv1/7x7_s2
2016-09-18 01:54:01.710 STDERR [INFO] I0918 01:54:01.583122 14608 net.cpp:141] Setting up conv1/7x7_s2
2016-09-18 01:54:01.710 STDERR [INFO] I0918 01:54:01.583133 14608 net.cpp:148] Top shape: 10 64 112 112 (8028160)
2016-09-18 01:54:01.710 STDERR [INFO] I0918 01:54:01.583137 14610 net.cpp:141] Setting up conv1/7x7_s2
2016-09-18 01:54:01.710 STDERR [INFO] I0918 01:54:01.583137 14608 net.cpp:156] Memory required for data: 38133760
2016-09-18 01:54:01.710 STDERR [INFO] I0918 01:54:01.583151 14610 net.cpp:148] Top shape: 10 64 112 112 (8028160)
2016-09-18 01:54:01.710 STDERR [INFO] I0918 01:54:01.583155 14610 net.cpp:156] Memory required for data: 38133760
2016-09-18 01:54:01.710 STDERR [INFO] I0918 01:54:01.583161 14608 layer_factory.hpp:77] Creating layer conv1/relu_7x7
2016-09-18 01:54:01.710 STDERR [INFO] I0918 01:54:01.583166 14610 layer_factory.hpp:77] Creating layer conv1/relu_7x7
2016-09-18 01:54:01.710 STDERR [INFO] I0918 01:54:01.583173 14608 net.cpp:91] Creating Layer conv1/relu_7x7
2016-09-18 01:54:01.710 STDERR [INFO] I0918 01:54:01.583178 14610 net.cpp:91] Creating Layer conv1/relu_7x7
2016-09-18 01:54:01.710 STDERR [INFO] I0918 01:54:01.583178 14608 net.cpp:425] conv1/relu_7x7 <- conv1/7x7_s2
2016-09-18 01:54:01.710 STDERR [INFO] I0918 01:54:01.583183 14610 net.cpp:425] conv1/relu_7x7 <- conv1/7x7_s2
2016-09-18 01:54:01.710 STDERR [INFO] I0918 01:54:01.583184 14608 net.cpp:386] conv1/relu_7x7 -> conv1/7x7_s2 (in-place)
2016-09-18 01:54:01.710 STDERR [INFO] I0918 01:54:01.583187 14610 net.cpp:386] conv1/relu_7x7 -> conv1/7x7_s2 (in-place)
2016-09-18 01:54:01.710 STDERR [INFO] I0918 01:54:01.583197 14608 net.cpp:141] Setting up conv1/relu_7x7
2016-09-18 01:54:01.710 STDERR [INFO] I0918 01:54:01.583199 14610 net.cpp:141] Setting up conv1/relu_7x7
2016-09-18 01:54:01.710 STDERR [INFO] I0918 01:54:01.583204 14608 net.cpp:148] Top shape: 10 64 112 112 (8028160)
2016-09-18 01:54:01.711 STDERR [INFO] I0918 01:54:01.583204 14610 net.cpp:148] Top shape: 10 64 112 112 (8028160)
2016-09-18 01:54:01.711 STDERR [INFO] I0918 01:54:01.583209 14608 net.cpp:156] Memory required for data: 70246400
2016-09-18 01:54:01.711 STDERR [INFO] I0918 01:54:01.583215 14610 net.cpp:156] Memory required for data: 70246400
2016-09-18 01:54:01.711 STDERR [INFO] I0918 01:54:01.583220 14608 layer_factory.hpp:77] Creating layer pool1/3x3_s2
2016-09-18 01:54:01.711 STDERR [INFO] I0918 01:54:01.583222 14610 layer_factory.hpp:77] Creating layer pool1/3x3_s2
2016-09-18 01:54:01.711 STDERR [INFO] I0918 01:54:01.583230 14608 net.cpp:91] Creating Layer pool1/3x3_s2
2016-09-18 01:54:01.711 STDERR [INFO] I0918 01:54:01.583232 14610 net.cpp:91] Creating Layer pool1/3x3_s2
2016-09-18 01:54:01.711 STDERR [INFO] I0918 01:54:01.583233 14608 net.cpp:425] pool1/3x3_s2 <- conv1/7x7_s2
2016-09-18 01:54:01.711 STDERR [INFO] I0918 01:54:01.583238 14610 net.cpp:425] pool1/3x3_s2 <- conv1/7x7_s2
2016-09-18 01:54:01.711 STDERR [INFO] I0918 01:54:01.583242 14608 net.cpp:399] pool1/3x3_s2 -> pool1/3x3_s2
2016-09-18 01:54:01.711 STDERR [INFO] I0918 01:54:01.583243 14610 net.cpp:399] pool1/3x3_s2 -> pool1/3x3_s2
2016-09-18 01:54:01.711 STDERR [INFO] I0918 01:54:01.583261 14608 net.cpp:141] Setting up pool1/3x3_s2
2016-09-18 01:54:01.711 STDERR [INFO] I0918 01:54:01.583261 14610 net.cpp:141] Setting up pool1/3x3_s2
2016-09-18 01:54:01.711 STDERR [INFO] I0918 01:54:01.598048 14608 net.cpp:148] Top shape: 10 64 56 56 (2007040)
2016-09-18 01:54:01.711 STDERR [INFO] I0918 01:54:01.583473 14620 net.cpp:141] Setting up conv1/7x7_s2
2016-09-18 01:54:01.711 STDERR [INFO] I0918 01:54:01.598059 14610 net.cpp:148] Top shape: 10 64 56 56 (2007040)
2016-09-18 01:54:01.711 STDERR [INFO] I0918 01:54:01.598078 14608 net.cpp:156] Memory required for data: 78274560
2016-09-18 01:54:01.711 STDERR [INFO] I0918 01:54:01.598095 14610 net.cpp:156] Memory required for data: 78274560
2016-09-18 01:54:01.711 STDERR [INFO] I0918 01:54:01.598101 14620 net.cpp:148] Top shape: 10 64 112 112 (8028160)
2016-09-18 01:54:01.711 STDERR [INFO] I0918 01:54:01.598105 14608 layer_factory.hpp:77] Creating layer pool1/norm1
2016-09-18 01:54:01.711 STDERR [INFO] I0918 01:54:01.598109 14620 net.cpp:156] Memory required for data: 38133760
2016-09-18 01:54:01.711 STDERR [INFO] I0918 01:54:01.598106 14610 layer_factory.hpp:77] Creating layer pool1/norm1
2016-09-18 01:54:01.711 STDERR [INFO] I0918 01:54:01.598126 14610 net.cpp:91] Creating Layer pool1/norm1
…
2016-09-18 01:54:01.711 STDERR [INFO] I0918 01:54:01.598158 14608 net.cpp:425] pool1/norm1 <- pool1/3x3_s2
2016-09-18 01:54:01.711 STDERR [INFO] I0918 01:54:01.598158 14620 net.cpp:425] conv1/relu_7x7 <- conv1/7x7_s2
2016-09-18 01:54:01.711 STDERR [INFO] I0918 01:54:01.598170 14608 net.cpp:399] pool1/norm1 -> pool1/norm1
2016-09-18 01:54:01.711 STDERR [INFO] I0918 01:54:01.598170 14620 net.cpp:386] conv1/relu_7x7 -> conv1/7x7_s2 (in-place)
2016-09-18 01:54:01.711 STDERR [INFO] I0918 01:54:01.598189 14620 net.cpp:141] Setting up conv1/relu_7x7
2016-09-18 01:54:01.711 STDERR [INFO] I0918 01:54:01.598194 14620 net.cpp:148] Top shape: 10 64 112 112 (8028160)
2016-09-18 01:54:01.711 STDERR [INFO] I0918 01:54:01.598197 14620 net.cpp:156] Memory required for data: 70246400
2016-09-18 01:54:01.711 STDERR [INFO] I0918 01:54:01.598201 14620 layer_factory.hpp:77] Creating layer pool1/3x3_s2
2016-09-18 01:54:01.711 STDERR [INFO] I0918 01:54:01.598209 14610 net.cpp:141] Setting up pool1/norm1
2016-09-18 01:54:01.711 STDERR [INFO] I0918 01:54:01.598213 14620 net.cpp:91] Creating Layer pool1/3x3_s2
2016-09-18 01:54:01.711 STDERR [INFO] I0918 01:54:01.598211 14608 net.cpp:141] Setting up pool1/norm1
2016-09-18 01:54:01.711 STDERR [INFO] I0918 01:54:01.598218 14620 net.cpp:425] pool1/3x3_s2 <- conv1/7x7_s2
2016-09-18 01:54:01.711 STDERR [INFO] I0918 01:54:01.598219 14610 net.cpp:148] Top shape: 10 64 56 56 (2007040)
2016-09-18 01:54:01.712 STDERR [INFO] I0918 01:54:01.598224 14620 net.cpp:399] pool1/3x3_s2 -> pool1/3x3_s2
2016-09-18 01:54:01.712 STDERR [INFO] I0918 01:54:01.598227 14608 net.cpp:148] Top shape: 10 64 56 56 (2007040)
2016-09-18 01:54:01.712 STDERR [INFO] I0918 01:54:01.598232 14608 net.cpp:156] Memory required for data: 86302720
2016-09-18 01:54:01.712 STDERR [INFO] I0918 01:54:01.598224 14610 net.cpp:156] Memory required for data: 86302720
2016-09-18 01:54:01.712 STDERR [INFO] I0918 01:54:01.598237 14608 layer_factory.hpp:77] Creating layer conv2/3x3_reduce
2016-09-18 01:54:01.712 STDERR [INFO] I0918 01:54:01.598237 14610 layer_factory.hpp:77] Creating layer conv2/3x3_reduce
2016-09-18 01:54:01.712 STDERR [INFO] I0918 01:54:01.598239 14620 net.cpp:141] Setting up pool1/3x3_s2
2016-09-18 01:54:01.712 STDERR [INFO] I0918 01:54:01.598248 14620 net.cpp:148] Top shape: 10 64 56 56 (2007040)
2016-09-18 01:54:01.712 STDERR [INFO] I0918 01:54:01.598249 14608 net.cpp:91] Creating Layer conv2/3x3_reduce
2016-09-18 01:54:01.712 STDERR [INFO] I0918 01:54:01.598251 14610 net.cpp:91] Creating Layer conv2/3x3_reduce
2016-09-18 01:54:01.712 STDERR [INFO] I0918 01:54:01.598254 14608 net.cpp:425] conv2/3x3_reduce <- pool1/norm1
2016-09-18 01:54:01.712 STDERR [INFO] I0918 01:54:01.598258 14610 net.cpp:425] conv2/3x3_reduce <- pool1/norm1
2016-09-18 01:54:01.712 STDERR [INFO] I0918 01:54:01.598253 14620 net.cpp:156] Memory required for data: 78274560
2016-09-18 01:54:01.712 STDERR [INFO] I0918 01:54:01.598266 14610 net.cpp:399] conv2/3x3_reduce -> conv2/3x3_reduce
2016-09-18 01:54:01.712 STDERR [INFO] I0918 01:54:01.598264 14608 net.cpp:399] conv2/3x3_reduce -> conv2/3x3_reduce
2016-09-18 01:54:01.712 STDERR [INFO] I0918 01:54:01.598270 14620 layer_factory.hpp:77] Creating layer pool1/norm1
2016-09-18 01:54:01.712 STDERR [INFO] I0918 01:54:01.598278 14620 net.cpp:91] Creating Layer pool1/norm1
2016-09-18 01:54:01.712 STDERR [INFO] I0918 01:54:01.598281 14620 net.cpp:425] pool1/norm1 <- pool1/3x3_s2
2016-09-18 01:54:01.712 STDERR [INFO] I0918 01:54:01.598285 14620 net.cpp:399] pool1/norm1 -> pool1/norm1
2016-09-18 01:54:01.712 STDERR [INFO] I0918 01:54:01.598300 14620 net.cpp:141] Setting up pool1/norm1
2016-09-18 01:54:01.712 STDERR [INFO] I0918 01:54:01.598305 14620 net.cpp:148] Top shape: 10 64 56 56 (2007040)
2016-09-18 01:54:01.712 STDERR [INFO] I0918 01:54:01.598307 14620 net.cpp:156] Memory required for data: 86302720
2016-09-18 01:54:01.712 STDERR [INFO] I0918 01:54:01.598310 14620 layer_factory.hpp:77] Creating layer conv2/3x3_reduce
2016-09-18 01:54:01.712 STDERR [INFO] I0918 01:54:01.598321 14620 net.cpp:91] Creating Layer conv2/3x3_reduce
2016-09-18 01:54:01.712 STDERR [INFO] I0918 01:54:01.598325 14620 net.cpp:425] conv2/3x3_reduce <- pool1/norm1
2016-09-18 01:54:01.712 STDERR [INFO] I0918 01:54:01.598327 14610 net.cpp:141] Setting up conv2/3x3_reduce
2016-09-18 01:54:01.712 STDERR [INFO] I0918 01:54:01.598330 14620 net.cpp:399] conv2/3x3_reduce -> conv2/3x3_reduce
2016-09-18 01:54:01.712 STDERR [INFO] I0918 01:54:01.598335 14610 net.cpp:148] Top shape: 10 64 56 56 (2007040)
2016-09-18 01:54:01.712 STDERR [INFO] I0918 01:54:01.598338 14610 net.cpp:156] Memory required for data: 94330880
2016-09-18 01:54:01.712 STDERR [INFO] I0918 01:54:01.598346 14610 layer_factory.hpp:77] Creating layer conv2/relu_3x3_reduce
2016-09-18 01:54:01.712 STDERR [INFO] I0918 01:54:01.598359 14608 net.cpp:141] Setting up conv2/3x3_reduce
2016-09-18 01:54:01.712 STDERR [INFO] I0918 01:54:01.598363 14610 net.cpp:91] Creating Layer conv2/relu_3x3_reduce
2016-09-18 01:54:01.712 STDERR [INFO] I0918 01:54:01.598366 14608 net.cpp:148] Top shape: 10 64 56 56 (2007040)
2016-09-18 01:54:01.712 STDERR [INFO] I0918 01:54:01.598368 14610 net.cpp:425] conv2/relu_3x3_reduce <- conv2/3x3_reduce
2016-09-18 01:54:01.712 STDERR [INFO] I0918 01:54:01.598371 14608 net.cpp:156] Memory required for data: 94330880
2016-09-18 01:54:01.713 STDERR [INFO] I0918 01:54:01.598374 14610 net.cpp:386] conv2/relu_3x3_reduce -> conv2/3x3_reduce (in-place)
2016-09-18 01:54:01.713 STDERR [INFO] I0918 01:54:01.598381 14608 layer_factory.hpp:77] Creating layer conv2/relu_3x3_reduce
2016-09-18 01:54:01.713 STDERR [INFO] I0918 01:54:01.598382 14610 net.cpp:141] Setting up conv2/relu_3x3_reduce
2016-09-18 01:54:01.713 STDERR [INFO] I0918 01:54:01.598392 14608 net.cpp:91] Creating Layer conv2/relu_3x3_reduce
2016-09-18 01:54:01.713 STDERR [INFO] I0918 01:54:01.598397 14620 net.cpp:141] Setting up conv2/3x3_reduce
2016-09-18 01:54:01.713 STDERR [INFO] I0918 01:54:01.598399 14608 net.cpp:425] conv2/relu_3x3_reduce <- conv2/3x3_reduce
2016-09-18 01:54:01.713 STDERR [INFO] I0918 01:54:01.598407 14620 net.cpp:148] Top shape: 10 64 56 56 (2007040)
2016-09-18 01:54:01.713 STDERR [INFO] I0918 01:54:01.598393 14610 net.cpp:148] Top shape: 10 64 56 56 (2007040)
2016-09-18 01:54:01.713 STDERR [INFO] I0918 01:54:01.598410 14620 net.cpp:156] Memory required for data: 94330880
2016-09-18 01:54:01.713 STDERR [INFO] I0918 01:54:01.598410 14608 net.cpp:386] conv2/relu_3x3_reduce -> conv2/3x3_reduce (in-place)
2016-09-18 01:54:01.713 STDERR [INFO] I0918 01:54:01.598417 14610 net.cpp:156] Memory required for data: 102359040
2016-09-18 01:54:01.713 STDERR [INFO] I0918 01:54:01.598430 14608 net.cpp:141] Setting up conv2/relu_3x3_reduce
2016-09-18 01:54:01.713 STDERR [INFO] I0918 01:54:01.598433 14610 layer_factory.hpp:77] Creating layer conv2/3x3
2016-09-18 01:54:01.713 STDERR [INFO] I0918 01:54:01.598426 14620 layer_factory.hpp:77] Creating layer conv2/relu_3x3_reduce
2016-09-18 01:54:01.713 STDERR [INFO] I0918 01:54:01.598439 14608 net.cpp:148] Top shape: 10 64 56 56 (2007040)
2016-09-18 01:54:01.713 STDERR [INFO] I0918 01:54:01.598443 14608 net.cpp:156] Memory required for data: 102359040
2016-09-18 01:54:01.713 STDERR [INFO] I0918 01:54:01.598445 14610 net.cpp:91] Creating Layer conv2/3x3
2016-09-18 01:54:01.713 STDERR [INFO] I0918 01:54:01.598453 14610 net.cpp:425] conv2/3x3 <- conv2/3x3_reduce
2016-09-18 01:54:01.713 STDERR [INFO] I0918 01:54:01.598446 14620 net.cpp:91] Creating Layer conv2/relu_3x3_reduce
2016-09-18 01:54:01.713 STDERR [INFO] I0918 01:54:01.598461 14610 net.cpp:399] conv2/3x3 -> conv2/3x3
2016-09-18 01:54:01.713 STDERR [INFO] I0918 01:54:01.598446 14608 layer_factory.hpp:77] Creating layer conv2/3x3
2016-09-18 01:54:01.713 STDERR [INFO] I0918 01:54:01.598465 14620 net.cpp:425] conv2/relu_3x3_reduce <- conv2/3x3_reduce
2016-09-18 01:54:01.713 STDERR [INFO] I0918 01:54:01.598471 14620 net.cpp:386] conv2/relu_3x3_reduce -> conv2/3x3_reduce (in-place)
2016-09-18 01:54:01.713 STDERR [INFO] I0918 01:54:01.598477 14620 net.cpp:141] Setting up conv2/relu_3x3_reduce
2016-09-18 01:54:01.713 STDERR [INFO] I0918 01:54:01.598482 14620 net.cpp:148] Top shape: 10 64 56 56 (2007040)
2016-09-18 01:54:01.713 STDERR [INFO] I0918 01:54:01.598484 14608 net.cpp:91] Creating Layer conv2/3x3
2016-09-18 01:54:01.713 STDERR [INFO] I0918 01:54:01.598485 14620 net.cpp:156] Memory required for data: 102359040
2016-09-18 01:54:01.713 STDERR [INFO] I0918 01:54:01.598490 14608 net.cpp:425] conv2/3x3 <- conv2/3x3_reduce
2016-09-18 01:54:01.713 STDERR [INFO] I0918 01:54:01.598493 14620 layer_factory.hpp:77] Creating layer conv2/3x3
2016-09-18 01:54:01.713 STDERR [INFO] I0918 01:54:01.598496 14608 net.cpp:399] conv2/3x3 -> conv2/3x3
2016-09-18 01:54:01.713 STDERR [INFO] I0918 01:54:01.598510 14620 net.cpp:91] Creating Layer conv2/3x3
2016-09-18 01:54:01.713 STDERR [INFO] I0918 01:54:01.598515 14620 net.cpp:425] conv2/3x3 <- conv2/3x3_reduce
2016-09-18 01:54:01.713 STDERR [INFO] I0918 01:54:01.598520 14620 net.cpp:399] conv2/3x3 -> conv2/3x3
2016-09-18 01:54:01.713 STDERR [INFO] I0918 01:54:01.599496 14610 net.cpp:141] Setting up conv2/3x3
2016-09-18 01:54:01.713 STDERR [INFO] I0918 01:54:01.599504 14610 net.cpp:148] Top shape: 10 192 56 56 (6021120)
2016-09-18 01:54:01.713 STDERR [INFO] I0918 01:54:01.599508 14610 net.cpp:156] Memory required for data: 126443520
2016-09-18 01:54:01.713 STDERR [INFO] I0918 01:54:01.599515 14610 layer_factory.hpp:77] Creating layer conv2/relu_3x3
2016-09-18 01:54:01.713 STDERR [INFO] I0918 01:54:01.599524 14610 net.cpp:91] Creating Layer conv2/relu_3x3
2016-09-18 01:54:01.713 STDERR [INFO] I0918 01:54:01.599529 14610 net.cpp:425] conv2/relu_3x3 <- conv2/3x3
2016-09-18 01:54:01.713 STDERR [INFO] I0918 01:54:01.599534 14610 net.cpp:386] conv2/relu_3x3 -> conv2/3x3 (in-place)
2016-09-18 01:54:01.713 STDERR [INFO] I0918 01:54:01.599539 14610 net.cpp:141] Setting up conv2/relu_3x3
2016-09-18 01:54:01.713 STDERR [INFO] I0918 01:54:01.599545 14610 net.cpp:148] Top shape: 10 192 56 56 (6021120)
2016-09-18 01:54:01.713 STDERR [INFO] I0918 01:54:01.599547 14610 net.cpp:156] Memory required for data: 150528000
2016-09-18 01:54:01.713 STDERR [INFO] I0918 01:54:01.599550 14610 layer_factory.hpp:77] Creating layer conv2/norm2
2016-09-18 01:54:01.714 STDERR [INFO] I0918 01:54:01.599570 14610 net.cpp:91] Creating Layer conv2/norm2
2016-09-18 01:54:01.714 STDERR [INFO] I0918 01:54:01.599575 14610 net.cpp:425] conv2/norm2 <- conv2/3x3
2016-09-18 01:54:01.714 STDERR [INFO] I0918 01:54:01.599601 14608 net.cpp:141] Setting up conv2/3x3
2016-09-18 01:54:01.714 STDERR [INFO] I0918 01:54:01.599921 14620 net.cpp:141] Setting up conv2/3x3
2016-09-18 01:54:01.714 STDERR [INFO] I0918 01:54:01.621124 14608 net.cpp:148] Top shape: 10 192 56 56 (6021120)
2016-09-18 01:54:01.714 STDERR [INFO] I0918 01:54:01.621114 14610 net.cpp:399] conv2/norm2 -> conv2/norm2
2016-09-18 01:54:01.714 STDERR [INFO] I0918 01:54:01.621132 14608 net.cpp:156] Memory required for data: 126443520
2016-09-18 01:54:01.714 STDERR [INFO] I0918 01:54:01.621142 14620 net.cpp:148] Top shape: 10 192 56 56 (6021120)
2016-09-18 01:54:01.714 STDERR [INFO] I0918 01:54:01.621150 14620 net.cpp:156] Memory required for data: 126443520
2016-09-18 01:54:01.714 STDERR [INFO] I0918 01:54:01.621160 14610 net.cpp:141] Setting up conv2/norm2
2016-09-18 01:54:01.714 STDERR [INFO] I0918 01:54:01.621161 14608 layer_factory.hpp:77] Creating layer conv2/relu_3x3
2016-09-18 01:54:01.714 STDERR [INFO] I0918 01:54:01.621167 14610 net.cpp:148] Top shape: 10 192 56 56 (6021120)
2016-09-18 01:54:01.714 STDERR [INFO] I0918 01:54:01.621170 14610 net.cpp:156] Memory required for data: 174612480
2016-09-18 01:54:01.714 STDERR [INFO] I0918 01:54:01.621173 14620 layer_factory.hpp:77] Creating layer conv2/relu_3x3
2016-09-18 01:54:01.714 STDERR [INFO] I0918 01:54:01.621176 14608 net.cpp:91] Creating Layer conv2/relu_3x3
2016-09-18 01:54:01.714 STDERR [INFO] I0918 01:54:01.621175 14610 layer_factory.hpp:77] Creating layer pool2/3x3_s2
…
2016-09-18 01:54:01.714 STDERR [INFO] I0918 01:54:01.621263 14608 net.cpp:91] Creating Layer conv2/norm2
2016-09-18 01:54:01.714 STDERR [INFO] I0918 01:54:01.621264 14610 net.cpp:399] pool2/3x3_s2_pool2/3x3_s2_0_split -> pool2/3x3_s2_pool2/3x3_s2_0_split_0
2016-09-18 01:54:01.715 STDERR [INFO] I0918 01:54:01.621266 14608 net.cpp:425] conv2/norm2 <- conv2/3x3
2016-09-18 01:54:01.715 STDERR [INFO] I0918 01:54:01.621268 14620 net.cpp:141] Setting up conv2/norm2
2016-09-18 01:54:01.715 STDERR [INFO] I0918 01:54:01.621273 14610 net.cpp:399] pool2/3x3_s2_pool2/3x3_s2_0_split -> pool2/3x3_s2_pool2/3x3_s2_0_split_1
2016-09-18 01:54:01.715 STDERR [INFO] I0918 01:54:01.621274 14620 net.cpp:148] Top shape: 10 192 56 56 (6021120)
2016-09-18 01:54:01.715 STDERR [INFO] I0918 01:54:01.621273 14608 net.cpp:399] conv2/norm2 -> conv2/norm2
2016-09-18 01:54:01.715 STDERR [INFO] I0918 01:54:01.621280 14610 net.cpp:399] pool2/3x3_s2_pool2/3x3_s2_0_split -> pool2/3x3_s2_pool2/3x3_s2_0_split_2
2016-09-18 01:54:01.715 STDERR [INFO] I0918 01:54:01.621278 14620 net.cpp:156] Memory required for data: 174612480
2016-09-18 01:54:01.715 STDERR [INFO] I0918 01:54:01.621285 14620 layer_factory.hpp:77] Creating layer pool2/3x3_s2
2016-09-18 01:54:01.715 STDERR [INFO] I0918 01:54:01.621289 14608 net.cpp:141] Setting up conv2/norm2
2016-09-18 01:54:01.715 STDERR [INFO] I0918 01:54:01.621286 14610 net.cpp:399] pool2/3x3_s2_pool2/3x3_s2_0_split -> pool2/3x3_s2_pool2/3x3_s2_0_split_3
2016-09-18 01:54:01.715 STDERR [INFO] I0918 01:54:01.621294 14620 net.cpp:91] Creating Layer pool2/3x3_s2
2016-09-18 01:54:01.715 STDERR [INFO] I0918 01:54:01.621296 14608 net.cpp:148] Top shape: 10 192 56 56 (6021120)
2016-09-18 01:54:01.715 STDERR [INFO] I0918 01:54:01.621304 14610 net.cpp:141] Setting up pool2/3x3_s2_pool2/3x3_s2_0_split
2016-09-18 01:54:01.715 STDERR [INFO] I0918 01:54:01.621297 14620 net.cpp:425] pool2/3x3_s2 <- conv2/norm2
2016-09-18 01:54:01.715 STDERR [INFO] I0918 01:54:01.621305 14608 net.cpp:156] Memory required for data: 174612480
2016-09-18 01:54:01.715 STDERR [INFO] I0918 01:54:01.621312 14610 net.cpp:148] Top shape: 10 192 28 28 (1505280)
2016-09-18 01:54:01.715 STDERR [INFO] I0918 01:54:01.621314 14608 layer_factory.hpp:77] Creating layer pool2/3x3_s2
2016-09-18 01:54:01.715 STDERR [INFO] I0918 01:54:01.621315 14620 net.cpp:399] pool2/3x3_s2 -> pool2/3x3_s2
2016-09-18 01:54:01.715 STDERR [INFO] I0918 01:54:01.621317 14610 net.cpp:148] Top shape: 10 192 28 28 (1505280)
2016-09-18 01:54:01.715 STDERR [INFO] I0918 01:54:01.621321 14608 net.cpp:91] Creating Layer pool2/3x3_s2
2016-09-18 01:54:01.715 STDERR [INFO] I0918 01:54:01.621322 14610 net.cpp:148] Top shape: 10 192 28 28 (1505280)
2016-09-18 01:54:01.715 STDERR [INFO] I0918 01:54:01.621325 14620 net.cpp:141] Setting up pool2/3x3_s2
2016-09-18 01:54:01.715 STDERR [INFO] I0918 01:54:01.621327 14610 net.cpp:148] Top shape: 10 192 28 28 (1505280)
2016-09-18 01:54:01.715 STDERR [INFO] I0918 01:54:01.621325 14608 net.cpp:425] pool2/3x3_s2 <- conv2/norm2
2016-09-18 01:54:01.715 STDERR [INFO] I0918 01:54:01.621331 14610 net.cpp:156] Memory required for data: 204718080
2016-09-18 01:54:01.715 STDERR [INFO] I0918 01:54:01.621332 14620 net.cpp:148] Top shape: 10 192 28 28 (1505280)
2016-09-18 01:54:01.715 STDERR [INFO] I0918 01:54:01.621335 14608 net.cpp:399] pool2/3x3_s2 -> pool2/3x3_s2
2016-09-18 01:54:01.715 STDERR [INFO] I0918 01:54:01.621336 14610 layer_factory.hpp:77] Creating layer inception_3a/1x1
2016-09-18 01:54:01.715 STDERR [INFO] I0918 01:54:01.621337 14620 net.cpp:156] Memory required for data: 180633600
2016-09-18 01:54:01.715 STDERR [INFO] I0918 01:54:01.621343 14608 net.cpp:141] Setting up pool2/3x3_s2
2016-09-18 01:54:01.715 STDERR [INFO] I0918 01:54:01.621345 14620 layer_factory.hpp:77] Creating layer pool2/3x3_s2_pool2/3x3_s2_0_split
2016-09-18 01:54:01.715 STDERR [INFO] I0918 01:54:01.621348 14608 net.cpp:148] Top shape: 10 192 28 28 (1505280)
2016-09-18 01:54:01.715 STDERR [INFO] I0918 01:54:01.621352 14608 net.cpp:156] Memory required for data: 180633600
2016-09-18 01:54:01.715 STDERR [INFO] I0918 01:54:01.621352 14620 net.cpp:91] Creating Layer pool2/3x3_s2_pool2/3x3_s2_0_split
2016-09-18 01:54:01.715 STDERR [INFO] I0918 01:54:01.621357 14610 net.cpp:91] Creating Layer inception_3a/1x1
2016-09-18 01:54:01.715 STDERR [INFO] I0918 01:54:01.621357 14608 layer_factory.hpp:77] Creating layer pool2/3x3_s2_pool2/3x3_s2_0_split
…
2016-09-18 01:54:01.716 STDERR [INFO] I0918 01:54:01.621405 14608 net.cpp:399] pool2/3x3_s2_pool2/3x3_s2_0_split -> pool2/3x3_s2_pool2/3x3_s2_0_split_2
2016-09-18 01:54:01.716 STDERR [INFO] I0918 01:54:01.621410 14608 net.cpp:399] pool2/3x3_s2_pool2/3x3_s2_0_split -> pool2/3x3_s2_pool2/3x3_s2_0_split_3
2016-09-18 01:54:01.716 STDERR [INFO] I0918 01:54:01.621412 14620 net.cpp:141] Setting up pool2/3x3_s2_pool2/3x3_s2_0_split
2016-09-18 01:54:01.716 STDERR [INFO] I0918 01:54:01.621417 14608 net.cpp:141] Setting up pool2/3x3_s2_pool2/3x3_s2_0_split
2016-09-18 01:54:01.716 STDERR [INFO] I0918 01:54:01.621417 14620 net.cpp:148] Top shape: 10 192 28 28 (1505280)
2016-09-18 01:54:01.716 STDERR [INFO] I0918 01:54:01.621424 14608 net.cpp:148] Top shape: 10 192 28 28 (1505280)
2016-09-18 01:54:01.716 STDERR [INFO] I0918 01:54:01.621426 14620 net.cpp:148] Top shape: 10 192 28 28 (1505280)
2016-09-18 01:54:01.716 STDERR [INFO] I0918 01:54:01.621429 14608 net.cpp:148] Top shape: 10 192 28 28 (1505280)
2016-09-18 01:54:01.716 STDERR [INFO] I0918 01:54:01.621431 14620 net.cpp:148] Top shape: 10 192 28 28 (1505280)
2016-09-18 01:54:01.716 STDERR [INFO] I0918 01:54:01.621434 14608 net.cpp:148] Top shape: 10 192 28 28 (1505280)
2016-09-18 01:54:01.716 STDERR [INFO] I0918 01:54:01.621435 14620 net.cpp:148] Top shape: 10 192 28 28 (1505280)
2016-09-18 01:54:01.716 STDERR [INFO] I0918 01:54:01.621438 14608 net.cpp:148] Top shape: 10 192 28 28 (1505280)
2016-09-18 01:54:01.716 STDERR [INFO] I0918 01:54:01.621439 14620 net.cpp:156] Memory required for data: 204718080
2016-09-18 01:54:01.716 STDERR [INFO] I0918 01:54:01.621441 14608 net.cpp:156] Memory required for data: 204718080
2016-09-18 01:54:01.716 STDERR [INFO] I0918 01:54:01.621531 14610 net.cpp:141] Setting up inception_3a/1x1
2016-09-18 01:54:01.716 STDERR [INFO] I0918 01:54:01.640504 14620 layer_factory.hpp:77] Creating layer inception_3a/1x1
2016-09-18 01:54:01.716 STDERR [INFO] I0918 01:54:01.640517 14608 layer_factory.hpp:77] Creating layer inception_3a/1x1
2016-09-18 01:54:01.716 STDERR [INFO] I0918 01:54:01.640542 14610 net.cpp:148] Top shape: 10 64 28 28 (501760)
2016-09-18 01:54:01.716 STDERR [INFO] I0918 01:54:01.640549 14610 net.cpp:156] Memory required for data: 206725120
2016-09-18 01:54:01.716 STDERR [INFO] I0918 01:54:01.640563 14610 layer_factory.hpp:77] Creating layer inception_3a/relu_1x1
2016-09-18 01:54:01.716 STDERR [INFO] I0918 01:54:01.640573 14610 net.cpp:91] Creating Layer inception_3a/relu_1x1
2016-09-18 01:54:01.716 STDERR [INFO] I0918 01:54:01.640576 14608 net.cpp:91] Creating Layer inception_3a/1x1
2016-09-18 01:54:01.716 STDERR [INFO] I0918 01:54:01.640579 14610 net.cpp:425] inception_3a/relu_1x1 <- inception_3a/1x1
2016-09-18 01:54:01.716 STDERR [INFO] I0918 01:54:01.640573 14620 net.cpp:91] Creating Layer inception_3a/1x1
2016-09-18 01:54:01.716 STDERR [INFO] I0918 01:54:01.640584 14608 net.cpp:425] inception_3a/1x1 <- pool2/3x3_s2_pool2/3x3_s2_0_split_0
2016-09-18 01:54:01.716 STDERR [INFO] I0918 01:54:01.640589 14610 net.cpp:386] inception_3a/relu_1x1 -> inception_3a/1x1 (in-place)
2016-09-18 01:54:01.716 STDERR [INFO] I0918 01:54:01.640600 14608 net.cpp:399] inception_3a/1x1 -> inception_3a/1x1
2016-09-18 01:54:01.716 STDERR [INFO] I0918 01:54:01.640594 14620 net.cpp:425] inception_3a/1x1 <- pool2/3x3_s2_pool2/3x3_s2_0_split_0
2016-09-18 01:54:01.716 STDERR [INFO] I0918 01:54:01.640614 14610 net.cpp:141] Setting up inception_3a/relu_1x1
2016-09-18 01:54:01.716 STDERR [INFO] I0918 01:54:01.640619 14610 net.cpp:148] Top shape: 10 64 28 28 (501760)
2016-09-18 01:54:01.716 STDERR [INFO] I0918 01:54:01.640619 14620 net.cpp:399] inception_3a/1x1 -> inception_3a/1x1
2016-09-18 01:54:01.716 STDERR [INFO] I0918 01:54:01.640622 14610 net.cpp:156] Memory required for data: 208732160
2016-09-18 01:54:01.716 STDERR [INFO] I0918 01:54:01.640626 14610 layer_factory.hpp:77] Creating layer inception_3a/3x3_reduce
2016-09-18 01:54:01.716 STDERR [INFO] I0918 01:54:01.640640 14610 net.cpp:91] Creating Layer inception_3a/3x3_reduce
2016-09-18 01:54:01.716 STDERR [INFO] I0918 01:54:01.640643 14610 net.cpp:425] inception_3a/3x3_reduce <- pool2/3x3_s2_pool2/3x3_s2_0_split_1
2016-09-18 01:54:01.716 STDERR [INFO] I0918 01:54:01.640651 14610 net.cpp:399] inception_3a/3x3_reduce -> inception_3a/3x3_reduce
2016-09-18 01:54:01.717 STDERR [INFO] I0918 01:54:01.640761 14608 net.cpp:141] Setting up inception_3a/1x1
2016-09-18 01:54:01.717 STDERR [INFO] I0918 01:54:01.640770 14608 net.cpp:148] Top shape: 10 64 28 28 (501760)
2016-09-18 01:54:01.717 STDERR [INFO] I0918 01:54:01.640774 14608 net.cpp:156] Memory required for data: 206725120
2016-09-18 01:54:01.717 STDERR [INFO] I0918 01:54:01.640781 14608 layer_factory.hpp:77] Creating layer inception_3a/relu_1x1
2016-09-18 01:54:01.717 n.t.s.s.CVParticleSpout [INFO] [Timing] RequestID: 0 StreamID: home_peifeng_work_data_frame_1080x1920_png SequenceNr: 23 Leaving fetcher: 1474178041716 Size: 160423
2016-09-18 01:54:01.717 STDERR [INFO] I0918 01:54:01.640791 14608 net.cpp:91] Creating Layer inception_3a/relu_1x1
2016-09-18 01:54:01.717 STDERR [INFO] I0918 01:54:01.640795 14608 net.cpp:425] inception_3a/relu_1x1 <- inception_3a/1x1
2016-09-18 01:54:01.717 STDERR [INFO] I0918 01:54:01.640800 14608 net.cpp:386] inception_3a/relu_1x1 -> inception_3a/1x1 (in-place)
2016-09-18 01:54:01.717 STDERR [INFO] I0918 01:54:01.640806 14608 net.cpp:141] Setting up inception_3a/relu_1x1
2016-09-18 01:54:01.717 STDERR [INFO] I0918 01:54:01.640804 14620 net.cpp:141] Setting up inception_3a/1x1
2016-09-18 01:54:01.717 STDERR [INFO] I0918 01:54:01.640815 14608 net.cpp:148] Top shape: 10 64 28 28 (501760)
2016-09-18 01:54:01.717 STDERR [INFO] I0918 01:54:01.640825 14608 net.cpp:156] Memory required for data: 208732160
2016-09-18 01:54:01.717 STDERR [INFO] I0918 01:54:01.640828 14608 layer_factory.hpp:77] Creating layer inception_3a/3x3_reduce
2016-09-18 01:54:01.717 STDERR [INFO] I0918 01:54:01.640827 14620 net.cpp:148] Top shape: 10 64 28 28 (501760)
2016-09-18 01:54:01.717 STDERR [INFO] I0918 01:54:01.640838 14620 net.cpp:156] Memory required for data: 206725120
2016-09-18 01:54:01.717 STDERR [INFO] I0918 01:54:01.640843 14608 net.cpp:91] Creating Layer inception_3a/3x3_reduce
2016-09-18 01:54:01.717 STDERR [INFO] I0918 01:54:01.640847 14608 net.cpp:425] inception_3a/3x3_reduce <- pool2/3x3_s2_pool2/3x3_s2_0_split_1
2016-09-18 01:54:01.717 STDERR [INFO] I0918 01:54:01.640849 14620 layer_factory.hpp:77] Creating layer inception_3a/relu_1x1
2016-09-18 01:54:01.717 STDERR [INFO] I0918 01:54:01.640854 14608 net.cpp:399] inception_3a/3x3_reduce -> inception_3a/3x3_reduce
2016-09-18 01:54:01.717 STDERR [INFO] I0918 01:54:01.640863 14620 net.cpp:91] Creating Layer inception_3a/relu_1x1
2016-09-18 01:54:01.717 STDERR [INFO] I0918 01:54:01.640869 14620 net.cpp:425] inception_3a/relu_1x1 <- inception_3a/1x1
2016-09-18 01:54:01.717 STDERR [INFO] I0918 01:54:01.640877 14620 net.cpp:386] inception_3a/relu_1x1 -> inception_3a/1x1 (in-place)
2016-09-18 01:54:01.717 STDERR [INFO] I0918 01:54:01.640887 14620 net.cpp:141] Setting up inception_3a/relu_1x1
2016-09-18 01:54:01.717 STDERR [INFO] I0918 01:54:01.640895 14620 net.cpp:148] Top shape: 10 64 28 28 (501760)
2016-09-18 01:54:01.717 STDERR [INFO] I0918 01:54:01.640897 14610 net.cpp:141] Setting up inception_3a/3x3_reduce
2016-09-18 01:54:01.717 STDERR [INFO] I0918 01:54:01.640900 14620 net.cpp:156] Memory required for data: 208732160
2016-09-18 01:54:01.717 STDERR [INFO] I0918 01:54:01.640915 14610 net.cpp:148] Top shape: 10 96 28 28 (752640)
2016-09-18 01:54:01.717 STDERR [INFO] I0918 01:54:01.640915 14620 layer_factory.hpp:77] Creating layer inception_3a/3x3_reduce
2016-09-18 01:54:01.717 STDERR [INFO] I0918 01:54:01.640925 14610 net.cpp:156] Memory required for data: 211742720
2016-09-18 01:54:01.717 STDERR [INFO] I0918 01:54:01.640938 14620 net.cpp:91] Creating Layer inception_3a/3x3_reduce
2016-09-18 01:54:01.717 STDERR [INFO] I0918 01:54:01.640945 14620 net.cpp:425] inception_3a/3x3_reduce <- pool2/3x3_s2_pool2/3x3_s2_0_split_1
2016-09-18 01:54:01.717 STDERR [INFO] I0918 01:54:01.640946 14610 layer_factory.hpp:77] Creating layer inception_3a/relu_3x3_reduce
2016-09-18 01:54:01.717 STDERR [INFO] I0918 01:54:01.640957 14610 net.cpp:91] Creating Layer inception_3a/relu_3x3_reduce
2016-09-18 01:54:01.717 STDERR [INFO] I0918 01:54:01.640959 14620 net.cpp:399] inception_3a/3x3_reduce -> inception_3a/3x3_reduce
2016-09-18 01:54:01.717 STDERR [INFO] I0918 01:54:01.640964 14610 net.cpp:425] inception_3a/relu_3x3_reduce <- inception_3a/3x3_reduce
2016-09-18 01:54:01.717 STDERR [INFO] I0918 01:54:01.640972 14610 net.cpp:386] inception_3a/relu_3x3_reduce -> inception_3a/3x3_reduce (in-place)
2016-09-18 01:54:01.718 STDERR [INFO] I0918 01:54:01.640982 14610 net.cpp:141] Setting up inception_3a/relu_3x3_reduce
2016-09-18 01:54:01.718 STDERR [INFO] I0918 01:54:01.640991 14610 net.cpp:148] Top shape: 10 96 28 28 (752640)
2016-09-18 01:54:01.718 STDERR [INFO] I0918 01:54:01.640996 14610 net.cpp:156] Memory required for data: 214753280
2016-09-18 01:54:01.718 STDERR [INFO] I0918 01:54:01.641002 14610 layer_factory.hpp:77] Creating layer inception_3a/3x3
2016-09-18 01:54:01.718 STDERR [INFO] I0918 01:54:01.641026 14610 net.cpp:91] Creating Layer inception_3a/3x3
2016-09-18 01:54:01.718 STDERR [INFO] I0918 01:54:01.641033 14608 net.cpp:141] Setting up inception_3a/3x3_reduce
2016-09-18 01:54:01.718 STDERR [INFO] I0918 01:54:01.641033 14610 net.cpp:425] inception_3a/3x3 <- inception_3a/3x3_reduce
2016-09-18 01:54:01.718 STDERR [INFO] I0918 01:54:01.641044 14608 net.cpp:148] Top shape: 10 96 28 28 (752640)
2016-09-18 01:54:01.718 STDERR [INFO] I0918 01:54:01.641054 14608 net.cpp:156] Memory required for data: 211742720
2016-09-18 01:54:01.718 STDERR [INFO] I0918 01:54:01.641062 14610 net.cpp:399] inception_3a/3x3 -> inception_3a/3x3
2016-09-18 01:54:01.718 STDERR [INFO] I0918 01:54:01.641064 14608 layer_factory.hpp:77] Creating layer inception_3a/relu_3x3_reduce
2016-09-18 01:54:01.718 STDERR [INFO] I0918 01:54:01.641077 14608 net.cpp:91] Creating Layer inception_3a/relu_3x3_reduce
2016-09-18 01:54:01.718 STDERR [INFO] I0918 01:54:01.641080 14608 net.cpp:425] inception_3a/relu_3x3_reduce <- inception_3a/3x3_reduce
2016-09-18 01:54:01.718 STDERR [INFO] I0918 01:54:01.641088 14608 net.cpp:386] inception_3a/relu_3x3_reduce -> inception_3a/3x3_reduce (in-place)
2016-09-18 01:54:01.718 STDERR [INFO] I0918 01:54:01.641093 14608 net.cpp:141] Setting up inception_3a/relu_3x3_reduce
2016-09-18 01:54:01.718 STDERR [INFO] I0918 01:54:01.641098 14608 net.cpp:148] Top shape: 10 96 28 28 (752640)
2016-09-18 01:54:01.718 STDERR [INFO] I0918 01:54:01.641100 14608 net.cpp:156] Memory required for data: 214753280
2016-09-18 01:54:01.718 STDERR [INFO] I0918 01:54:01.641103 14608 layer_factory.hpp:77] Creating layer inception_3a/3x3
2016-09-18 01:54:01.718 STDERR [INFO] I0918 01:54:01.641119 14608 net.cpp:91] Creating Layer inception_3a/3x3
2016-09-18 01:54:01.718 STDERR [INFO] I0918 01:54:01.641122 14608 net.cpp:425] inception_3a/3x3 <- inception_3a/3x3_reduce
2016-09-18 01:54:01.718 STDERR [INFO] I0918 01:54:01.641127 14608 net.cpp:399] inception_3a/3x3 -> inception_3a/3x3
2016-09-18 01:54:01.718 STDERR [INFO] I0918 01:54:01.641242 14620 net.cpp:141] Setting up inception_3a/3x3_reduce
2016-09-18 01:54:01.718 STDERR [INFO] I0918 01:54:01.641253 14620 net.cpp:148] Top shape: 10 96 28 28 (752640)
2016-09-18 01:54:01.718 STDERR [INFO] I0918 01:54:01.641259 14620 net.cpp:156] Memory required for data: 211742720
2016-09-18 01:54:01.718 STDERR [INFO] I0918 01:54:01.641274 14620 layer_factory.hpp:77] Creating layer inception_3a/relu_3x3_reduce
2016-09-18 01:54:01.718 STDERR [INFO] I0918 01:54:01.641297 14620 net.cpp:91] Creating Layer inception_3a/relu_3x3_reduce
2016-09-18 01:54:01.718 STDERR [INFO] I0918 01:54:01.641304 14620 net.cpp:425] inception_3a/relu_3x3_reduce <- inception_3a/3x3_reduce
2016-09-18 01:54:01.718 STDERR [INFO] I0918 01:54:01.641312 14620 net.cpp:386] inception_3a/relu_3x3_reduce -> inception_3a/3x3_reduce (in-place)
2016-09-18 01:54:01.718 STDERR [INFO] I0918 01:54:01.641322 14620 net.cpp:141] Setting up inception_3a/relu_3x3_reduce
2016-09-18 01:54:01.718 STDERR [INFO] I0918 01:54:01.641330 14620 net.cpp:148] Top shape: 10 96 28 28 (752640)
2016-09-18 01:54:01.718 STDERR [INFO] I0918 01:54:01.641335 14620 net.cpp:156] Memory required for data: 214753280
2016-09-18 01:54:01.718 STDERR [INFO] I0918 01:54:01.641341 14620 layer_factory.hpp:77] Creating layer inception_3a/3x3
2016-09-18 01:54:01.718 STDERR [INFO] I0918 01:54:01.641360 14620 net.cpp:91] Creating Layer inception_3a/3x3
2016-09-18 01:54:01.718 STDERR [INFO] I0918 01:54:01.641366 14620 net.cpp:425] inception_3a/3x3 <- inception_3a/3x3_reduce
2016-09-18 01:54:01.718 STDERR [INFO] I0918 01:54:01.641389 14620 net.cpp:399] inception_3a/3x3 -> inception_3a/3x3
2016-09-18 01:54:01.718 STDERR [INFO] I0918 01:54:01.642663 14610 net.cpp:141] Setting up inception_3a/3x3
2016-09-18 01:54:01.718 STDERR [INFO] I0918 01:54:01.642681 14610 net.cpp:148] Top shape: 10 128 28 28 (1003520)
2016-09-18 01:54:01.718 STDERR [INFO] I0918 01:54:01.642680 14608 net.cpp:141] Setting up inception_3a/3x3
2016-09-18 01:54:01.718 STDERR [INFO] I0918 01:54:01.642693 14610 net.cpp:156] Memory required for data: 218767360
2016-09-18 01:54:01.719 STDERR [INFO] I0918 01:54:01.642702 14608 net.cpp:148] Top shape: 10 128 28 28 (1003520)
2016-09-18 01:54:01.719 STDERR [INFO] I0918 01:54:01.642707 14608 net.cpp:156] Memory required for data: 218767360
2016-09-18 01:54:01.719 STDERR [INFO] I0918 01:54:01.642709 14610 layer_factory.hpp:77] Creating layer inception_3a/relu_3x3
2016-09-18 01:54:01.719 STDERR [INFO] I0918 01:54:01.642813 14620 net.cpp:141] Setting up inception_3a/3x3
2016-09-18 01:54:01.719 STDERR [INFO] I0918 01:54:01.654043 14608 layer_factory.hpp:77] Creating layer inception_3a/relu_3x3
2016-09-18 01:54:01.719 STDERR [INFO] I0918 01:54:01.654044 14610 net.cpp:91] Creating Layer inception_3a/relu_3x3
2016-09-18 01:54:01.719 STDERR [INFO] I0918 01:54:01.654043 14620 net.cpp:148] Top shape: 10 128 28 28 (1003520)
2016-09-18 01:54:01.719 STDERR [INFO] I0918 01:54:01.654078 14608 net.cpp:91] Creating Layer inception_3a/relu_3x3
2016-09-18 01:54:01.719 STDERR [INFO] I0918 01:54:01.654080 14620 net.cpp:156] Memory required for data: 218767360
2016-09-18 01:54:01.719 STDERR [INFO] I0918 01:54:01.654086 14608 net.cpp:425] inception_3a/relu_3x3 <- inception_3a/3x3
2016-09-18 01:54:01.719 STDERR [INFO] I0918 01:54:01.654080 14610 net.cpp:425] inception_3a/relu_3x3 <- inception_3a/3x3
2016-09-18 01:54:01.719 STDERR [INFO] I0918 01:54:01.654100 14608 net.cpp:386] inception_3a/relu_3x3 -> inception_3a/3x3 (in-place)
2016-09-18 01:54:01.719 STDERR [INFO] I0918 01:54:01.654109 14620 layer_factory.hpp:77] Creating layer inception_3a/relu_3x3
2016-09-18 01:54:01.719 STDERR [INFO] I0918 01:54:01.654114 14610 net.cpp:386] inception_3a/relu_3x3 -> inception_3a/3x3 (in-place)
2016-09-18 01:54:01.719 STDERR [INFO] I0918 01:54:01.654121 14620 net.cpp:91] Creating Layer inception_3a/relu_3x3
2016-09-18 01:54:01.719 STDERR [INFO] I0918 01:54:01.654124 14608 net.cpp:141] Setting up inception_3a/relu_3x3
2016-09-18 01:54:01.719 STDERR [INFO] I0918 01:54:01.654130 14620 net.cpp:425] inception_3a/relu_3x3 <- inception_3a/3x3
2016-09-18 01:54:01.719 STDERR [INFO] I0918 01:54:01.654131 14610 net.cpp:141] Setting up inception_3a/relu_3x3
2016-09-18 01:54:01.719 STDERR [INFO] I0918 01:54:01.654134 14608 net.cpp:148] Top shape: 10 128 28 28 (1003520)
2016-09-18 01:54:01.719 STDERR [INFO] I0918 01:54:01.654140 14608 net.cpp:156] Memory required for data: 222781440
2016-09-18 01:54:01.719 STDERR [INFO] I0918 01:54:01.654144 14610 net.cpp:148] Top shape: 10 128 28 28 (1003520)
2016-09-18 01:54:01.719 STDERR [INFO] I0918 01:54:01.654146 14608 layer_factory.hpp:77] Creating layer inception_3a/5x5_reduce
2016-09-18 01:54:01.719 STDERR [INFO] I0918 01:54:01.654147 14620 net.cpp:386] inception_3a/relu_3x3 -> inception_3a/3x3 (in-place)
2016-09-18 01:54:01.719 STDERR [INFO] I0918 01:54:01.654151 14610 net.cpp:156] Memory required for data: 222781440
2016-09-18 01:54:01.719 STDERR [INFO] I0918 01:54:01.654158 14610 layer_factory.hpp:77] Creating layer inception_3a/5x5_reduce
2016-09-18 01:54:01.719 STDERR [INFO] I0918 01:54:01.654161 14620 net.cpp:141] Setting up inception_3a/relu_3x3
2016-09-18 01:54:01.719 STDERR [INFO] I0918 01:54:01.654168 14608 net.cpp:91] Creating Layer inception_3a/5x5_reduce
2016-09-18 01:54:01.719 STDERR [INFO] I0918 01:54:01.654171 14620 net.cpp:148] Top shape: 10 128 28 28 (1003520)
2016-09-18 01:54:01.719 STDERR [INFO] I0918 01:54:01.654176 14608 net.cpp:425] inception_3a/5x5_reduce <- pool2/3x3_s2_pool2/3x3_s2_0_split_2
2016-09-18 01:54:01.719 STDERR [INFO] I0918 01:54:01.654178 14620 net.cpp:156] Memory required for data: 222781440
2016-09-18 01:54:01.719 STDERR [INFO] I0918 01:54:01.654180 14610 net.cpp:91] Creating Layer inception_3a/5x5_reduce
2016-09-18 01:54:01.719 STDERR [INFO] I0918 01:54:01.654184 14620 layer_factory.hpp:77] Creating layer inception_3a/5x5_reduce
…
2016-09-18 01:54:01.720 STDERR [INFO] I0918 01:54:01.654397 14608 net.cpp:425] inception_3a/relu_5x5_reduce <- inception_3a/5x5_reduce
2016-09-18 01:54:01.720 STDERR [INFO] I0918 01:54:01.654400 14620 net.cpp:91] Creating Layer inception_3a/relu_5x5_reduce
2016-09-18 01:54:01.720 STDERR [INFO] I0918 01:54:01.654407 14608 net.cpp:386] inception_3a/relu_5x5_reduce -> inception_3a/5x5_reduce (in-place)
2016-09-18 01:54:01.720 STDERR [INFO] I0918 01:54:01.654400 14610 net.cpp:91] Creating Layer inception_3a/relu_5x5_reduce
2016-09-18 01:54:01.720 STDERR [INFO] I0918 01:54:01.654417 14608 net.cpp:141] Setting up inception_3a/relu_5x5_reduce
2016-09-18 01:54:01.720 STDERR [INFO] I0918 01:54:01.654425 14608 net.cpp:148] Top shape: 10 16 28 28 (125440)
2016-09-18 01:54:01.720 STDERR [INFO] I0918 01:54:01.654430 14608 net.cpp:156] Memory required for data: 223784960
2016-09-18 01:54:01.720 STDERR [INFO] I0918 01:54:01.654435 14610 net.cpp:425] inception_3a/relu_5x5_reduce <- inception_3a/5x5_reduce
2016-09-18 01:54:01.720 STDERR [INFO] I0918 01:54:01.654414 14620 net.cpp:425] inception_3a/relu_5x5_reduce <- inception_3a/5x5_reduce
2016-09-18 01:54:01.720 STDERR [INFO] I0918 01:54:01.654443 14608 layer_factory.hpp:77] Creating layer inception_3a/5x5
2016-09-18 01:54:01.720 STDERR [INFO] I0918 01:54:01.654446 14610 net.cpp:386] inception_3a/relu_5x5_reduce -> inception_3a/5x5_reduce (in-place)
2016-09-18 01:54:01.720 STDERR [INFO] I0918 01:54:01.654451 14620 net.cpp:386] inception_3a/relu_5x5_reduce -> inception_3a/5x5_reduce (in-place)
2016-09-18 01:54:01.720 STDERR [INFO] I0918 01:54:01.654454 14608 net.cpp:91] Creating Layer inception_3a/5x5
2016-09-18 01:54:01.720 STDERR [INFO] I0918 01:54:01.654458 14610 net.cpp:141] Setting up inception_3a/relu_5x5_reduce
2016-09-18 01:54:01.720 STDERR [INFO] I0918 01:54:01.654469 14608 net.cpp:425] inception_3a/5x5 <- inception_3a/5x5_reduce
2016-09-18 01:54:01.720 STDERR [INFO] I0918 01:54:01.654467 14620 net.cpp:141] Setting up inception_3a/relu_5x5_reduce
2016-09-18 01:54:01.720 STDERR [INFO] I0918 01:54:01.654480 14608 net.cpp:399] inception_3a/5x5 -> inception_3a/5x5
2016-09-18 01:54:01.720 STDERR [INFO] I0918 01:54:01.654486 14610 net.cpp:148] Top shape: 10 16 28 28 (125440)
2016-09-18 01:54:01.720 STDERR [INFO] I0918 01:54:01.654489 14620 net.cpp:148] Top shape: 10 16 28 28 (125440)
2016-09-18 01:54:01.720 STDERR [INFO] I0918 01:54:01.654494 14610 net.cpp:156] Memory required for data: 223784960
2016-09-18 01:54:01.720 STDERR [INFO] I0918 01:54:01.654495 14620 net.cpp:156] Memory required for data: 223784960
2016-09-18 01:54:01.720 STDERR [INFO] I0918 01:54:01.654500 14610 layer_factory.hpp:77] Creating layer inception_3a/5x5
2016-09-18 01:54:01.720 STDERR [INFO] I0918 01:54:01.654502 14620 layer_factory.hpp:77] Creating layer inception_3a/5x5
2016-09-18 01:54:01.720 STDERR [INFO] I0918 01:54:01.654523 14610 net.cpp:91] Creating Layer inception_3a/5x5
2016-09-18 01:54:01.720 STDERR [INFO] I0918 01:54:01.654530 14620 net.cpp:91] Creating Layer inception_3a/5x5
2016-09-18 01:54:01.720 STDERR [INFO] I0918 01:54:01.654531 14610 net.cpp:425] inception_3a/5x5 <- inception_3a/5x5_reduce
2016-09-18 01:54:01.720 STDERR [INFO] I0918 01:54:01.654544 14620 net.cpp:425] inception_3a/5x5 <- inception_3a/5x5_reduce
2016-09-18 01:54:01.720 STDERR [INFO] I0918 01:54:01.654554 14610 net.cpp:399] inception_3a/5x5 -> inception_3a/5x5
2016-09-18 01:54:01.720 STDERR [INFO] I0918 01:54:01.654556 14620 net.cpp:399] inception_3a/5x5 -> inception_3a/5x5
2016-09-18 01:54:01.720 STDERR [INFO] I0918 01:54:01.654631 14608 net.cpp:141] Setting up inception_3a/5x5
2016-09-18 01:54:01.720 STDERR [INFO] I0918 01:54:01.654641 14608 net.cpp:148] Top shape: 10 32 28 28 (250880)
2016-09-18 01:54:01.720 STDERR [INFO] I0918 01:54:01.654644 14608 net.cpp:156] Memory required for data: 224788480
2016-09-18 01:54:01.721 STDERR [INFO] I0918 01:54:01.654651 14608 layer_factory.hpp:77] Creating layer inception_3a/relu_5x5
2016-09-18 01:54:01.721 STDERR [INFO] I0918 01:54:01.654657 14608 net.cpp:91] Creating Layer inception_3a/relu_5x5
2016-09-18 01:54:01.721 STDERR [INFO] I0918 01:54:01.654660 14608 net.cpp:425] inception_3a/relu_5x5 <- inception_3a/5x5
2016-09-18 01:54:01.721 STDERR [INFO] I0918 01:54:01.654665 14608 net.cpp:386] inception_3a/relu_5x5 -> inception_3a/5x5 (in-place)
2016-09-18 01:54:01.721 STDERR [INFO] I0918 01:54:01.654671 14608 net.cpp:141] Setting up inception_3a/relu_5x5
2016-09-18 01:54:01.721 STDERR [INFO] I0918 01:54:01.654675 14608 net.cpp:148] Top shape: 10 32 28 28 (250880)
2016-09-18 01:54:01.721 STDERR [INFO] I0918 01:54:01.654678 14608 net.cpp:156] Memory required for data: 225792000
2016-09-18 01:54:01.721 STDERR [INFO] I0918 01:54:01.654681 14608 layer_factory.hpp:77] Creating layer inception_3a/pool
2016-09-18 01:54:01.721 STDERR [INFO] I0918 01:54:01.654691 14608 net.cpp:91] Creating Layer inception_3a/pool
2016-09-18 01:54:01.721 STDERR [INFO] I0918 01:54:01.654695 14608 net.cpp:425] inception_3a/pool <- pool2/3x3_s2_pool2/3x3_s2_0_split_3
2016-09-18 01:54:01.721 STDERR [INFO] I0918 01:54:01.654700 14608 net.cpp:399] inception_3a/pool -> inception_3a/pool
2016-09-18 01:54:01.721 STDERR [INFO] I0918 01:54:01.654711 14608 net.cpp:141] Setting up inception_3a/pool
2016-09-18 01:54:01.721 STDERR [INFO] I0918 01:54:01.654714 14608 net.cpp:148] Top shape: 10 192 28 28 (1505280)
2016-09-18 01:54:01.721 STDERR [INFO] I0918 01:54:01.654717 14608 net.cpp:156] Memory required for data: 231813120
2016-09-18 01:54:01.721 STDERR [INFO] I0918 01:54:01.654721 14608 layer_factory.hpp:77] Creating layer inception_3a/pool_proj
2016-09-18 01:54:01.721 STDERR [INFO] I0918 01:54:01.654731 14608 net.cpp:91] Creating Layer inception_3a/pool_proj
2016-09-18 01:54:01.721 STDERR [INFO] I0918 01:54:01.654734 14608 net.cpp:425] inception_3a/pool_proj <- inception_3a/pool
2016-09-18 01:54:01.721 STDERR [INFO] I0918 01:54:01.654742 14608 net.cpp:399] inception_3a/pool_proj -> inception_3a/pool_proj
2016-09-18 01:54:01.721 STDERR [INFO] I0918 01:54:01.654778 14610 net.cpp:141] Setting up inception_3a/5x5
2016-09-18 01:54:01.721 STDERR [INFO] I0918 01:54:01.654790 14610 net.cpp:148] Top shape: 10 32 28 28 (250880)
2016-09-18 01:54:01.721 STDERR [INFO] I0918 01:54:01.654796 14610 net.cpp:156] Memory required for data: 224788480
2016-09-18 01:54:01.721 STDERR [INFO] I0918 01:54:01.654800 14620 net.cpp:141] Setting up inception_3a/5x5
2016-09-18 01:54:01.721 STDERR [INFO] I0918 01:54:01.654808 14610 layer_factory.hpp:77] Creating layer inception_3a/relu_5x5
2016-09-18 01:54:01.721 STDERR [INFO] I0918 01:54:01.654816 14620 net.cpp:148] Top shape: 10 32 28 28 (250880)
2016-09-18 01:54:01.721 STDERR [INFO] I0918 01:54:01.654817 14610 net.cpp:91] Creating Layer inception_3a/relu_5x5
2016-09-18 01:54:01.721 STDERR [INFO] I0918 01:54:01.654827 14620 net.cpp:156] Memory required for data: 224788480
2016-09-18 01:54:01.721 STDERR [INFO] I0918 01:54:01.654832 14610 net.cpp:425] inception_3a/relu_5x5 <- inception_3a/5x5
2016-09-18 01:54:01.721 STDERR [INFO] I0918 01:54:01.654829 14608 net.cpp:141] Setting up inception_3a/pool_proj
2016-09-18 01:54:01.721 STDERR [INFO] I0918 01:54:01.654842 14620 layer_factory.hpp:77] Creating layer inception_3a/relu_5x5
2016-09-18 01:54:01.721 STDERR [INFO] I0918 01:54:01.654847 14610 net.cpp:386] inception_3a/relu_5x5 -> inception_3a/5x5 (in-place)
2016-09-18 01:54:01.721 STDERR [INFO] I0918 01:54:01.654845 14608 net.cpp:148] Top shape: 10 32 28 28 (250880)
2016-09-18 01:54:01.721 STDERR [INFO] I0918 01:54:01.654856 14620 net.cpp:91] Creating Layer inception_3a/relu_5x5
2016-09-18 01:54:01.721 STDERR [INFO] I0918 01:54:01.654860 14608 net.cpp:156] Memory required for data: 232816640
2016-09-18 01:54:01.721 STDERR [INFO] I0918 01:54:01.654861 14610 net.cpp:141] Setting up inception_3a/relu_5x5
2016-09-18 01:54:01.721 STDERR [INFO] I0918 01:54:01.654863 14620 net.cpp:425] inception_3a/relu_5x5 <- inception_3a/5x5
2016-09-18 01:54:01.721 STDERR [INFO] I0918 01:54:01.654875 14608 layer_factory.hpp:77] Creating layer inception_3a/relu_pool_proj
2016-09-18 01:54:01.721 STDERR [INFO] I0918 01:54:01.654876 14610 net.cpp:148] Top shape: 10 32 28 28 (250880)
2016-09-18 01:54:01.721 STDERR [INFO] I0918 01:54:01.654881 14608 net.cpp:91] Creating Layer inception_3a/relu_pool_proj
2016-09-18 01:54:01.721 STDERR [INFO] I0918 01:54:01.654883 14610 net.cpp:156] Memory required for data: 225792000
2016-09-18 01:54:01.721 STDERR [INFO] I0918 01:54:01.654887 14620 net.cpp:386] inception_3a/relu_5x5 -> inception_3a/5x5 (in-place)
2016-09-18 01:54:01.721 STDERR [INFO] I0918 01:54:01.654893 14610 layer_factory.hpp:77] Creating layer inception_3a/pool
2016-09-18 01:54:01.721 STDERR [INFO] I0918 01:54:01.654886 14608 net.cpp:425] inception_3a/relu_pool_proj <- inception_3a/pool_proj
2016-09-18 01:54:01.721 STDERR [INFO] I0918 01:54:01.654902 14620 net.cpp:141] Setting up inception_3a/relu_5x5
2016-09-18 01:54:01.722 STDERR [INFO] I0918 01:54:01.654907 14608 net.cpp:386] inception_3a/relu_pool_proj -> inception_3a/pool_proj (in-place)
2016-09-18 01:54:01.722 STDERR [INFO] I0918 01:54:01.654912 14620 net.cpp:148] Top shape: 10 32 28 28 (250880)
2016-09-18 01:54:01.722 STDERR [INFO] I0918 01:54:01.654907 14610 net.cpp:91] Creating Layer inception_3a/pool
2016-09-18 01:54:01.722 STDERR [INFO] I0918 01:54:01.654917 14608 net.cpp:141] Setting up inception_3a/relu_pool_proj
2016-09-18 01:54:01.722 STDERR [INFO] I0918 01:54:01.654919 14620 net.cpp:156] Memory required for data: 225792000
2016-09-18 01:54:01.722 STDERR [INFO] I0918 01:54:01.654923 14608 net.cpp:148] Top shape: 10 32 28 28 (250880)
2016-09-18 01:54:01.722 STDERR [INFO] I0918 01:54:01.654923 14610 net.cpp:425] inception_3a/pool <- pool2/3x3_s2_pool2/3x3_s2_0_split_3
2016-09-18 01:54:01.722 STDERR [INFO] I0918 01:54:01.654925 14620 layer_factory.hpp:77] Creating layer inception_3a/pool
2016-09-18 01:54:01.722 STDERR [INFO] I0918 01:54:01.654927 14608 net.cpp:156] Memory required for data: 233820160
2016-09-18 01:54:01.722 STDERR [INFO] I0918 01:54:01.654935 14608 layer_factory.hpp:77] Creating layer inception_3a/output
2016-09-18 01:54:01.722 STDERR [INFO] I0918 01:54:01.654937 14620 net.cpp:91] Creating Layer inception_3a/pool
2016-09-18 01:54:01.722 STDERR [INFO] I0918 01:54:01.654938 14610 net.cpp:399] inception_3a/pool -> inception_3a/pool
2016-09-18 01:54:01.722 STDERR [INFO] I0918 01:54:01.654944 14620 net.cpp:425] inception_3a/pool <- pool2/3x3_s2_pool2/3x3_s2_0_split_3
2016-09-18 01:54:01.722 STDERR [INFO] I0918 01:54:01.654954 14608 net.cpp:91] Creating Layer inception_3a/output
2016-09-18 01:54:01.722 STDERR [INFO] I0918 01:54:01.654954 14610 net.cpp:141] Setting up inception_3a/pool
2016-09-18 01:54:01.722 STDERR [INFO] I0918 01:54:01.654958 14620 net.cpp:399] inception_3a/pool -> inception_3a/pool
2016-09-18 01:54:01.722 STDERR [INFO] I0918 01:54:01.654959 14608 net.cpp:425] inception_3a/output <- inception_3a/1x1
2016-09-18 01:54:01.722 STDERR [INFO] I0918 01:54:01.654964 14610 net.cpp:148] Top shape: 10 192 28 28 (1505280)
2016-09-18 01:54:01.722 STDERR [INFO] I0918 01:54:01.654970 14608 net.cpp:425] inception_3a/output <- inception_3a/3x3
2016-09-18 01:54:01.722 STDERR [INFO] I0918 01:54:01.654971 14610 net.cpp:156] Memory required for data: 231813120
2016-09-18 01:54:01.722 STDERR [INFO] I0918 01:54:01.654975 14608 net.cpp:425] inception_3a/output <- inception_3a/5x5
2016-09-18 01:54:01.722 STDERR [INFO] I0918 01:54:01.654976 14620 net.cpp:141] Setting up inception_3a/pool
2016-09-18 01:54:01.722 STDERR [INFO] I0918 01:54:01.654979 14608 net.cpp:425] inception_3a/output <- inception_3a/pool_proj
2016-09-18 01:54:01.722 STDERR [INFO] I0918 01:54:01.654978 14610 layer_factory.hpp:77] Creating layer inception_3a/pool_proj
2016-09-18 01:54:01.722 STDERR [INFO] I0918 01:54:01.654988 14608 net.cpp:399] inception_3a/output -> inception_3a/output
2016-09-18 01:54:01.722 STDERR [INFO] I0918 01:54:01.654986 14620 net.cpp:148] Top shape: 10 192 28 28 (1505280)
2016-09-18 01:54:01.722 STDERR [INFO] I0918 01:54:01.672123 14608 net.cpp:141] Setting up inception_3a/output
2016-09-18 01:54:01.722 STDERR [INFO] I0918 01:54:01.672119 14620 net.cpp:156] Memory required for data: 231813120
2016-09-18 01:54:01.722 STDERR [INFO] I0918 01:54:01.672125 14610 net.cpp:91] Creating Layer inception_3a/pool_proj
2016-09-18 01:54:01.722 STDERR [INFO] I0918 01:54:01.672142 14620 layer_factory.hpp:77] Creating layer inception_3a/pool_proj
2016-09-18 01:54:01.722 STDERR [INFO] I0918 01:54:01.672147 14608 net.cpp:148] Top shape: 10 256 28 28 (2007040)
2016-09-18 01:54:01.722 STDERR [INFO] I0918 01:54:01.672152 14608 net.cpp:156] Memory required for data: 241848320
2016-09-18 01:54:01.722 STDERR [INFO] I0918 01:54:01.672150 14610 net.cpp:425] inception_3a/pool_proj <- inception_3a/pool
2016-09-18 01:54:01.722 STDERR [INFO] I0918 01:54:01.672157 14608 layer_factory.hpp:77] Creating layer inception_3a/output_inception_3a/output_0_split
…
2016-09-18 01:54:01.723 STDERR [INFO] I0918 01:54:01.672197 14608 net.cpp:399] inception_3a/output_inception_3a/output_0_split -> inception_3a/output_inception_3a/output_0_split_1
2016-09-18 01:54:01.723 STDERR [INFO] I0918 01:54:01.672204 14608 net.cpp:399] inception_3a/output_inception_3a/output_0_split -> inception_3a/output_inception_3a/output_0_split_2
2016-09-18 01:54:01.723 STDERR [INFO] I0918 01:54:01.672209 14608 net.cpp:399] inception_3a/output_inception_3a/output_0_split -> inception_3a/output_inception_3a/output_0_split_3
2016-09-18 01:54:01.723 STDERR [INFO] I0918 01:54:01.672217 14608 net.cpp:141] Setting up inception_3a/output_inception_3a/output_0_split
2016-09-18 01:54:01.723 STDERR [INFO] I0918 01:54:01.672221 14608 net.cpp:148] Top shape: 10 256 28 28 (2007040)
2016-09-18 01:54:01.723 STDERR [INFO] I0918 01:54:01.672225 14608 net.cpp:148] Top shape: 10 256 28 28 (2007040)
2016-09-18 01:54:01.723 STDERR [INFO] I0918 01:54:01.672230 14608 net.cpp:148] Top shape: 10 256 28 28 (2007040)
2016-09-18 01:54:01.723 STDERR [INFO] I0918 01:54:01.672233 14608 net.cpp:148] Top shape: 10 256 28 28 (2007040)
2016-09-18 01:54:01.723 STDERR [INFO] I0918 01:54:01.672236 14608 net.cpp:156] Memory required for data: 273960960
2016-09-18 01:54:01.723 STDERR [INFO] I0918 01:54:01.672240 14608 layer_factory.hpp:77] Creating layer inception_3b/1x1
2016-09-18 01:54:01.723 STDERR [INFO] I0918 01:54:01.672256 14608 net.cpp:91] Creating Layer inception_3b/1x1
2016-09-18 01:54:01.723 STDERR [INFO] I0918 01:54:01.672260 14608 net.cpp:425] inception_3b/1x1 <- inception_3a/output_inception_3a/output_0_split_0
2016-09-18 01:54:01.723 STDERR [INFO] I0918 01:54:01.672266 14608 net.cpp:399] inception_3b/1x1 -> inception_3b/1x1
2016-09-18 01:54:01.723 STDERR [INFO] I0918 01:54:01.672297 14610 net.cpp:141] Setting up inception_3a/pool_proj
2016-09-18 01:54:01.723 STDERR [INFO] I0918 01:54:01.672310 14610 net.cpp:148] Top shape: 10 32 28 28 (250880)
2016-09-18 01:54:01.723 STDERR [INFO] I0918 01:54:01.672313 14620 net.cpp:141] Setting up inception_3a/pool_proj
2016-09-18 01:54:01.723 STDERR [INFO] I0918 01:54:01.672317 14610 net.cpp:156] Memory required for data: 232816640
2016-09-18 01:54:01.723 STDERR [INFO] I0918 01:54:01.672330 14620 net.cpp:148] Top shape: 10 32 28 28 (250880)
2016-09-18 01:54:01.723 STDERR [INFO] I0918 01:54:01.672336 14620 net.cpp:156] Memory required for data: 232816640
2016-09-18 01:54:01.723 STDERR [INFO] I0918 01:54:01.672346 14610 layer_factory.hpp:77] Creating layer inception_3a/relu_pool_proj
2016-09-18 01:54:01.723 STDERR [INFO] I0918 01:54:01.672358 14620 layer_factory.hpp:77] Creating layer inception_3a/relu_pool_proj
2016-09-18 01:54:01.723 STDERR [INFO] I0918 01:54:01.672358 14610 net.cpp:91] Creating Layer inception_3a/relu_pool_proj
…
2016-09-18 01:54:01.724 STDERR [INFO] I0918 01:54:01.672577 14610 net.cpp:399] inception_3a/output_inception_3a/output_0_split -> inception_3a/output_inception_3a/output_0_split_3
2016-09-18 01:54:01.724 STDERR [INFO] I0918 01:54:01.672580 14608 net.cpp:141] Setting up inception_3b/1x1
2016-09-18 01:54:01.724 STDERR [INFO] I0918 01:54:01.672585 14620 net.cpp:399] inception_3a/output_inception_3a/output_0_split -> inception_3a/output_inception_3a/output_0_split_2
2016-09-18 01:54:01.724 STDERR [INFO] I0918 01:54:01.672591 14610 net.cpp:141] Setting up inception_3a/output_inception_3a/output_0_split
2016-09-18 01:54:01.724 STDERR [INFO] I0918 01:54:01.672588 14608 net.cpp:148] Top shape: 10 128 28 28 (1003520)
2016-09-18 01:54:01.724 STDERR [INFO] I0918 01:54:01.672598 14608 net.cpp:156] Memory required for data: 277975040
2016-09-18 01:54:01.724 STDERR [INFO] I0918 01:54:01.672600 14610 net.cpp:148] Top shape: 10 256 28 28 (2007040)
2016-09-18 01:54:01.724 STDERR [INFO] I0918 01:54:01.672601 14620 net.cpp:399] inception_3a/output_inception_3a/output_0_split -> inception_3a/output_inception_3a/output_0_split_3
2016-09-18 01:54:01.724 STDERR [INFO] I0918 01:54:01.683187 14610 net.cpp:148] Top shape: 10 256 28 28 (2007040)
2016-09-18 01:54:01.724 STDERR [INFO] I0918 01:54:01.672606 14608 layer_factory.hpp:77] Creating layer inception_3b/relu_1x1
2016-09-18 01:54:01.724 STDERR [INFO] I0918 01:54:01.683200 14610 net.cpp:148] Top shape: 10 256 28 28 (2007040)
2016-09-18 01:54:01.724 STDERR [INFO] I0918 01:54:01.683212 14610 net.cpp:148] Top shape: 10 256 28 28 (2007040)
2016-09-18 01:54:01.724 STDERR [INFO] I0918 01:54:01.683209 14620 net.cpp:141] Setting up inception_3a/output_inception_3a/output_0_split
2016-09-18 01:54:01.724 STDERR [INFO] I0918 01:54:01.683215 14610 net.cpp:156] Memory required for data: 273960960
2016-09-18 01:54:01.725 STDERR [INFO] I0918 01:54:01.683228 14610 layer_factory.hpp:77] Creating layer inception_3b/1x1
2016-09-18 01:54:01.725 STDERR [INFO] I0918 01:54:01.683228 14620 net.cpp:148] Top shape: 10 256 28 28 (2007040)
2016-09-18 01:54:01.725 STDERR [INFO] I0918 01:54:01.683224 14608 net.cpp:91] Creating Layer inception_3b/relu_1x1
2016-09-18 01:54:01.725 STDERR [INFO] I0918 01:54:01.683238 14620 net.cpp:148] Top shape: 10 256 28 28 (2007040)
2016-09-18 01:54:01.725 STDERR [INFO] I0918 01:54:01.683240 14608 net.cpp:425] inception_3b/relu_1x1 <- inception_3b/1x1
2016-09-18 01:54:01.725 STDERR [INFO] I0918 01:54:01.683245 14620 net.cpp:148] Top shape: 10 256 28 28 (2007040)
2016-09-18 01:54:01.725 STDERR [INFO] I0918 01:54:01.683250 14608 net.cpp:386] inception_3b/relu_1x1 -> inception_3b/1x1 (in-place)
2016-09-18 01:54:01.725 STDERR [INFO] I0918 01:54:01.683253 14620 net.cpp:148] Top shape: 10 256 28 28 (2007040)
2016-09-18 01:54:01.725 STDERR [INFO] I0918 01:54:01.683254 14610 net.cpp:91] Creating Layer inception_3b/1x1
2016-09-18 01:54:01.725 STDERR [INFO] I0918 01:54:01.683260 14608 net.cpp:141] Setting up inception_3b/relu_1x1
2016-09-18 01:54:01.725 STDERR [INFO] I0918 01:54:01.683260 14620 net.cpp:156] Memory required for data: 273960960
2016-09-18 01:54:01.725 STDERR [INFO] I0918 01:54:01.683264 14610 net.cpp:425] inception_3b/1x1 <- inception_3a/output_inception_3a/output_0_split_0
2016-09-18 01:54:01.725 STDERR [INFO] I0918 01:54:01.683266 14608 net.cpp:148] Top shape: 10 128 28 28 (1003520)
2016-09-18 01:54:01.725 STDERR [INFO] I0918 01:54:01.683269 14620 layer_factory.hpp:77] Creating layer inception_3b/1x1
2016-09-18 01:54:01.725 STDERR [INFO] I0918 01:54:01.683274 14610 net.cpp:399] inception_3b/1x1 -> inception_3b/1x1
2016-09-18 01:54:01.725 STDERR [INFO] I0918 01:54:01.683270 14608 net.cpp:156] Memory required for data: 281989120
2016-09-18 01:54:01.725 STDERR [INFO] I0918 01:54:01.683279 14608 layer_factory.hpp:77] Creating layer inception_3b/3x3_reduce
2016-09-18 01:54:01.725 STDERR [INFO] I0918 01:54:01.683296 14620 net.cpp:91] Creating Layer inception_3b/1x1
2016-09-18 01:54:01.725 STDERR [INFO] I0918 01:54:01.683305 14620 net.cpp:425] inception_3b/1x1 <- inception_3a/output_inception_3a/output_0_split_0
2016-09-18 01:54:01.725 STDERR [INFO] I0918 01:54:01.683310 14608 net.cpp:91] Creating Layer inception_3b/3x3_reduce
2016-09-18 01:54:01.725 STDERR [INFO] I0918 01:54:01.683316 14608 net.cpp:425] inception_3b/3x3_reduce <- inception_3a/output_inception_3a/output_0_split_1
2016-09-18 01:54:01.725 STDERR [INFO] I0918 01:54:01.683318 14620 net.cpp:399] inception_3b/1x1 -> inception_3b/1x1
2016-09-18 01:54:01.725 STDERR [INFO] I0918 01:54:01.683326 14608 net.cpp:399] inception_3b/3x3_reduce -> inception_3b/3x3_reduce
2016-09-18 01:54:01.725 STDERR [INFO] I0918 01:54:01.683609 14610 net.cpp:141] Setting up inception_3b/1x1
2016-09-18 01:54:01.725 STDERR [INFO] I0918 01:54:01.683616 14610 net.cpp:148] Top shape: 10 128 28 28 (1003520)
2016-09-18 01:54:01.725 STDERR [INFO] I0918 01:54:01.683619 14610 net.cpp:156] Memory required for data: 277975040
2016-09-18 01:54:01.725 STDERR [INFO] I0918 01:54:01.683627 14610 layer_factory.hpp:77] Creating layer inception_3b/relu_1x1
2016-09-18 01:54:01.725 STDERR [INFO] I0918 01:54:01.683634 14610 net.cpp:91] Creating Layer inception_3b/relu_1x1
2016-09-18 01:54:01.725 STDERR [INFO] I0918 01:54:01.683637 14610 net.cpp:425] inception_3b/relu_1x1 <- inception_3b/1x1
2016-09-18 01:54:01.725 STDERR [INFO] I0918 01:54:01.683641 14608 net.cpp:141] Setting up inception_3b/3x3_reduce
2016-09-18 01:54:01.725 STDERR [INFO] I0918 01:54:01.683645 14610 net.cpp:386] inception_3b/relu_1x1 -> inception_3b/1x1 (in-place)
2016-09-18 01:54:01.725 STDERR [INFO] I0918 01:54:01.683650 14608 net.cpp:148] Top shape: 10 128 28 28 (1003520)
2016-09-18 01:54:01.725 STDERR [INFO] I0918 01:54:01.683651 14610 net.cpp:141] Setting up inception_3b/relu_1x1
2016-09-18 01:54:01.725 STDERR [INFO] I0918 01:54:01.683652 14608 net.cpp:156] Memory required for data: 286003200
2016-09-18 01:54:01.725 STDERR [INFO] I0918 01:54:01.683656 14610 net.cpp:148] Top shape: 10 128 28 28 (1003520)
2016-09-18 01:54:01.725 STDERR [INFO] I0918 01:54:01.683660 14610 net.cpp:156] Memory required for data: 281989120
2016-09-18 01:54:01.725 STDERR [INFO] I0918 01:54:01.683661 14608 layer_factory.hpp:77] Creating layer inception_3b/relu_3x3_reduce
2016-09-18 01:54:01.725 STDERR [INFO] I0918 01:54:01.683663 14610 layer_factory.hpp:77] Creating layer inception_3b/3x3_reduce
2016-09-18 01:54:01.725 STDERR [INFO] I0918 01:54:01.683670 14608 net.cpp:91] Creating Layer inception_3b/relu_3x3_reduce
2016-09-18 01:54:01.725 STDERR [INFO] I0918 01:54:01.683675 14610 net.cpp:91] Creating Layer inception_3b/3x3_reduce
2016-09-18 01:54:01.725 STDERR [INFO] I0918 01:54:01.683675 14608 net.cpp:425] inception_3b/relu_3x3_reduce <- inception_3b/3x3_reduce
2016-09-18 01:54:01.725 STDERR [INFO] I0918 01:54:01.683681 14610 net.cpp:425] inception_3b/3x3_reduce <- inception_3a/output_inception_3a/output_0_split_1
2016-09-18 01:54:01.726 STDERR [INFO] I0918 01:54:01.683689 14608 net.cpp:386] inception_3b/relu_3x3_reduce -> inception_3b/3x3_reduce (in-place)
2016-09-18 01:54:01.726 STDERR [INFO] I0918 01:54:01.683694 14610 net.cpp:399] inception_3b/3x3_reduce -> inception_3b/3x3_reduce
2016-09-18 01:54:01.726 STDERR [INFO] I0918 01:54:01.683696 14608 net.cpp:141] Setting up inception_3b/relu_3x3_reduce
2016-09-18 01:54:01.726 STDERR [INFO] I0918 01:54:01.683701 14608 net.cpp:148] Top shape: 10 128 28 28 (1003520)
2016-09-18 01:54:01.726 STDERR [INFO] I0918 01:54:01.683704 14608 net.cpp:156] Memory required for data: 290017280
2016-09-18 01:54:01.726 STDERR [INFO] I0918 01:54:01.683707 14608 layer_factory.hpp:77] Creating layer inception_3b/3x3
2016-09-18 01:54:01.726 STDERR [INFO] I0918 01:54:01.683724 14608 net.cpp:91] Creating Layer inception_3b/3x3
2016-09-18 01:54:01.726 STDERR [INFO] I0918 01:54:01.683728 14608 net.cpp:425] inception_3b/3x3 <- inception_3b/3x3_reduce
2016-09-18 01:54:01.726 STDERR [INFO] I0918 01:54:01.683735 14608 net.cpp:399] inception_3b/3x3 -> inception_3b/3x3
2016-09-18 01:54:01.726 STDERR [INFO] I0918 01:54:01.683784 14620 net.cpp:141] Setting up inception_3b/1x1
2016-09-18 01:54:01.726 STDERR [INFO] I0918 01:54:01.683809 14620 net.cpp:148] Top shape: 10 128 28 28 (1003520)
2016-09-18 01:54:01.726 STDERR [INFO] I0918 01:54:01.683816 14620 net.cpp:156] Memory required for data: 277975040
2016-09-18 01:54:01.726 STDERR [INFO] I0918 01:54:01.683828 14620 layer_factory.hpp:77] Creating layer inception_3b/relu_1x1
2016-09-18 01:54:01.726 STDERR [INFO] I0918 01:54:01.683837 14620 net.cpp:91] Creating Layer inception_3b/relu_1x1
2016-09-18 01:54:01.726 STDERR [INFO] I0918 01:54:01.683845 14620 net.cpp:425] inception_3b/relu_1x1 <- inception_3b/1x1
2016-09-18 01:54:01.726 STDERR [INFO] I0918 01:54:01.683856 14620 net.cpp:386] inception_3b/relu_1x1 -> inception_3b/1x1 (in-place)
2016-09-18 01:54:01.726 STDERR [INFO] I0918 01:54:01.683866 14620 net.cpp:141] Setting up inception_3b/relu_1x1
2016-09-18 01:54:01.726 STDERR [INFO] I0918 01:54:01.683873 14620 net.cpp:148] Top shape: 10 128 28 28 (1003520)
2016-09-18 01:54:01.726 STDERR [INFO] I0918 01:54:01.683878 14620 net.cpp:156] Memory required for data: 281989120
2016-09-18 01:54:01.726 STDERR [INFO] I0918 01:54:01.683883 14620 layer_factory.hpp:77] Creating layer inception_3b/3x3_reduce
2016-09-18 01:54:01.726 STDERR [INFO] I0918 01:54:01.683897 14620 net.cpp:91] Creating Layer inception_3b/3x3_reduce
2016-09-18 01:54:01.726 STDERR [INFO] I0918 01:54:01.683902 14620 net.cpp:425] inception_3b/3x3_reduce <- inception_3a/output_inception_3a/output_0_split_1
2016-09-18 01:54:01.726 STDERR [INFO] I0918 01:54:01.683919 14620 net.cpp:399] inception_3b/3x3_reduce -> inception_3b/3x3_reduce
2016-09-18 01:54:01.726 STDERR [INFO] I0918 01:54:01.684036 14610 net.cpp:141] Setting up inception_3b/3x3_reduce
2016-09-18 01:54:01.726 STDERR [INFO] I0918 01:54:01.684046 14610 net.cpp:148] Top shape: 10 128 28 28 (1003520)
2016-09-18 01:54:01.726 STDERR [INFO] I0918 01:54:01.684049 14610 net.cpp:156] Memory required for data: 286003200
2016-09-18 01:54:01.726 STDERR [INFO] I0918 01:54:01.684056 14610 layer_factory.hpp:77] Creating layer inception_3b/relu_3x3_reduce
2016-09-18 01:54:01.726 STDERR [INFO] I0918 01:54:01.684062 14610 net.cpp:91] Creating Layer inception_3b/relu_3x3_reduce
2016-09-18 01:54:01.726 STDERR [INFO] I0918 01:54:01.684067 14610 net.cpp:425] inception_3b/relu_3x3_reduce <- inception_3b/3x3_reduce
2016-09-18 01:54:01.726 STDERR [INFO] I0918 01:54:01.684072 14610 net.cpp:386] inception_3b/relu_3x3_reduce -> inception_3b/3x3_reduce (in-place)
2016-09-18 01:54:01.726 STDERR [INFO] I0918 01:54:01.684077 14610 net.cpp:141] Setting up inception_3b/relu_3x3_reduce
2016-09-18 01:54:01.726 STDERR [INFO] I0918 01:54:01.684082 14610 net.cpp:148] Top shape: 10 128 28 28 (1003520)
2016-09-18 01:54:01.726 STDERR [INFO] I0918 01:54:01.684084 14610 net.cpp:156] Memory required for data: 290017280
2016-09-18 01:54:01.726 STDERR [INFO] I0918 01:54:01.684087 14610 layer_factory.hpp:77] Creating layer inception_3b/3x3
2016-09-18 01:54:01.726 STDERR [INFO] I0918 01:54:01.684098 14610 net.cpp:91] Creating Layer inception_3b/3x3
2016-09-18 01:54:01.726 STDERR [INFO] I0918 01:54:01.684101 14610 net.cpp:425] inception_3b/3x3 <- inception_3b/3x3_reduce
2016-09-18 01:54:01.726 STDERR [INFO] I0918 01:54:01.684109 14610 net.cpp:399] inception_3b/3x3 -> inception_3b/3x3
2016-09-18 01:54:01.726 STDERR [INFO] I0918 01:54:01.684367 14620 net.cpp:141] Setting up inception_3b/3x3_reduce
2016-09-18 01:54:01.726 STDERR [INFO] I0918 01:54:01.684379 14620 net.cpp:148] Top shape: 10 128 28 28 (1003520)
2016-09-18 01:54:01.726 STDERR [INFO] I0918 01:54:01.684384 14620 net.cpp:156] Memory required for data: 286003200
2016-09-18 01:54:01.726 STDERR [INFO] I0918 01:54:01.684396 14620 layer_factory.hpp:77] Creating layer inception_3b/relu_3x3_reduce
2016-09-18 01:54:01.726 STDERR [INFO] I0918 01:54:01.684414 14620 net.cpp:91] Creating Layer inception_3b/relu_3x3_reduce
2016-09-18 01:54:01.726 STDERR [INFO] I0918 01:54:01.684422 14620 net.cpp:425] inception_3b/relu_3x3_reduce <- inception_3b/3x3_reduce
2016-09-18 01:54:01.727 STDERR [INFO] I0918 01:54:01.684429 14620 net.cpp:386] inception_3b/relu_3x3_reduce -> inception_3b/3x3_reduce (in-place)
2016-09-18 01:54:01.727 STDERR [INFO] I0918 01:54:01.684438 14620 net.cpp:141] Setting up inception_3b/relu_3x3_reduce
2016-09-18 01:54:01.727 STDERR [INFO] I0918 01:54:01.684445 14620 net.cpp:148] Top shape: 10 128 28 28 (1003520)
2016-09-18 01:54:01.727 STDERR [INFO] I0918 01:54:01.684453 14620 net.cpp:156] Memory required for data: 290017280
2016-09-18 01:54:01.727 STDERR [INFO] I0918 01:54:01.684458 14620 layer_factory.hpp:77] Creating layer inception_3b/3x3
2016-09-18 01:54:01.727 STDERR [INFO] I0918 01:54:01.685669 14608 net.cpp:141] Setting up inception_3b/3x3
2016-09-18 01:54:01.727 STDERR [INFO] I0918 01:54:01.686007 14610 net.cpp:141] Setting up inception_3b/3x3
2016-09-18 01:54:01.727 STDERR [INFO] I0918 01:54:01.698940 14608 net.cpp:148] Top shape: 10 192 28 28 (1505280)
2016-09-18 01:54:01.727 STDERR [INFO] I0918 01:54:01.698935 14620 net.cpp:91] Creating Layer inception_3b/3x3
2016-09-18 01:54:01.727 STDERR [INFO] I0918 01:54:01.698956 14610 net.cpp:148] Top shape: 10 192 28 28 (1505280)
2016-09-18 01:54:01.727 STDERR [INFO] I0918 01:54:01.698951 14608 net.cpp:156] Memory required for data: 296038400
2016-09-18 01:54:01.727 STDERR [INFO] I0918 01:54:01.698962 14610 net.cpp:156] Memory required for data: 296038400
2016-09-18 01:54:01.727 STDERR [INFO] I0918 01:54:01.698966 14620 net.cpp:425] inception_3b/3x3 <- inception_3b/3x3_reduce
2016-09-18 01:54:01.727 STDERR [INFO] I0918 01:54:01.698972 14608 layer_factory.hpp:77] Creating layer inception_3b/relu_3x3
…
2016-09-18 01:54:01.729 STDERR [INFO] I0918 01:54:01.700069 14608 net.cpp:425] inception_3b/pool <- inception_3a/output_inception_3a/output_0_split_3
2016-09-18 01:54:01.729 STDERR [INFO] I0918 01:54:01.700072 14610 net.cpp:399] inception_3b/pool -> inception_3b/pool
2016-09-18 01:54:01.729 STDERR [INFO] I0918 01:54:01.700076 14608 net.cpp:399] inception_3b/pool -> inception_3b/pool
2016-09-18 01:54:01.729 STDERR [INFO] I0918 01:54:01.700081 14610 net.cpp:141] Setting up inception_3b/pool
2016-09-18 01:54:01.729 STDERR [INFO] I0918 01:54:01.700085 14608 net.cpp:141] Setting up inception_3b/pool
2016-09-18 01:54:01.729 STDERR [INFO] I0918 01:54:01.700086 14610 net.cpp:148] Top shape: 10 256 28 28 (2007040)
2016-09-18 01:54:01.729 STDERR [INFO] I0918 01:54:01.700089 14610 net.cpp:156] Memory required for data: 318115840
2016-09-18 01:54:01.729 STDERR [INFO] I0918 01:54:01.700090 14608 net.cpp:148] Top shape: 10 256 28 28 (2007040)
2016-09-18 01:54:01.729 STDERR [INFO] I0918 01:54:01.700095 14610 layer_factory.hpp:77] Creating layer inception_3b/pool_proj
2016-09-18 01:54:01.729 STDERR [INFO] I0918 01:54:01.700098 14608 net.cpp:156] Memory required for data: 318115840
2016-09-18 01:54:01.729 STDERR [INFO] I0918 01:54:01.700101 14608 layer_factory.hpp:77] Creating layer inception_3b/pool_proj
2016-09-18 01:54:01.729 STDERR [INFO] I0918 01:54:01.700106 14610 net.cpp:91] Creating Layer inception_3b/pool_proj
2016-09-18 01:54:01.729 STDERR [INFO] I0918 01:54:01.700110 14610 net.cpp:425] inception_3b/pool_proj <- inception_3b/pool
2016-09-18 01:54:01.729 STDERR [INFO] I0918 01:54:01.700112 14608 net.cpp:91] Creating Layer inception_3b/pool_proj
2016-09-18 01:54:01.729 STDERR [INFO] I0918 01:54:01.700116 14608 net.cpp:425] inception_3b/pool_proj <- inception_3b/pool
2016-09-18 01:54:01.729 STDERR [INFO] I0918 01:54:01.700117 14610 net.cpp:399] inception_3b/pool_proj -> inception_3b/pool_proj
2016-09-18 01:54:01.729 STDERR [INFO] I0918 01:54:01.701686 14620 net.cpp:141] Setting up inception_3b/3x3
2016-09-18 01:54:01.729 STDERR [INFO] I0918 01:54:01.709921 14608 net.cpp:399] inception_3b/pool_proj -> inception_3b/pool_proj
2016-09-18 01:54:01.729 STDERR [INFO] I0918 01:54:01.709951 14620 net.cpp:148] Top shape: 10 192 28 28 (1505280)
2016-09-18 01:54:01.729 STDERR [INFO] I0918 01:54:01.709960 14620 net.cpp:156] Memory required for data: 296038400
2016-09-18 01:54:01.729 STDERR [INFO] I0918 01:54:01.709974 14620 layer_factory.hpp:77] Creating layer inception_3b/relu_3x3
2016-09-18 01:54:01.729 STDERR [INFO] I0918 01:54:01.710002 14620 net.cpp:91] Creating Layer inception_3b/relu_3x3
2016-09-18 01:54:01.729 STDERR [INFO] I0918 01:54:01.710011 14620 net.cpp:425] inception_3b/relu_3x3 <- inception_3b/3x3
2016-09-18 01:54:01.729 STDERR [INFO] I0918 01:54:01.710021 14620 net.cpp:386] inception_3b/relu_3x3 -> inception_3b/3x3 (in-place)
2016-09-18 01:54:01.729 STDERR [INFO] I0918 01:54:01.710032 14620 net.cpp:141] Setting up inception_3b/relu_3x3
2016-09-18 01:54:01.729 STDERR [INFO] I0918 01:54:01.710041 14620 net.cpp:148] Top shape: 10 192 28 28 (1505280)
2016-09-18 01:54:01.729 STDERR [INFO] I0918 01:54:01.710045 14620 net.cpp:156] Memory required for data: 302059520
2016-09-18 01:54:01.729 STDERR [INFO] I0918 01:54:01.710050 14620 layer_factory.hpp:77] Creating layer inception_3b/5x5_reduce
2016-09-18 01:54:01.729 STDERR [INFO] I0918 01:54:01.710067 14620 net.cpp:91] Creating Layer inception_3b/5x5_reduce
2016-09-18 01:54:01.729 STDERR [INFO] I0918 01:54:01.710072 14620 net.cpp:425] inception_3b/5x5_reduce <- inception_3a/output_inception_3a/output_0_split_2
2016-09-18 01:54:01.729 STDERR [INFO] I0918 01:54:01.710085 14620 net.cpp:399] inception_3b/5x5_reduce -> inception_3b/5x5_reduce
2016-09-18 01:54:01.729 STDERR [INFO] I0918 01:54:01.710132 14608 net.cpp:141] Setting up inception_3b/pool_proj
2016-09-18 01:54:01.730 STDERR [INFO] I0918 01:54:01.710132 14610 net.cpp:141] Setting up inception_3b/pool_proj
2016-09-18 01:54:01.730 STDERR [INFO] I0918 01:54:01.710145 14608 net.cpp:148] Top shape: 10 64 28 28 (501760)
2016-09-18 01:54:01.730 STDERR [INFO] I0918 01:54:01.710149 14610 net.cpp:148] Top shape: 10 64 28 28 (501760)
2016-09-18 01:54:01.730 STDERR [INFO] I0918 01:54:01.710150 14608 net.cpp:156] Memory required for data: 320122880
2016-09-18 01:54:01.730 STDERR [INFO] I0918 01:54:01.710155 14610 net.cpp:156] Memory required for data: 320122880
2016-09-18 01:54:01.730 STDERR [INFO] I0918 01:54:01.710161 14608 layer_factory.hpp:77] Creating layer inception_3b/relu_pool_proj
2016-09-18 01:54:01.730 STDERR [INFO] I0918 01:54:01.710163 14610 layer_factory.hpp:77] Creating layer inception_3b/relu_pool_proj
…
2016-09-18 01:54:01.730 STDERR [INFO] I0918 01:54:01.710240 14608 net.cpp:425] inception_3b/output <- inception_3b/3x3
2016-09-18 01:54:01.731 STDERR [INFO] I0918 01:54:01.710222 14620 net.cpp:141] Setting up inception_3b/5x5_reduce
2016-09-18 01:54:01.731 STDERR [INFO] I0918 01:54:01.710247 14608 net.cpp:425] inception_3b/output <- inception_3b/5x5
2016-09-18 01:54:01.731 STDERR [INFO] I0918 01:54:01.710248 14610 net.cpp:141] Setting up inception_3b/output
2016-09-18 01:54:01.731 STDERR [INFO] I0918 01:54:01.710254 14608 net.cpp:425] inception_3b/output <- inception_3b/pool_proj
2016-09-18 01:54:01.731 STDERR [INFO] I0918 01:54:01.710258 14610 net.cpp:148] Top shape: 10 480 28 28 (3763200)
2016-09-18 01:54:01.731 STDERR [INFO] I0918 01:54:01.710263 14608 net.cpp:399] inception_3b/output -> inception_3b/output
2016-09-18 01:54:01.731 STDERR [INFO] I0918 01:54:01.710264 14610 net.cpp:156] Memory required for data: 337182720
2016-09-18 01:54:01.731 STDERR [INFO] I0918 01:54:01.710253 14620 net.cpp:148] Top shape: 10 32 28 28 (250880)
2016-09-18 01:54:01.731 STDERR [INFO] I0918 01:54:01.710270 14610 layer_factory.hpp:77] Creating layer pool3/3x3_s2
2016-09-18 01:54:01.731 STDERR [INFO] I0918 01:54:01.710270 14608 net.cpp:141] Setting up inception_3b/output
2016-09-18 01:54:01.731 STDERR [INFO] I0918 01:54:01.710273 14620 net.cpp:156] Memory required for data: 303063040
2016-09-18 01:54:01.731 STDERR [INFO] I0918 01:54:01.710283 14608 net.cpp:148] Top shape: 10 480 28 28 (3763200)
2016-09-18 01:54:01.731 STDERR [INFO] I0918 01:54:01.710283 14610 net.cpp:91] Creating Layer pool3/3x3_s2
2016-09-18 01:54:01.731 STDERR [INFO] I0918 01:54:01.710290 14620 layer_factory.hpp:77] Creating layer inception_3b/relu_5x5_reduce
2016-09-18 01:54:01.731 STDERR [INFO] I0918 01:54:01.710294 14610 net.cpp:425] pool3/3x3_s2 <- inception_3b/output
2016-09-18 01:54:01.731 STDERR [INFO] I0918 01:54:01.710289 14608 net.cpp:156] Memory required for data: 337182720
2016-09-18 01:54:01.731 STDERR [INFO] I0918 01:54:01.710299 14610 net.cpp:399] pool3/3x3_s2 -> pool3/3x3_s2
2016-09-18 01:54:01.731 STDERR [INFO] I0918 01:54:01.710302 14620 net.cpp:91] Creating Layer inception_3b/relu_5x5_reduce
2016-09-18 01:54:01.731 STDERR [INFO] I0918 01:54:01.710304 14608 layer_factory.hpp:77] Creating layer pool3/3x3_s2
2016-09-18 01:54:01.731 STDERR [INFO] I0918 01:54:01.710311 14620 net.cpp:425] inception_3b/relu_5x5_reduce <- inception_3b/5x5_reduce
2016-09-18 01:54:01.731 STDERR [INFO] I0918 01:54:01.710315 14610 net.cpp:141] Setting up pool3/3x3_s2
2016-09-18 01:54:01.731 STDERR [INFO] I0918 01:54:01.710319 14608 net.cpp:91] Creating Layer pool3/3x3_s2
2016-09-18 01:54:01.731 STDERR [INFO] I0918 01:54:01.710321 14610 net.cpp:148] Top shape: 10 480 14 14 (940800)
2016-09-18 01:54:01.731 STDERR [INFO] I0918 01:54:01.710322 14608 net.cpp:425] pool3/3x3_s2 <- inception_3b/output
2016-09-18 01:54:01.731 STDERR [INFO] I0918 01:54:01.710325 14610 net.cpp:156] Memory required for data: 340945920
2016-09-18 01:54:01.731 STDERR [INFO] I0918 01:54:01.710325 14620 net.cpp:386] inception_3b/relu_5x5_reduce -> inception_3b/5x5_reduce (in-place)
2016-09-18 01:54:01.731 STDERR [INFO] I0918 01:54:01.710332 14608 net.cpp:399] pool3/3x3_s2 -> pool3/3x3_s2
2016-09-18 01:54:01.731 STDERR [INFO] I0918 01:54:01.710331 14610 layer_factory.hpp:77] Creating layer pool3/3x3_s2_pool3/3x3_s2_0_split
2016-09-18 01:54:01.731 STDERR [INFO] I0918 01:54:01.710342 14620 net.cpp:141] Setting up inception_3b/relu_5x5_reduce
2016-09-18 01:54:01.731 STDERR [INFO] I0918 01:54:01.710347 14608 net.cpp:141] Setting up pool3/3x3_s2
2016-09-18 01:54:01.731 STDERR [INFO] I0918 01:54:01.710345 14610 net.cpp:91] Creating Layer pool3/3x3_s2_pool3/3x3_s2_0_split
2016-09-18 01:54:01.731 STDERR [INFO] I0918 01:54:01.710353 14620 net.cpp:148] Top shape: 10 32 28 28 (250880)
2016-09-18 01:54:01.731 STDERR [INFO] I0918 01:54:01.710356 14608 net.cpp:148] Top shape: 10 480 14 14 (940800)
2016-09-18 01:54:01.731 STDERR [INFO] I0918 01:54:01.710358 14610 net.cpp:425] pool3/3x3_s2_pool3/3x3_s2_0_split <- pool3/3x3_s2
2016-09-18 01:54:01.731 STDERR [INFO] I0918 01:54:01.710361 14608 net.cpp:156] Memory required for data: 340945920
2016-09-18 01:54:01.731 STDERR [INFO] I0918 01:54:01.710361 14620 net.cpp:156] Memory required for data: 304066560
2016-09-18 01:54:01.731 STDERR [INFO] I0918 01:54:01.710367 14608 layer_factory.hpp:77] Creating layer pool3/3x3_s2_pool3/3x3_s2_0_split
…
2016-09-18 01:54:01.732 STDERR [INFO] I0918 01:54:01.710394 14610 net.cpp:399] pool3/3x3_s2_pool3/3x3_s2_0_split -> pool3/3x3_s2_pool3/3x3_s2_0_split_3
2016-09-18 01:54:01.732 STDERR [INFO] I0918 01:54:01.710400 14620 net.cpp:425] inception_3b/5x5 <- inception_3b/5x5_reduce
2016-09-18 01:54:01.732 STDERR [INFO] I0918 01:54:01.710407 14608 net.cpp:399] pool3/3x3_s2_pool3/3x3_s2_0_split -> pool3/3x3_s2_pool3/3x3_s2_0_split_2
2016-09-18 01:54:01.732 STDERR [INFO] I0918 01:54:01.710407 14610 net.cpp:141] Setting up pool3/3x3_s2_pool3/3x3_s2_0_split
2016-09-18 01:54:01.732 STDERR [INFO] I0918 01:54:01.710410 14620 net.cpp:399] inception_3b/5x5 -> inception_3b/5x5
2016-09-18 01:54:01.732 STDERR [INFO] I0918 01:54:01.712780 14610 net.cpp:148] Top shape: 10 480 14 14 (940800)
2016-09-18 01:54:01.732 STDERR [INFO] I0918 01:54:01.712790 14610 net.cpp:148] Top shape: 10 480 14 14 (940800)
2016-09-18 01:54:01.732 STDERR [INFO] I0918 01:54:01.712795 14610 net.cpp:148] Top shape: 10 480 14 14 (940800)
2016-09-18 01:54:01.732 STDERR [INFO] I0918 01:54:01.712800 14610 net.cpp:148] Top shape: 10 480 14 14 (940800)
2016-09-18 01:54:01.732 STDERR [INFO] I0918 01:54:01.710412 14608 net.cpp:399] pool3/3x3_s2_pool3/3x3_s2_0_split -> pool3/3x3_s2_pool3/3x3_s2_0_split_3
2016-09-18 01:54:01.732 STDERR [INFO] I0918 01:54:01.712805 14610 net.cpp:156] Memory required for data: 355998720
2016-09-18 01:54:01.732 STDERR [INFO] I0918 01:54:01.712824 14610 layer_factory.hpp:77] Creating layer inception_4a/1x1
2016-09-18 01:54:01.732 STDERR [INFO] I0918 01:54:01.712832 14608 net.cpp:141] Setting up pool3/3x3_s2_pool3/3x3_s2_0_split
2016-09-18 01:54:01.732 STDERR [INFO] I0918 01:54:01.712842 14608 net.cpp:148] Top shape: 10 480 14 14 (940800)
2016-09-18 01:54:01.732 STDERR [INFO] I0918 01:54:01.712843 14610 net.cpp:91] Creating Layer inception_4a/1x1
2016-09-18 01:54:01.732 STDERR [INFO] I0918 01:54:01.712847 14608 net.cpp:148] Top shape: 10 480 14 14 (940800)
2016-09-18 01:54:01.732 STDERR [INFO] I0918 01:54:01.712849 14610 net.cpp:425] inception_4a/1x1 <- pool3/3x3_s2_pool3/3x3_s2_0_split_0
2016-09-18 01:54:01.732 STDERR [INFO] I0918 01:54:01.712852 14608 net.cpp:148] Top shape: 10 480 14 14 (940800)
2016-09-18 01:54:01.732 STDERR [INFO] I0918 01:54:01.712857 14608 net.cpp:148] Top shape: 10 480 14 14 (940800)
2016-09-18 01:54:01.732 STDERR [INFO] I0918 01:54:01.712857 14610 net.cpp:399] inception_4a/1x1 -> inception_4a/1x1
2016-09-18 01:54:01.732 STDERR [INFO] I0918 01:54:01.712859 14608 net.cpp:156] Memory required for data: 355998720
2016-09-18 01:54:01.732 STDERR [INFO] I0918 01:54:01.712863 14608 layer_factory.hpp:77] Creating layer inception_4a/1x1
2016-09-18 01:54:01.732 STDERR [INFO] I0918 01:54:01.712878 14608 net.cpp:91] Creating Layer inception_4a/1x1
2016-09-18 01:54:01.732 STDERR [INFO] I0918 01:54:01.712882 14608 net.cpp:425] inception_4a/1x1 <- pool3/3x3_s2_pool3/3x3_s2_0_split_0
2016-09-18 01:54:01.732 STDERR [INFO] I0918 01:54:01.712918 14608 net.cpp:399] inception_4a/1x1 -> inception_4a/1x1
2016-09-18 01:54:01.732 STDERR [INFO] I0918 01:54:01.713702 14610 net.cpp:141] Setting up inception_4a/1x1
2016-09-18 01:54:01.732 STDERR [INFO] I0918 01:54:01.713711 14610 net.cpp:148] Top shape: 10 192 14 14 (376320)
2016-09-18 01:54:01.732 STDERR [INFO] I0918 01:54:01.713713 14610 net.cpp:156] Memory required for data: 357504000
2016-09-18 01:54:01.732 STDERR [INFO] I0918 01:54:01.713721 14610 layer_factory.hpp:77] Creating layer inception_4a/relu_1x1
2016-09-18 01:54:01.732 STDERR [INFO] I0918 01:54:01.713728 14610 net.cpp:91] Creating Layer inception_4a/relu_1x1
2016-09-18 01:54:01.732 STDERR [INFO] I0918 01:54:01.713732 14610 net.cpp:425] inception_4a/relu_1x1 <- inception_4a/1x1
2016-09-18 01:54:01.732 STDERR [INFO] I0918 01:54:01.713737 14610 net.cpp:386] inception_4a/relu_1x1 -> inception_4a/1x1 (in-place)
2016-09-18 01:54:01.732 STDERR [INFO] I0918 01:54:01.713739 14608 net.cpp:141] Setting up inception_4a/1x1
2016-09-18 01:54:01.732 STDERR [INFO] I0918 01:54:01.713743 14610 net.cpp:141] Setting up inception_4a/relu_1x1
2016-09-18 01:54:01.732 STDERR [INFO] I0918 01:54:01.713747 14608 net.cpp:148] Top shape: 10 192 14 14 (376320)
2016-09-18 01:54:01.732 STDERR [INFO] I0918 01:54:01.713748 14610 net.cpp:148] Top shape: 10 192 14 14 (376320)
2016-09-18 01:54:01.732 STDERR [INFO] I0918 01:54:01.713754 14608 net.cpp:156] Memory required for data: 357504000
2016-09-18 01:54:01.732 STDERR [INFO] I0918 01:54:01.713762 14610 net.cpp:156] Memory required for data: 359009280
2016-09-18 01:54:01.732 STDERR [INFO] I0918 01:54:01.713769 14610 layer_factory.hpp:77] Creating layer inception_4a/3x3_reduce
2016-09-18 01:54:01.733 STDERR [INFO] I0918 01:54:01.713770 14608 layer_factory.hpp:77] Creating layer inception_4a/relu_1x1
2016-09-18 01:54:01.733 STDERR [INFO] I0918 01:54:01.713779 14608 net.cpp:91] Creating Layer inception_4a/relu_1x1
2016-09-18 01:54:01.733 STDERR [INFO] I0918 01:54:01.713776 14620 net.cpp:141] Setting up inception_3b/5x5
2016-09-18 01:54:01.733 STDERR [INFO] I0918 01:54:01.713784 14608 net.cpp:425] inception_4a/relu_1x1 <- inception_4a/1x1
2016-09-18 01:54:01.733 STDERR [INFO] I0918 01:54:01.713781 14610 net.cpp:91] Creating Layer inception_4a/3x3_reduce
2016-09-18 01:54:01.733 STDERR [INFO] I0918 01:54:01.713790 14608 net.cpp:386] inception_4a/relu_1x1 -> inception_4a/1x1 (in-place)
2016-09-18 01:54:01.733 STDERR [INFO] I0918 01:54:01.713795 14610 net.cpp:425] inception_4a/3x3_reduce <- pool3/3x3_s2_pool3/3x3_s2_0_split_1
2016-09-18 01:54:01.733 STDERR [INFO] I0918 01:54:01.713798 14608 net.cpp:141] Setting up inception_4a/relu_1x1
2016-09-18 01:54:01.733 STDERR [INFO] I0918 01:54:01.713794 14620 net.cpp:148] Top shape: 10 96 28 28 (752640)
2016-09-18 01:54:01.733 STDERR [INFO] I0918 01:54:01.713802 14608 net.cpp:148] Top shape: 10 192 14 14 (376320)
2016-09-18 01:54:01.733 STDERR [INFO] I0918 01:54:01.713804 14610 net.cpp:399] inception_4a/3x3_reduce -> inception_4a/3x3_reduce
2016-09-18 01:54:01.733 STDERR [INFO] I0918 01:54:01.713805 14608 net.cpp:156] Memory required for data: 359009280
2016-09-18 01:54:01.733 STDERR [INFO] I0918 01:54:01.713810 14608 layer_factory.hpp:77] Creating layer inception_4a/3x3_reduce
2016-09-18 01:54:01.733 STDERR [INFO] I0918 01:54:01.713804 14620 net.cpp:156] Memory required for data: 307077120
…
2016-09-18 01:54:01.734 STDERR [INFO] I0918 01:54:01.715421 14620 net.cpp:425] inception_3b/output <- inception_3b/5x5
2016-09-18 01:54:01.734 STDERR [INFO] I0918 01:54:01.715436 14620 net.cpp:425] inception_3b/output <- inception_3b/pool_proj
2016-09-18 01:54:01.734 STDERR [INFO] I0918 01:54:01.715440 14608 net.cpp:386] inception_4a/relu_3x3_reduce -> inception_4a/3x3_reduce (in-place)
2016-09-18 01:54:01.734 STDERR [INFO] I0918 01:54:01.715445 14620 net.cpp:399] inception_3b/output -> inception_3b/output
2016-09-18 01:54:01.734 STDERR [INFO] I0918 01:54:01.715453 14608 net.cpp:141] Setting up inception_4a/relu_3x3_reduce
2016-09-18 01:54:01.734 STDERR [INFO] I0918 01:54:01.715459 14608 net.cpp:148] Top shape: 10 96 14 14 (188160)
2016-09-18 01:54:01.734 STDERR [INFO] I0918 01:54:01.715458 14620 net.cpp:141] Setting up inception_3b/output
2016-09-18 01:54:01.734 STDERR [INFO] I0918 01:54:01.715463 14608 net.cpp:156] Memory required for data: 360514560
2016-09-18 01:54:01.734 STDERR [INFO] I0918 01:54:01.715467 14608 layer_factory.hpp:77] Creating layer inception_4a/3x3
2016-09-18 01:54:01.734 STDERR [INFO] I0918 01:54:01.715469 14620 net.cpp:148] Top shape: 10 480 28 28 (3763200)
2016-09-18 01:54:01.734 STDERR [INFO] I0918 01:54:01.715477 14620 net.cpp:156] Memory required for data: 337182720
2016-09-18 01:54:01.734 STDERR [INFO] I0918 01:54:01.715481 14608 net.cpp:91] Creating Layer inception_4a/3x3
2016-09-18 01:54:01.734 STDERR [INFO] I0918 01:54:01.715483 14620 layer_factory.hpp:77] Creating layer pool3/3x3_s2
2016-09-18 01:54:01.735 STDERR [INFO] I0918 01:54:01.715487 14608 net.cpp:425] inception_4a/3x3 <- inception_4a/3x3_reduce
2016-09-18 01:54:01.735 STDERR [INFO] I0918 01:54:01.715492 14620 net.cpp:91] Creating Layer pool3/3x3_s2
2016-09-18 01:54:01.735 STDERR [INFO] I0918 01:54:01.715498 14620 net.cpp:425] pool3/3x3_s2 <- inception_3b/output
2016-09-18 01:54:01.735 STDERR [INFO] I0918 01:54:01.715504 14608 net.cpp:399] inception_4a/3x3 -> inception_4a/3x3
2016-09-18 01:54:01.735 STDERR [INFO] I0918 01:54:01.715507 14620 net.cpp:399] pool3/3x3_s2 -> pool3/3x3_s2
2016-09-18 01:54:01.735 STDERR [INFO] I0918 01:54:01.715538 14620 net.cpp:141] Setting up pool3/3x3_s2
2016-09-18 01:54:01.735 STDERR [INFO] I0918 01:54:01.715548 14620 net.cpp:148] Top shape: 10 480 14 14 (940800)
2016-09-18 01:54:01.735 STDERR [INFO] I0918 01:54:01.715553 14620 net.cpp:156] Memory required for data: 340945920
2016-09-18 01:54:01.735 STDERR [INFO] I0918 01:54:01.715558 14620 layer_factory.hpp:77] Creating layer pool3/3x3_s2_pool3/3x3_s2_0_split
2016-09-18 01:54:01.735 STDERR [INFO] I0918 01:54:01.715566 14620 net.cpp:91] Creating Layer pool3/3x3_s2_pool3/3x3_s2_0_split
2016-09-18 01:54:01.735 STDERR [INFO] I0918 01:54:01.715571 14620 net.cpp:425] pool3/3x3_s2_pool3/3x3_s2_0_split <- pool3/3x3_s2
2016-09-18 01:54:01.735 STDERR [INFO] I0918 01:54:01.715582 14620 net.cpp:399] pool3/3x3_s2_pool3/3x3_s2_0_split -> pool3/3x3_s2_pool3/3x3_s2_0_split_0
2016-09-18 01:54:01.735 STDERR [INFO] I0918 01:54:01.715591 14620 net.cpp:399] pool3/3x3_s2_pool3/3x3_s2_0_split -> pool3/3x3_s2_pool3/3x3_s2_0_split_1
2016-09-18 01:54:01.735 STDERR [INFO] I0918 01:54:01.715600 14620 net.cpp:399] pool3/3x3_s2_pool3/3x3_s2_0_split -> pool3/3x3_s2_pool3/3x3_s2_0_split_2
2016-09-18 01:54:01.735 STDERR [INFO] I0918 01:54:01.715608 14620 net.cpp:399] pool3/3x3_s2_pool3/3x3_s2_0_split -> pool3/3x3_s2_pool3/3x3_s2_0_split_3
2016-09-18 01:54:01.735 STDERR [INFO] I0918 01:54:01.715620 14620 net.cpp:141] Setting up pool3/3x3_s2_pool3/3x3_s2_0_split
2016-09-18 01:54:01.735 STDERR [INFO] I0918 01:54:01.715626 14620 net.cpp:148] Top shape: 10 480 14 14 (940800)
2016-09-18 01:54:01.735 STDERR [INFO] I0918 01:54:01.715633 14620 net.cpp:148] Top shape: 10 480 14 14 (940800)
2016-09-18 01:54:01.735 STDERR [INFO] I0918 01:54:01.715641 14620 net.cpp:148] Top shape: 10 480 14 14 (940800)
2016-09-18 01:54:01.735 STDERR [INFO] I0918 01:54:01.715647 14620 net.cpp:148] Top shape: 10 480 14 14 (940800)
2016-09-18 01:54:01.735 STDERR [INFO] I0918 01:54:01.715652 14620 net.cpp:156] Memory required for data: 355998720
2016-09-18 01:54:01.735 STDERR [INFO] I0918 01:54:01.715657 14620 layer_factory.hpp:77] Creating layer inception_4a/1x1
2016-09-18 01:54:01.735 STDERR [INFO] I0918 01:54:01.715687 14620 net.cpp:91] Creating Layer inception_4a/1x1
2016-09-18 01:54:01.735 STDERR [INFO] I0918 01:54:01.715693 14620 net.cpp:425] inception_4a/1x1 <- pool3/3x3_s2_pool3/3x3_s2_0_split_0
2016-09-18 01:54:01.735 STDERR [INFO] I0918 01:54:01.715703 14620 net.cpp:399] inception_4a/1x1 -> inception_4a/1x1
2016-09-18 01:54:01.735 STDERR [INFO] I0918 01:54:01.716816 14620 net.cpp:141] Setting up inception_4a/1x1
2016-09-18 01:54:01.735 STDERR [INFO] I0918 01:54:01.716830 14620 net.cpp:148] Top shape: 10 192 14 14 (376320)
2016-09-18 01:54:01.735 STDERR [INFO] I0918 01:54:01.716836 14620 net.cpp:156] Memory required for data: 357504000
2016-09-18 01:54:01.735 STDERR [INFO] I0918 01:54:01.716847 14620 layer_factory.hpp:77] Creating layer inception_4a/relu_1x1
2016-09-18 01:54:01.735 STDERR [INFO] I0918 01:54:01.716859 14620 net.cpp:91] Creating Layer inception_4a/relu_1x1
2016-09-18 01:54:01.735 STDERR [INFO] I0918 01:54:01.716866 14620 net.cpp:425] inception_4a/relu_1x1 <- inception_4a/1x1
2016-09-18 01:54:01.735 STDERR [INFO] I0918 01:54:01.716874 14620 net.cpp:386] inception_4a/relu_1x1 -> inception_4a/1x1 (in-place)
2016-09-18 01:54:01.735 STDERR [INFO] I0918 01:54:01.716884 14620 net.cpp:141] Setting up inception_4a/relu_1x1
2016-09-18 01:54:01.735 STDERR [INFO] I0918 01:54:01.716892 14620 net.cpp:148] Top shape: 10 192 14 14 (376320)
2016-09-18 01:54:01.735 STDERR [INFO] I0918 01:54:01.716897 14620 net.cpp:156] Memory required for data: 359009280
2016-09-18 01:54:01.735 STDERR [INFO] I0918 01:54:01.716903 14620 layer_factory.hpp:77] Creating layer inception_4a/3x3_reduce
2016-09-18 01:54:01.735 STDERR [INFO] I0918 01:54:01.716918 14620 net.cpp:91] Creating Layer inception_4a/3x3_reduce
2016-09-18 01:54:01.735 STDERR [INFO] I0918 01:54:01.716924 14620 net.cpp:425] inception_4a/3x3_reduce <- pool3/3x3_s2_pool3/3x3_s2_0_split_1
2016-09-18 01:54:01.735 STDERR [INFO] I0918 01:54:01.716938 14620 net.cpp:399] inception_4a/3x3_reduce -> inception_4a/3x3_reduce
2016-09-18 01:54:01.735 STDERR [INFO] I0918 01:54:01.717030 14610 net.cpp:141] Setting up inception_4a/3x3
2016-09-18 01:54:01.735 STDERR [INFO] I0918 01:54:01.717041 14610 net.cpp:148] Top shape: 10 208 14 14 (407680)
2016-09-18 01:54:01.735 STDERR [INFO] I0918 01:54:01.717046 14610 net.cpp:156] Memory required for data: 362145280
2016-09-18 01:54:01.735 STDERR [INFO] I0918 01:54:01.717056 14610 layer_factory.hpp:77] Creating layer inception_4a/relu_3x3
2016-09-18 01:54:01.735 STDERR [INFO] I0918 01:54:01.717429 14610 net.cpp:91] Creating Layer inception_4a/relu_3x3
2016-09-18 01:54:01.736 STDERR [INFO] I0918 01:54:01.717432 14608 net.cpp:141] Setting up inception_4a/3x3
2016-09-18 01:54:01.736 STDERR [INFO] I0918 01:54:01.717448 14610 net.cpp:425] inception_4a/relu_3x3 <- inception_4a/3x3
2016-09-18 01:54:01.736 STDERR [INFO] I0918 01:54:01.717452 14608 net.cpp:148] Top shape: 10 208 14 14 (407680)
2016-09-18 01:54:01.736 STDERR [INFO] I0918 01:54:01.717455 14608 net.cpp:156] Memory required for data: 362145280
2016-09-18 01:54:01.736 STDERR [INFO] I0918 01:54:01.717460 14610 net.cpp:386] inception_4a/relu_3x3 -> inception_4a/3x3 (in-place)
2016-09-18 01:54:01.736 STDERR [INFO] I0918 01:54:01.717463 14608 layer_factory.hpp:77] Creating layer inception_4a/relu_3x3
2016-09-18 01:54:01.736 STDERR [INFO] I0918 01:54:01.717470 14608 net.cpp:91] Creating Layer inception_4a/relu_3x3
2016-09-18 01:54:01.736 STDERR [INFO] I0918 01:54:01.717471 14610 net.cpp:141] Setting up inception_4a/relu_3x3
2016-09-18 01:54:01.736 STDERR [INFO] I0918 01:54:01.717474 14608 net.cpp:425] inception_4a/relu_3x3 <- inception_4a/3x3
2016-09-18 01:54:01.736 STDERR [INFO] I0918 01:54:01.717481 14610 net.cpp:148] Top shape: 10 208 14 14 (407680)
2016-09-18 01:54:01.736 STDERR [INFO] I0918 01:54:01.717483 14608 net.cpp:386] inception_4a/relu_3x3 -> inception_4a/3x3 (in-place)
2016-09-18 01:54:01.736 STDERR [INFO] I0918 01:54:01.717489 14610 net.cpp:156] Memory required for data: 363776000
2016-09-18 01:54:01.736 STDERR [INFO] I0918 01:54:01.717494 14610 layer_factory.hpp:77] Creating layer inception_4a/5x5_reduce
2016-09-18 01:54:01.736 STDERR [INFO] I0918 01:54:01.717495 14608 net.cpp:141] Setting up inception_4a/relu_3x3
2016-09-18 01:54:01.736 STDERR [INFO] I0918 01:54:01.717500 14608 net.cpp:148] Top shape: 10 208 14 14 (407680)
2016-09-18 01:54:01.736 STDERR [INFO] I0918 01:54:01.717504 14608 net.cpp:156] Memory required for data: 363776000
2016-09-18 01:54:01.736 STDERR [INFO] I0918 01:54:01.717506 14608 layer_factory.hpp:77] Creating layer inception_4a/5x5_reduce
2016-09-18 01:54:01.736 STDERR [INFO] I0918 01:54:01.717507 14610 net.cpp:91] Creating Layer inception_4a/5x5_reduce
2016-09-18 01:54:01.736 STDERR [INFO] I0918 01:54:01.717526 14608 net.cpp:91] Creating Layer inception_4a/5x5_reduce
2016-09-18 01:54:01.736 STDERR [INFO] I0918 01:54:01.717528 14610 net.cpp:425] inception_4a/5x5_reduce <- pool3/3x3_s2_pool3/3x3_s2_0_split_2
2016-09-18 01:54:01.736 STDERR [INFO] I0918 01:54:01.717531 14608 net.cpp:425] inception_4a/5x5_reduce <- pool3/3x3_s2_pool3/3x3_s2_0_split_2
2016-09-18 01:54:01.736 STDERR [INFO] I0918 01:54:01.717543 14608 net.cpp:399] inception_4a/5x5_reduce -> inception_4a/5x5_reduce
2016-09-18 01:54:01.736 STDERR [INFO] I0918 01:54:01.717547 14610 net.cpp:399] inception_4a/5x5_reduce -> inception_4a/5x5_reduce
2016-09-18 01:54:01.736 STDERR [INFO] I0918 01:54:01.717633 14608 net.cpp:141] Setting up inception_4a/5x5_reduce
2016-09-18 01:54:01.736 STDERR [INFO] I0918 01:54:01.717638 14608 net.cpp:148] Top shape: 10 16 14 14 (31360)
2016-09-18 01:54:01.736 STDERR [INFO] I0918 01:54:01.717641 14608 net.cpp:156] Memory required for data: 363901440
2016-09-18 01:54:01.736 STDERR [INFO] I0918 01:54:01.717648 14608 layer_factory.hpp:77] Creating layer inception_4a/relu_5x5_reduce
2016-09-18 01:54:01.736 STDERR [INFO] I0918 01:54:01.717655 14608 net.cpp:91] Creating Layer inception_4a/relu_5x5_reduce
2016-09-18 01:54:01.736 STDERR [INFO] I0918 01:54:01.717659 14608 net.cpp:425] inception_4a/relu_5x5_reduce <- inception_4a/5x5_reduce
2016-09-18 01:54:01.736 STDERR [INFO] I0918 01:54:01.717664 14608 net.cpp:386] inception_4a/relu_5x5_reduce -> inception_4a/5x5_reduce (in-place)
2016-09-18 01:54:01.736 STDERR [INFO] I0918 01:54:01.717669 14608 net.cpp:141] Setting up inception_4a/relu_5x5_reduce
2016-09-18 01:54:01.736 STDERR [INFO] I0918 01:54:01.717674 14608 net.cpp:148] Top shape: 10 16 14 14 (31360)
2016-09-18 01:54:01.736 STDERR [INFO] I0918 01:54:01.717670 14610 net.cpp:141] Setting up inception_4a/5x5_reduce
2016-09-18 01:54:01.736 STDERR [INFO] I0918 01:54:01.717679 14608 net.cpp:156] Memory required for data: 364026880
2016-09-18 01:54:01.736 STDERR [INFO] I0918 01:54:01.717690 14608 layer_factory.hpp:77] Creating layer inception_4a/5x5
2016-09-18 01:54:01.736 STDERR [INFO] I0918 01:54:01.717690 14610 net.cpp:148] Top shape: 10 16 14 14 (31360)
2016-09-18 01:54:01.736 STDERR [INFO] I0918 01:54:01.717696 14610 net.cpp:156] Memory required for data: 363901440
2016-09-18 01:54:01.736 STDERR [INFO] I0918 01:54:01.717702 14608 net.cpp:91] Creating Layer inception_4a/5x5
2016-09-18 01:54:01.737 STDERR [INFO] I0918 01:54:01.717809 14608 net.cpp:425] inception_4a/5x5 <- inception_4a/5x5_reduce
2016-09-18 01:54:01.737 STDERR [INFO] I0918 01:54:01.717814 14610 layer_factory.hpp:77] Creating layer inception_4a/relu_5x5_reduce
2016-09-18 01:54:01.737 STDERR [INFO] I0918 01:54:01.717818 14608 net.cpp:399] inception_4a/5x5 -> inception_4a/5x5
2016-09-18 01:54:01.737 STDERR [INFO] I0918 01:54:01.717829 14610 net.cpp:91] Creating Layer inception_4a/relu_5x5_reduce
2016-09-18 01:54:01.737 STDERR [INFO] I0918 01:54:01.717836 14610 net.cpp:425] inception_4a/relu_5x5_reduce <- inception_4a/5x5_reduce
2016-09-18 01:54:01.737 STDERR [INFO] I0918 01:54:01.717844 14610 net.cpp:386] inception_4a/relu_5x5_reduce -> inception_4a/5x5_reduce (in-place)
2016-09-18 01:54:01.737 STDERR [INFO] I0918 01:54:01.717854 14610 net.cpp:141] Setting up inception_4a/relu_5x5_reduce
2016-09-18 01:54:01.737 STDERR [INFO] I0918 01:54:01.717860 14610 net.cpp:148] Top shape: 10 16 14 14 (31360)
2016-09-18 01:54:01.737 STDERR [INFO] I0918 01:54:01.717864 14610 net.cpp:156] Memory required for data: 364026880
2016-09-18 01:54:01.737 STDERR [INFO] I0918 01:54:01.717870 14610 layer_factory.hpp:77] Creating layer inception_4a/5x5
2016-09-18 01:54:01.737 STDERR [INFO] I0918 01:54:01.717888 14610 net.cpp:91] Creating Layer inception_4a/5x5
2016-09-18 01:54:01.737 STDERR [INFO] I0918 01:54:01.717895 14610 net.cpp:425] inception_4a/5x5 <- inception_4a/5x5_reduce
2016-09-18 01:54:01.737 STDERR [INFO] I0918 01:54:01.717936 14620 net.cpp:141] Setting up inception_4a/3x3_reduce
2016-09-18 01:54:01.737 STDERR [INFO] I0918 01:54:01.717942 14610 net.cpp:399] inception_4a/5x5 -> inception_4a/5x5
2016-09-18 01:54:01.737 STDERR [INFO] I0918 01:54:01.717950 14620 net.cpp:148] Top shape: 10 96 14 14 (188160)
2016-09-18 01:54:01.737 STDERR [INFO] I0918 01:54:01.717957 14620 net.cpp:156] Memory required for data: 359761920
2016-09-18 01:54:01.737 STDERR [INFO] I0918 01:54:01.717983 14620 layer_factory.hpp:77] Creating layer inception_4a/relu_3x3_reduce
2016-09-18 01:54:01.737 STDERR [INFO] I0918 01:54:01.717993 14620 net.cpp:91] Creating Layer inception_4a/relu_3x3_reduce
2016-09-18 01:54:01.737 STDERR [INFO] I0918 01:54:01.717999 14620 net.cpp:425] inception_4a/relu_3x3_reduce <- inception_4a/3x3_reduce
2016-09-18 01:54:01.737 STDERR [INFO] I0918 01:54:01.718037 14608 net.cpp:141] Setting up inception_4a/5x5
2016-09-18 01:54:01.737 STDERR [INFO] I0918 01:54:01.718037 14620 net.cpp:386] inception_4a/relu_3x3_reduce -> inception_4a/3x3_reduce (in-place)
2016-09-18 01:54:01.737 STDERR [INFO] I0918 01:54:01.718046 14608 net.cpp:148] Top shape: 10 48 14 14 (94080)
2016-09-18 01:54:01.737 STDERR [INFO] I0918 01:54:01.718050 14608 net.cpp:156] Memory required for data: 364403200
2016-09-18 01:54:01.737 STDERR [INFO] I0918 01:54:01.718053 14620 net.cpp:141] Setting up inception_4a/relu_3x3_reduce
2016-09-18 01:54:01.737 STDERR [INFO] I0918 01:54:01.718057 14608 layer_factory.hpp:77] Creating layer inception_4a/relu_5x5
2016-09-18 01:54:01.737 STDERR [INFO] I0918 01:54:01.718063 14620 net.cpp:148] Top shape: 10 96 14 14 (188160)
2016-09-18 01:54:01.737 STDERR [INFO] I0918 01:54:01.718065 14608 net.cpp:91] Creating Layer inception_4a/relu_5x5
2016-09-18 01:54:01.737 STDERR [INFO] I0918 01:54:01.718072 14620 net.cpp:156] Memory required for data: 360514560
2016-09-18 01:54:01.737 STDERR [INFO] I0918 01:54:01.718076 14608 net.cpp:425] inception_4a/relu_5x5 <- inception_4a/5x5
2016-09-18 01:54:01.737 STDERR [INFO] I0918 01:54:01.718078 14620 layer_factory.hpp:77] Creating layer inception_4a/3x3
2016-09-18 01:54:01.737 STDERR [INFO] I0918 01:54:01.718083 14608 net.cpp:386] inception_4a/relu_5x5 -> inception_4a/5x5 (in-place)
2016-09-18 01:54:01.737 STDERR [INFO] I0918 01:54:01.718091 14608 net.cpp:141] Setting up inception_4a/relu_5x5
2016-09-18 01:54:01.737 STDERR [INFO] I0918 01:54:01.718096 14608 net.cpp:148] Top shape: 10 48 14 14 (94080)
2016-09-18 01:54:01.737 STDERR [INFO] I0918 01:54:01.718097 14608 net.cpp:156] Memory required for data: 364779520
2016-09-18 01:54:01.737 STDERR [INFO] I0918 01:54:01.718104 14608 layer_factory.hpp:77] Creating layer inception_4a/pool
2016-09-18 01:54:01.737 STDERR [INFO] I0918 01:54:01.718097 14620 net.cpp:91] Creating Layer inception_4a/3x3
2016-09-18 01:54:01.737 STDERR [INFO] I0918 01:54:01.718116 14608 net.cpp:91] Creating Layer inception_4a/pool
2016-09-18 01:54:01.737 STDERR [INFO] I0918 01:54:01.718116 14620 net.cpp:425] inception_4a/3x3 <- inception_4a/3x3_reduce
2016-09-18 01:54:01.737 STDERR [INFO] I0918 01:54:01.718122 14608 net.cpp:425] inception_4a/pool <- pool3/3x3_s2_pool3/3x3_s2_0_split_3
2016-09-18 01:54:01.738 STDERR [INFO] I0918 01:54:01.718128 14608 net.cpp:399] inception_4a/pool -> inception_4a/pool
2016-09-18 01:54:01.738 STDERR [INFO] I0918 01:54:01.718130 14620 net.cpp:399] inception_4a/3x3 -> inception_4a/3x3
2016-09-18 01:54:01.738 STDERR [INFO] I0918 01:54:01.718137 14608 net.cpp:141] Setting up inception_4a/pool
2016-09-18 01:54:01.738 STDERR [INFO] I0918 01:54:01.718142 14608 net.cpp:148] Top shape: 10 480 14 14 (940800)
2016-09-18 01:54:01.738 STDERR [INFO] I0918 01:54:01.718144 14608 net.cpp:156] Memory required for data: 368542720
2016-09-18 01:54:01.738 STDERR [INFO] I0918 01:54:01.718147 14608 layer_factory.hpp:77] Creating layer inception_4a/pool_proj
2016-09-18 01:54:01.738 STDERR [INFO] I0918 01:54:01.718156 14610 net.cpp:141] Setting up inception_4a/5x5
2016-09-18 01:54:01.738 STDERR [INFO] I0918 01:54:01.718163 14610 net.cpp:148] Top shape: 10 48 14 14 (94080)
2016-09-18 01:54:01.738 STDERR [INFO] I0918 01:54:01.718166 14610 net.cpp:156] Memory required for data: 364403200
2016-09-18 01:54:01.738 STDERR [INFO] I0918 01:54:01.718173 14610 layer_factory.hpp:77] Creating layer inception_4a/relu_5x5
2016-09-18 01:54:01.738 STDERR [INFO] I0918 01:54:01.718176 14608 net.cpp:91] Creating Layer inception_4a/pool_proj
2016-09-18 01:54:01.738 STDERR [INFO] I0918 01:54:01.718183 14608 net.cpp:425] inception_4a/pool_proj <- inception_4a/pool
2016-09-18 01:54:01.738 STDERR [INFO] I0918 01:54:01.718184 14610 net.cpp:91] Creating Layer inception_4a/relu_5x5
2016-09-18 01:54:01.738 STDERR [INFO] I0918 01:54:01.718189 14608 net.cpp:399] inception_4a/pool_proj -> inception_4a/pool_proj
2016-09-18 01:54:01.738 STDERR [INFO] I0918 01:54:01.718189 14610 net.cpp:425] inception_4a/relu_5x5 <- inception_4a/5x5
2016-09-18 01:54:01.738 STDERR [INFO] I0918 01:54:01.718195 14610 net.cpp:386] inception_4a/relu_5x5 -> inception_4a/5x5 (in-place)
2016-09-18 01:54:01.738 STDERR [INFO] I0918 01:54:01.718201 14610 net.cpp:141] Setting up inception_4a/relu_5x5
2016-09-18 01:54:01.738 STDERR [INFO] I0918 01:54:01.718206 14610 net.cpp:148] Top shape: 10 48 14 14 (94080)
2016-09-18 01:54:01.738 STDERR [INFO] I0918 01:54:01.718209 14610 net.cpp:156] Memory required for data: 364779520
2016-09-18 01:54:01.738 STDERR [INFO] I0918 01:54:01.718212 14610 layer_factory.hpp:77] Creating layer inception_4a/pool
2016-09-18 01:54:01.738 STDERR [INFO] I0918 01:54:01.718220 14610 net.cpp:91] Creating Layer inception_4a/pool
2016-09-18 01:54:01.738 STDERR [INFO] I0918 01:54:01.718225 14610 net.cpp:425] inception_4a/pool <- pool3/3x3_s2_pool3/3x3_s2_0_split_3
2016-09-18 01:54:01.738 STDERR [INFO] I0918 01:54:01.718242 14610 net.cpp:399] inception_4a/pool -> inception_4a/pool
2016-09-18 01:54:01.738 STDERR [INFO] I0918 01:54:01.718252 14610 net.cpp:141] Setting up inception_4a/pool
2016-09-18 01:54:01.738 STDERR [INFO] I0918 01:54:01.718257 14610 net.cpp:148] Top shape: 10 480 14 14 (940800)
2016-09-18 01:54:01.738 STDERR [INFO] I0918 01:54:01.718261 14610 net.cpp:156] Memory required for data: 368542720
2016-09-18 01:54:01.738 STDERR [INFO] I0918 01:54:01.718264 14610 layer_factory.hpp:77] Creating layer inception_4a/pool_proj
2016-09-18 01:54:01.738 STDERR [INFO] I0918 01:54:01.718286 14610 net.cpp:91] Creating Layer inception_4a/pool_proj
2016-09-18 01:54:01.738 STDERR [INFO] I0918 01:54:01.718291 14610 net.cpp:425] inception_4a/pool_proj <- inception_4a/pool
2016-09-18 01:54:01.738 STDERR [INFO] I0918 01:54:01.718307 14610 net.cpp:399] inception_4a/pool_proj -> inception_4a/pool_proj
2016-09-18 01:54:01.738 STDERR [INFO] I0918 01:54:01.718518 14608 net.cpp:141] Setting up inception_4a/pool_proj
2016-09-18 01:54:01.738 STDERR [INFO] I0918 01:54:01.718524 14608 net.cpp:148] Top shape: 10 64 14 14 (125440)
2016-09-18 01:54:01.738 STDERR [INFO] I0918 01:54:01.718528 14608 net.cpp:156] Memory required for data: 369044480
2016-09-18 01:54:01.738 STDERR [INFO] I0918 01:54:01.718534 14608 layer_factory.hpp:77] Creating layer inception_4a/relu_pool_proj
2016-09-18 01:54:01.738 STDERR [INFO] I0918 01:54:01.718546 14608 net.cpp:91] Creating Layer inception_4a/relu_pool_proj
2016-09-18 01:54:01.738 STDERR [INFO] I0918 01:54:01.718550 14608 net.cpp:425] inception_4a/relu_pool_proj <- inception_4a/pool_proj
2016-09-18 01:54:01.738 STDERR [INFO] I0918 01:54:01.718555 14608 net.cpp:386] inception_4a/relu_pool_proj -> inception_4a/pool_proj (in-place)
2016-09-18 01:54:01.738 STDERR [INFO] I0918 01:54:01.718561 14608 net.cpp:141] Setting up inception_4a/relu_pool_proj
2016-09-18 01:54:01.738 STDERR [INFO] I0918 01:54:01.718565 14608 net.cpp:148] Top shape: 10 64 14 14 (125440)
2016-09-18 01:54:01.738 STDERR [INFO] I0918 01:54:01.718569 14608 net.cpp:156] Memory required for data: 369546240
2016-09-18 01:54:01.738 STDERR [INFO] I0918 01:54:01.718574 14608 layer_factory.hpp:77] Creating layer inception_4a/output
2016-09-18 01:54:01.738 STDERR [INFO] I0918 01:54:01.718581 14608 net.cpp:91] Creating Layer inception_4a/output
2016-09-18 01:54:01.738 STDERR [INFO] I0918 01:54:01.718587 14608 net.cpp:425] inception_4a/output <- inception_4a/1x1
2016-09-18 01:54:01.738 STDERR [INFO] I0918 01:54:01.718591 14608 net.cpp:425] inception_4a/output <- inception_4a/3x3
2016-09-18 01:54:01.739 STDERR [INFO] I0918 01:54:01.718596 14608 net.cpp:425] inception_4a/output <- inception_4a/5x5
2016-09-18 01:54:01.739 STDERR [INFO] I0918 01:54:01.718600 14608 net.cpp:425] inception_4a/output <- inception_4a/pool_proj
2016-09-18 01:54:01.739 STDERR [INFO] I0918 01:54:01.718605 14608 net.cpp:399] inception_4a/output -> inception_4a/output
2016-09-18 01:54:01.739 STDERR [INFO] I0918 01:54:01.718614 14608 net.cpp:141] Setting up inception_4a/output
2016-09-18 01:54:01.739 STDERR [INFO] I0918 01:54:01.718618 14608 net.cpp:148] Top shape: 10 512 14 14 (1003520)
2016-09-18 01:54:01.739 STDERR [INFO] I0918 01:54:01.718621 14608 net.cpp:156] Memory required for data: 373560320
2016-09-18 01:54:01.739 STDERR [INFO] I0918 01:54:01.718626 14608 layer_factory.hpp:77] Creating layer inception_4a/output_inception_4a/output_0_split
2016-09-18 01:54:01.739 STDERR [INFO] I0918 01:54:01.718632 14608 net.cpp:91] Creating Layer inception_4a/output_inception_4a/output_0_split
2016-09-18 01:54:01.739 STDERR [INFO] I0918 01:54:01.718633 14610 net.cpp:141] Setting up inception_4a/pool_proj
2016-09-18 01:54:01.739 STDERR [INFO] I0918 01:54:01.718636 14608 net.cpp:425] inception_4a/output_inception_4a/output_0_split <- inception_4a/output
2016-09-18 01:54:01.739 STDERR [INFO] I0918 01:54:01.718641 14610 net.cpp:148] Top shape: 10 64 14 14 (125440)
2016-09-18 01:54:01.739 STDERR [INFO] I0918 01:54:01.718646 14610 net.cpp:156] Memory required for data: 369044480
2016-09-18 01:54:01.739 STDERR [INFO] I0918 01:54:01.718652 14610 layer_factory.hpp:77] Creating layer inception_4a/relu_pool_proj
2016-09-18 01:54:01.739 STDERR [INFO] I0918 01:54:01.718662 14610 net.cpp:91] Creating Layer inception_4a/relu_pool_proj
2016-09-18 01:54:01.739 STDERR [INFO] I0918 01:54:01.718667 14610 net.cpp:425] inception_4a/relu_pool_proj <- inception_4a/pool_proj
2016-09-18 01:54:01.739 STDERR [INFO] I0918 01:54:01.720333 14610 net.cpp:386] inception_4a/relu_pool_proj -> inception_4a/pool_proj (in-place)
2016-09-18 01:54:01.739 STDERR [INFO] I0918 01:54:01.720341 14610 net.cpp:141] Setting up inception_4a/relu_pool_proj
2016-09-18 01:54:01.739 STDERR [INFO] I0918 01:54:01.720346 14610 net.cpp:148] Top shape: 10 64 14 14 (125440)
2016-09-18 01:54:01.739 STDERR [INFO] I0918 01:54:01.720350 14610 net.cpp:156] Memory required for data: 369546240
2016-09-18 01:54:01.739 STDERR [INFO] I0918 01:54:01.718673 14608 net.cpp:399] inception_4a/output_inception_4a/output_0_split -> inception_4a/output_inception_4a/output_0_split_0
2016-09-18 01:54:01.739 STDERR [INFO] I0918 01:54:01.720353 14610 layer_factory.hpp:77] Creating layer inception_4a/output
…
2016-09-18 01:54:01.739 STDERR [INFO] I0918 01:54:01.720396 14610 net.cpp:399] inception_4a/output -> inception_4a/output
2016-09-18 01:54:01.739 STDERR [INFO] I0918 01:54:01.720396 14608 net.cpp:399] inception_4a/output_inception_4a/output_0_split -> inception_4a/output_inception_4a/output_0_split_1
2016-09-18 01:54:01.739 STDERR [INFO] I0918 01:54:01.720403 14610 net.cpp:141] Setting up inception_4a/output
2016-09-18 01:54:01.739 STDERR [INFO] I0918 01:54:01.720409 14608 net.cpp:399] inception_4a/output_inception_4a/output_0_split -> inception_4a/output_inception_4a/output_0_split_2
2016-09-18 01:54:01.739 STDERR [INFO] I0918 01:54:01.720410 14610 net.cpp:148] Top shape: 10 512 14 14 (1003520)
2016-09-18 01:54:01.739 STDERR [INFO] I0918 01:54:01.720418 14608 net.cpp:399] inception_4a/output_inception_4a/output_0_split -> inception_4a/output_inception_4a/output_0_split_3
2016-09-18 01:54:01.739 STDERR [INFO] I0918 01:54:01.720420 14610 net.cpp:156] Memory required for data: 373560320
2016-09-18 01:54:01.739 STDERR [INFO] I0918 01:54:01.720425 14610 layer_factory.hpp:77] Creating layer inception_4a/output_inception_4a/output_0_split
2016-09-18 01:54:01.739 STDERR [INFO] I0918 01:54:01.720432 14608 net.cpp:141] Setting up inception_4a/output_inception_4a/output_0_split
2016-09-18 01:54:01.739 STDERR [INFO] I0918 01:54:01.720432 14610 net.cpp:91] Creating Layer inception_4a/output_inception_4a/output_0_split
2016-09-18 01:54:01.739 STDERR [INFO] I0918 01:54:01.720441 14610 net.cpp:425] inception_4a/output_inception_4a/output_0_split <- inception_4a/output
2016-09-18 01:54:01.739 STDERR [INFO] I0918 01:54:01.720450 14608 net.cpp:148] Top shape: 10 512 14 14 (1003520)
2016-09-18 01:54:01.739 STDERR [INFO] I0918 01:54:01.720453 14610 net.cpp:399] inception_4a/output_inception_4a/output_0_split -> inception_4a/output_inception_4a/output_0_split_0
2016-09-18 01:54:01.739 STDERR [INFO] I0918 01:54:01.720456 14608 net.cpp:148] Top shape: 10 512 14 14 (1003520)
2016-09-18 01:54:01.740 STDERR [INFO] I0918 01:54:01.720461 14610 net.cpp:399] inception_4a/output_inception_4a/output_0_split -> inception_4a/output_inception_4a/output_0_split_1
2016-09-18 01:54:01.740 STDERR [INFO] I0918 01:54:01.720463 14620 net.cpp:141] Setting up inception_4a/3x3
2016-09-18 01:54:01.740 STDERR [INFO] I0918 01:54:01.720463 14608 net.cpp:148] Top shape: 10 512 14 14 (1003520)
2016-09-18 01:54:01.740 STDERR [INFO] I0918 01:54:01.720474 14610 net.cpp:399] inception_4a/output_inception_4a/output_0_split -> inception_4a/output_inception_4a/output_0_split_2
2016-09-18 01:54:01.740 STDERR [INFO] I0918 01:54:01.720481 14608 net.cpp:148] Top shape: 10 512 14 14 (1003520)
2016-09-18 01:54:01.740 STDERR [INFO] I0918 01:54:01.720482 14620 net.cpp:148] Top shape: 10 208 14 14 (407680)
2016-09-18 01:54:01.740 STDERR [INFO] I0918 01:54:01.720487 14610 net.cpp:399] inception_4a/output_inception_4a/output_0_split -> inception_4a/output_inception_4a/output_0_split_3
2016-09-18 01:54:01.740 STDERR [INFO] I0918 01:54:01.720490 14620 net.cpp:156] Memory required for data: 362145280
2016-09-18 01:54:01.740 STDERR [INFO] I0918 01:54:01.720487 14608 net.cpp:156] Memory required for data: 389616640
2016-09-18 01:54:01.740 STDERR [INFO] I0918 01:54:01.720501 14610 net.cpp:141] Setting up inception_4a/output_inception_4a/output_0_split
2016-09-18 01:54:01.740 STDERR [INFO] I0918 01:54:01.720502 14608 layer_factory.hpp:77] Creating layer inception_4b/1x1
2016-09-18 01:54:01.740 STDERR [INFO] I0918 01:54:01.720504 14620 layer_factory.hpp:77] Creating layer inception_4a/relu_3x3
2016-09-18 01:54:01.740 STDERR [INFO] I0918 01:54:01.720507 14610 net.cpp:148] Top shape: 10 512 14 14 (1003520)
2016-09-18 01:54:01.740 STDERR [INFO] I0918 01:54:01.720511 14610 net.cpp:148] Top shape: 10 512 14 14 (1003520)
2016-09-18 01:54:01.740 STDERR [INFO] I0918 01:54:01.720513 14620 net.cpp:91] Creating Layer inception_4a/relu_3x3
2016-09-18 01:54:01.740 STDERR [INFO] I0918 01:54:01.720517 14608 net.cpp:91] Creating Layer inception_4b/1x1
2016-09-18 01:54:01.740 STDERR [INFO] I0918 01:54:01.720515 14610 net.cpp:148] Top shape: 10 512 14 14 (1003520)
2016-09-18 01:54:01.740 STDERR [INFO] I0918 01:54:01.720523 14608 net.cpp:425] inception_4b/1x1 <- inception_4a/output_inception_4a/output_0_split_0
2016-09-18 01:54:01.740 STDERR [INFO] I0918 01:54:01.720525 14620 net.cpp:425] inception_4a/relu_3x3 <- inception_4a/3x3
2016-09-18 01:54:01.740 STDERR [INFO] I0918 01:54:01.720528 14610 net.cpp:148] Top shape: 10 512 14 14 (1003520)
2016-09-18 01:54:01.740 STDERR [INFO] I0918 01:54:01.720543 14608 net.cpp:399] inception_4b/1x1 -> inception_4b/1x1
2016-09-18 01:54:01.740 STDERR [INFO] I0918 01:54:01.720546 14610 net.cpp:156] Memory required for data: 389616640
2016-09-18 01:54:01.740 STDERR [INFO] I0918 01:54:01.720546 14620 net.cpp:386] inception_4a/relu_3x3 -> inception_4a/3x3 (in-place)
2016-09-18 01:54:01.740 STDERR [INFO] I0918 01:54:01.720551 14610 layer_factory.hpp:77] Creating layer inception_4b/1x1
2016-09-18 01:54:01.747 STDERR [INFO] I0918 01:54:01.720557 14620 net.cpp:141] Setting up inception_4a/relu_3x3
2016-09-18 01:54:01.748 STDERR [INFO] I0918 01:54:01.720563 14610 net.cpp:91] Creating Layer inception_4b/1x1
2016-09-18 01:54:01.748 STDERR [INFO] I0918 01:54:01.720567 14610 net.cpp:425] inception_4b/1x1 <- inception_4a/output_inception_4a/output_0_split_0
2016-09-18 01:54:01.748 STDERR [INFO] I0918 01:54:01.720566 14620 net.cpp:148] Top shape: 10 208 14 14 (407680)
2016-09-18 01:54:01.748 STDERR [INFO] I0918 01:54:01.720577 14610 net.cpp:399] inception_4b/1x1 -> inception_4b/1x1
2016-09-18 01:54:01.748 STDERR [INFO] I0918 01:54:01.720577 14620 net.cpp:156] Memory required for data: 363776000
2016-09-18 01:54:01.748 STDERR [INFO] I0918 01:54:01.720583 14620 layer_factory.hpp:77] Creating layer inception_4a/5x5_reduce
2016-09-18 01:54:01.748 STDERR [INFO] I0918 01:54:01.720613 14620 net.cpp:91] Creating Layer inception_4a/5x5_reduce
2016-09-18 01:54:01.748 STDERR [INFO] I0918 01:54:01.720620 14620 net.cpp:425] inception_4a/5x5_reduce <- pool3/3x3_s2_pool3/3x3_s2_0_split_2
2016-09-18 01:54:01.748 STDERR [INFO] I0918 01:54:01.720633 14620 net.cpp:399] inception_4a/5x5_reduce -> inception_4a/5x5_reduce
2016-09-18 01:54:01.748 STDERR [INFO] I0918 01:54:01.720777 14620 net.cpp:141] Setting up inception_4a/5x5_reduce
2016-09-18 01:54:01.748 STDERR [INFO] I0918 01:54:01.720789 14620 net.cpp:148] Top shape: 10 16 14 14 (31360)
2016-09-18 01:54:01.748 STDERR [INFO] I0918 01:54:01.720795 14620 net.cpp:156] Memory required for data: 363901440
2016-09-18 01:54:01.748 STDERR [INFO] I0918 01:54:01.720805 14620 layer_factory.hpp:77] Creating layer inception_4a/relu_5x5_reduce
2016-09-18 01:54:01.748 STDERR [INFO] I0918 01:54:01.720818 14620 net.cpp:91] Creating Layer inception_4a/relu_5x5_reduce
2016-09-18 01:54:01.748 STDERR [INFO] I0918 01:54:01.720824 14620 net.cpp:425] inception_4a/relu_5x5_reduce <- inception_4a/5x5_reduce
2016-09-18 01:54:01.748 STDERR [INFO] I0918 01:54:01.720832 14620 net.cpp:386] inception_4a/relu_5x5_reduce -> inception_4a/5x5_reduce (in-place)
2016-09-18 01:54:01.748 STDERR [INFO] I0918 01:54:01.720840 14620 net.cpp:141] Setting up inception_4a/relu_5x5_reduce
2016-09-18 01:54:01.748 STDERR [INFO] I0918 01:54:01.720849 14620 net.cpp:148] Top shape: 10 16 14 14 (31360)
2016-09-18 01:54:01.748 STDERR [INFO] I0918 01:54:01.720852 14620 net.cpp:156] Memory required for data: 364026880
2016-09-18 01:54:01.748 STDERR [INFO] I0918 01:54:01.720857 14620 layer_factory.hpp:77] Creating layer inception_4a/5x5
2016-09-18 01:54:01.748 STDERR [INFO] I0918 01:54:01.720871 14620 net.cpp:91] Creating Layer inception_4a/5x5
2016-09-18 01:54:01.749 STDERR [INFO] I0918 01:54:01.720877 14620 net.cpp:425] inception_4a/5x5 <- inception_4a/5x5_reduce
2016-09-18 01:54:01.749 STDERR [INFO] I0918 01:54:01.720888 14620 net.cpp:399] inception_4a/5x5 -> inception_4a/5x5
2016-09-18 01:54:01.749 STDERR [INFO] I0918 01:54:01.721138 14620 net.cpp:141] Setting up inception_4a/5x5
2016-09-18 01:54:01.749 STDERR [INFO] I0918 01:54:01.721148 14620 net.cpp:148] Top shape: 10 48 14 14 (94080)
2016-09-18 01:54:01.749 STDERR [INFO] I0918 01:54:01.721153 14620 net.cpp:156] Memory required for data: 364403200
2016-09-18 01:54:01.749 STDERR [INFO] I0918 01:54:01.721163 14620 layer_factory.hpp:77] Creating layer inception_4a/relu_5x5
2016-09-18 01:54:01.749 STDERR [INFO] I0918 01:54:01.721174 14620 net.cpp:91] Creating Layer inception_4a/relu_5x5
2016-09-18 01:54:01.749 STDERR [INFO] I0918 01:54:01.721179 14620 net.cpp:425] inception_4a/relu_5x5 <- inception_4a/5x5
2016-09-18 01:54:01.749 STDERR [INFO] I0918 01:54:01.721186 14620 net.cpp:386] inception_4a/relu_5x5 -> inception_4a/5x5 (in-place)
2016-09-18 01:54:01.749 STDERR [INFO] I0918 01:54:01.721194 14620 net.cpp:141] Setting up inception_4a/relu_5x5
2016-09-18 01:54:01.749 STDERR [INFO] I0918 01:54:01.721201 14620 net.cpp:148] Top shape: 10 48 14 14 (94080)
2016-09-18 01:54:01.749 STDERR [INFO] I0918 01:54:01.721206 14620 net.cpp:156] Memory required for data: 364779520
2016-09-18 01:54:01.749 STDERR [INFO] I0918 01:54:01.721210 14620 layer_factory.hpp:77] Creating layer inception_4a/pool
2016-09-18 01:54:01.749 STDERR [INFO] I0918 01:54:01.721220 14620 net.cpp:91] Creating Layer inception_4a/pool
2016-09-18 01:54:01.749 STDERR [INFO] I0918 01:54:01.721228 14620 net.cpp:425] inception_4a/pool <- pool3/3x3_s2_pool3/3x3_s2_0_split_3
2016-09-18 01:54:01.749 STDERR [INFO] I0918 01:54:01.721235 14620 net.cpp:399] inception_4a/pool -> inception_4a/pool
2016-09-18 01:54:01.749 STDERR [INFO] I0918 01:54:01.721247 14620 net.cpp:141] Setting up inception_4a/pool
2016-09-18 01:54:01.749 STDERR [INFO] I0918 01:54:01.721254 14620 net.cpp:148] Top shape: 10 480 14 14 (940800)
2016-09-18 01:54:01.749 STDERR [INFO] I0918 01:54:01.721259 14620 net.cpp:156] Memory required for data: 368542720
2016-09-18 01:54:01.749 STDERR [INFO] I0918 01:54:01.721263 14620 layer_factory.hpp:77] Creating layer inception_4a/pool_proj
2016-09-18 01:54:01.749 STDERR [INFO] I0918 01:54:01.721278 14620 net.cpp:91] Creating Layer inception_4a/pool_proj
2016-09-18 01:54:01.749 STDERR [INFO] I0918 01:54:01.722770 14620 net.cpp:425] inception_4a/pool_proj <- inception_4a/pool
2016-09-18 01:54:01.749 STDERR [INFO] I0918 01:54:01.721333 14610 net.cpp:141] Setting up inception_4b/1x1
2016-09-18 01:54:01.749 STDERR [INFO] I0918 01:54:01.721323 14608 net.cpp:141] Setting up inception_4b/1x1
2016-09-18 01:54:01.749 STDERR [INFO] I0918 01:54:01.722793 14620 net.cpp:399] inception_4a/pool_proj -> inception_4a/pool_proj
2016-09-18 01:54:01.750 STDERR [INFO] I0918 01:54:01.722786 14610 net.cpp:148] Top shape: 10 160 14 14 (313600)
2016-09-18 01:54:01.750 STDERR [INFO] I0918 01:54:01.722805 14610 net.cpp:156] Memory required for data: 390871040
2016-09-18 01:54:01.750 STDERR [INFO] I0918 01:54:01.722808 14608 net.cpp:148] Top shape: 10 160 14 14 (313600)
2016-09-18 01:54:01.750 STDERR [INFO] I0918 01:54:01.722813 14610 layer_factory.hpp:77] Creating layer inception_4b/relu_1x1
2016-09-18 01:54:01.750 STDERR [INFO] I0918 01:54:01.722816 14608 net.cpp:156] Memory required for data: 390871040
2016-09-18 01:54:01.750 STDERR [INFO] I0918 01:54:01.722821 14610 net.cpp:91] Creating Layer inception_4b/relu_1x1
2016-09-18 01:54:01.750 STDERR [INFO] I0918 01:54:01.722826 14608 layer_factory.hpp:77] Creating layer inception_4b/relu_1x1
2016-09-18 01:54:01.750 STDERR [INFO] I0918 01:54:01.722826 14610 net.cpp:425] inception_4b/relu_1x1 <- inception_4b/1x1
2016-09-18 01:54:01.750 STDERR [INFO] I0918 01:54:01.722837 14608 net.cpp:91] Creating Layer inception_4b/relu_1x1
2016-09-18 01:54:01.750 STDERR [INFO] I0918 01:54:01.722838 14610 net.cpp:386] inception_4b/relu_1x1 -> inception_4b/1x1 (in-place)
2016-09-18 01:54:01.750 STDERR [INFO] I0918 01:54:01.722846 14608 net.cpp:425] inception_4b/relu_1x1 <- inception_4b/1x1
2016-09-18 01:54:01.750 STDERR [INFO] I0918 01:54:01.722851 14610 net.cpp:141] Setting up inception_4b/relu_1x1
2016-09-18 01:54:01.750 STDERR [INFO] I0918 01:54:01.722852 14608 net.cpp:386] inception_4b/relu_1x1 -> inception_4b/1x1 (in-place)
2016-09-18 01:54:01.751 STDERR [INFO] I0918 01:54:01.722856 14610 net.cpp:148] Top shape: 10 160 14 14 (313600)
2016-09-18 01:54:01.751 STDERR [INFO] I0918 01:54:01.722861 14610 net.cpp:156] Memory required for data: 392125440
2016-09-18 01:54:01.751 STDERR [INFO] I0918 01:54:01.722862 14608 net.cpp:141] Setting up inception_4b/relu_1x1
2016-09-18 01:54:01.751 STDERR [INFO] I0918 01:54:01.722863 14610 layer_factory.hpp:77] Creating layer inception_4b/3x3_reduce
2016-09-18 01:54:01.751 STDERR [INFO] I0918 01:54:01.722867 14608 net.cpp:148] Top shape: 10 160 14 14 (313600)
2016-09-18 01:54:01.751 STDERR [INFO] I0918 01:54:01.722872 14608 net.cpp:156] Memory required for data: 392125440
2016-09-18 01:54:01.751 STDERR [INFO] I0918 01:54:01.722875 14608 layer_factory.hpp:77] Creating layer inception_4b/3x3_reduce
2016-09-18 01:54:01.751 STDERR [INFO] I0918 01:54:01.722880 14610 net.cpp:91] Creating Layer inception_4b/3x3_reduce
2016-09-18 01:54:01.751 STDERR [INFO] I0918 01:54:01.722884 14610 net.cpp:425] inception_4b/3x3_reduce <- inception_4a/output_inception_4a/output_0_split_1
2016-09-18 01:54:01.751 STDERR [INFO] I0918 01:54:01.722899 14608 net.cpp:91] Creating Layer inception_4b/3x3_reduce
2016-09-18 01:54:01.751 STDERR [INFO] I0918 01:54:01.722903 14610 net.cpp:399] inception_4b/3x3_reduce -> inception_4b/3x3_reduce
2016-09-18 01:54:01.751 STDERR [INFO] I0918 01:54:01.722904 14608 net.cpp:425] inception_4b/3x3_reduce <- inception_4a/output_inception_4a/output_0_split_1
2016-09-18 01:54:01.751 STDERR [INFO] I0918 01:54:01.722914 14608 net.cpp:399] inception_4b/3x3_reduce -> inception_4b/3x3_reduce
2016-09-18 01:54:01.751 STDERR [INFO] I0918 01:54:01.723220 14620 net.cpp:141] Setting up inception_4a/pool_proj
2016-09-18 01:54:01.751 STDERR [INFO] I0918 01:54:01.723233 14620 net.cpp:148] Top shape: 10 64 14 14 (125440)
2016-09-18 01:54:01.751 STDERR [INFO] I0918 01:54:01.723238 14620 net.cpp:156] Memory required for data: 369044480
2016-09-18 01:54:01.751 STDERR [INFO] I0918 01:54:01.723248 14620 layer_factory.hpp:77] Creating layer inception_4a/relu_pool_proj
2016-09-18 01:54:01.751 STDERR [INFO] I0918 01:54:01.723258 14620 net.cpp:91] Creating Layer inception_4a/relu_pool_proj
2016-09-18 01:54:01.751 STDERR [INFO] I0918 01:54:01.723264 14620 net.cpp:425] inception_4a/relu_pool_proj <- inception_4a/pool_proj
2016-09-18 01:54:01.751 STDERR [INFO] I0918 01:54:01.723271 14620 net.cpp:386] inception_4a/relu_pool_proj -> inception_4a/pool_proj (in-place)
2016-09-18 01:54:01.751 STDERR [INFO] I0918 01:54:01.723280 14620 net.cpp:141] Setting up inception_4a/relu_pool_proj
2016-09-18 01:54:01.751 STDERR [INFO] I0918 01:54:01.723289 14620 net.cpp:148] Top shape: 10 64 14 14 (125440)
2016-09-18 01:54:01.751 STDERR [INFO] I0918 01:54:01.723294 14620 net.cpp:156] Memory required for data: 369546240
2016-09-18 01:54:01.751 STDERR [INFO] I0918 01:54:01.723299 14620 layer_factory.hpp:77] Creating layer inception_4a/output
2016-09-18 01:54:01.751 STDERR [INFO] I0918 01:54:01.723310 14620 net.cpp:91] Creating Layer inception_4a/output
2016-09-18 01:54:01.752 STDERR [INFO] I0918 01:54:01.723316 14620 net.cpp:425] inception_4a/output <- inception_4a/1x1
2016-09-18 01:54:01.752 STDERR [INFO] I0918 01:54:01.723323 14620 net.cpp:425] inception_4a/output <- inception_4a/3x3
2016-09-18 01:54:01.752 STDERR [INFO] I0918 01:54:01.723330 14620 net.cpp:425] inception_4a/output <- inception_4a/5x5
2016-09-18 01:54:01.752 STDERR [INFO] I0918 01:54:01.723336 14620 net.cpp:425] inception_4a/output <- inception_4a/pool_proj
2016-09-18 01:54:01.752 STDERR [INFO] I0918 01:54:01.723343 14620 net.cpp:399] inception_4a/output -> inception_4a/output
2016-09-18 01:54:01.752 STDERR [INFO] I0918 01:54:01.723356 14620 net.cpp:141] Setting up inception_4a/output
2016-09-18 01:54:01.752 STDERR [INFO] I0918 01:54:01.723363 14620 net.cpp:148] Top shape: 10 512 14 14 (1003520)
2016-09-18 01:54:01.752 STDERR [INFO] I0918 01:54:01.723369 14620 net.cpp:156] Memory required for data: 373560320
2016-09-18 01:54:01.752 STDERR [INFO] I0918 01:54:01.723374 14620 layer_factory.hpp:77] Creating layer inception_4a/output_inception_4a/output_0_split
2016-09-18 01:54:01.752 STDERR [INFO] I0918 01:54:01.723386 14620 net.cpp:91] Creating Layer inception_4a/output_inception_4a/output_0_split
2016-09-18 01:54:01.752 STDERR [INFO] I0918 01:54:01.723392 14620 net.cpp:425] inception_4a/output_inception_4a/output_0_split <- inception_4a/output
2016-09-18 01:54:01.752 STDERR [INFO] I0918 01:54:01.723400 14620 net.cpp:399] inception_4a/output_inception_4a/output_0_split -> inception_4a/output_inception_4a/output_0_split_0
2016-09-18 01:54:01.752 STDERR [INFO] I0918 01:54:01.723410 14620 net.cpp:399] inception_4a/output_inception_4a/output_0_split -> inception_4a/output_inception_4a/output_0_split_1
2016-09-18 01:54:01.752 STDERR [INFO] I0918 01:54:01.723419 14620 net.cpp:399] inception_4a/output_inception_4a/output_0_split -> inception_4a/output_inception_4a/output_0_split_2
2016-09-18 01:54:01.752 STDERR [INFO] I0918 01:54:01.723428 14620 net.cpp:399] inception_4a/output_inception_4a/output_0_split -> inception_4a/output_inception_4a/output_0_split_3
2016-09-18 01:54:01.752 STDERR [INFO] I0918 01:54:01.723428 14610 net.cpp:141] Setting up inception_4b/3x3_reduce
2016-09-18 01:54:01.752 STDERR [INFO] I0918 01:54:01.723436 14610 net.cpp:148] Top shape: 10 112 14 14 (219520)
2016-09-18 01:54:01.752 STDERR [INFO] I0918 01:54:01.723439 14610 net.cpp:156] Memory required for data: 393003520
2016-09-18 01:54:01.752 STDERR [INFO] I0918 01:54:01.723440 14620 net.cpp:141] Setting up inception_4a/output_inception_4a/output_0_split
2016-09-18 01:54:01.752 STDERR [INFO] I0918 01:54:01.723446 14610 layer_factory.hpp:77] Creating layer inception_4b/relu_3x3_reduce
2016-09-18 01:54:01.752 STDERR [INFO] I0918 01:54:01.723446 14608 net.cpp:141] Setting up inception_4b/3x3_reduce
2016-09-18 01:54:01.752 STDERR [INFO] I0918 01:54:01.723453 14610 net.cpp:91] Creating Layer inception_4b/relu_3x3_reduce
2016-09-18 01:54:01.752 STDERR [INFO] I0918 01:54:01.723454 14620 net.cpp:148] Top shape: 10 512 14 14 (1003520)
2016-09-18 01:54:01.752 STDERR [INFO] I0918 01:54:01.723456 14608 net.cpp:148] Top shape: 10 112 14 14 (219520)
2016-09-18 01:54:01.752 STDERR [INFO] I0918 01:54:01.723459 14610 net.cpp:425] inception_4b/relu_3x3_reduce <- inception_4b/3x3_reduce
2016-09-18 01:54:01.752 STDERR [INFO] I0918 01:54:01.723462 14608 net.cpp:156] Memory required for data: 393003520
2016-09-18 01:54:01.752 STDERR [INFO] I0918 01:54:01.723464 14620 net.cpp:148] Top shape: 10 512 14 14 (1003520)
2016-09-18 01:54:01.753 STDERR [INFO] I0918 01:54:01.723467 14610 net.cpp:386] inception_4b/relu_3x3_reduce -> inception_4b/3x3_reduce (in-place)
2016-09-18 01:54:01.753 STDERR [INFO] I0918 01:54:01.723474 14620 net.cpp:148] Top shape: 10 512 14 14 (1003520)
2016-09-18 01:54:01.753 STDERR [INFO] I0918 01:54:01.723474 14610 net.cpp:141] Setting up inception_4b/relu_3x3_reduce
2016-09-18 01:54:01.753 STDERR [INFO] I0918 01:54:01.723474 14608 layer_factory.hpp:77] Creating layer inception_4b/relu_3x3_reduce
2016-09-18 01:54:01.753 STDERR [INFO] I0918 01:54:01.723487 14610 net.cpp:148] Top shape: 10 112 14 14 (219520)
2016-09-18 01:54:01.753 STDERR [INFO] I0918 01:54:01.723487 14620 net.cpp:148] Top shape: 10 512 14 14 (1003520)
2016-09-18 01:54:01.753 STDERR [INFO] I0918 01:54:01.723490 14610 net.cpp:156] Memory required for data: 393881600
2016-09-18 01:54:01.753 STDERR [INFO] I0918 01:54:01.723491 14608 net.cpp:91] Creating Layer inception_4b/relu_3x3_reduce
2016-09-18 01:54:01.753 STDERR [INFO] I0918 01:54:01.723495 14610 layer_factory.hpp:77] Creating layer inception_4b/3x3
2016-09-18 01:54:01.753 STDERR [INFO] I0918 01:54:01.723497 14608 net.cpp:425] inception_4b/relu_3x3_reduce <- inception_4b/3x3_reduce
2016-09-18 01:54:01.753 STDERR [INFO] I0918 01:54:01.723503 14608 net.cpp:386] inception_4b/relu_3x3_reduce -> inception_4b/3x3_reduce (in-place)
2016-09-18 01:54:01.753 STDERR [INFO] I0918 01:54:01.723493 14620 net.cpp:156] Memory required for data: 389616640
2016-09-18 01:54:01.753 STDERR [INFO] I0918 01:54:01.723511 14608 net.cpp:141] Setting up inception_4b/relu_3x3_reduce
2016-09-18 01:54:01.753 STDERR [INFO] I0918 01:54:01.723513 14610 net.cpp:91] Creating Layer inception_4b/3x3
2016-09-18 01:54:01.753 STDERR [INFO] I0918 01:54:01.723516 14620 layer_factory.hpp:77] Creating layer inception_4b/1x1
2016-09-18 01:54:01.753 STDERR [INFO] I0918 01:54:01.723520 14608 net.cpp:148] Top shape: 10 112 14 14 (219520)
2016-09-18 01:54:01.753 STDERR [INFO] I0918 01:54:01.723525 14608 net.cpp:156] Memory required for data: 393881600
2016-09-18 01:54:01.753 STDERR [INFO] I0918 01:54:01.723520 14610 net.cpp:425] inception_4b/3x3 <- inception_4b/3x3_reduce
2016-09-18 01:54:01.753 STDERR [INFO] I0918 01:54:01.723531 14608 layer_factory.hpp:77] Creating layer inception_4b/3x3
2016-09-18 01:54:01.753 STDERR [INFO] I0918 01:54:01.723536 14620 net.cpp:91] Creating Layer inception_4b/1x1
2016-09-18 01:54:01.753 STDERR [INFO] I0918 01:54:01.723538 14610 net.cpp:399] inception_4b/3x3 -> inception_4b/3x3
2016-09-18 01:54:01.753 STDERR [INFO] I0918 01:54:01.723553 14608 net.cpp:91] Creating Layer inception_4b/3x3
2016-09-18 01:54:01.753 STDERR [INFO] I0918 01:54:01.723554 14620 net.cpp:425] inception_4b/1x1 <- inception_4a/output_inception_4a/output_0_split_0
2016-09-18 01:54:01.753 STDERR [INFO] I0918 01:54:01.723558 14608 net.cpp:425] inception_4b/3x3 <- inception_4b/3x3_reduce
2016-09-18 01:54:01.754 STDERR [INFO] I0918 01:54:01.723567 14620 net.cpp:399] inception_4b/1x1 -> inception_4b/1x1
2016-09-18 01:54:01.754 STDERR [INFO] I0918 01:54:01.723575 14608 net.cpp:399] inception_4b/3x3 -> inception_4b/3x3
2016-09-18 01:54:01.754 STDERR [INFO] I0918 01:54:01.725483 14610 net.cpp:141] Setting up inception_4b/3x3
2016-09-18 01:54:01.754 STDERR [INFO] I0918 01:54:01.725497 14610 net.cpp:148] Top shape: 10 224 14 14 (439040)
2016-09-18 01:54:01.754 STDERR [INFO] I0918 01:54:01.725499 14610 net.cpp:156] Memory required for data: 395637760
2016-09-18 01:54:01.754 STDERR [INFO] I0918 01:54:01.725507 14610 layer_factory.hpp:77] Creating layer inception_4b/relu_3x3
2016-09-18 01:54:01.754 STDERR [INFO] I0918 01:54:01.725512 14610 net.cpp:91] Creating Layer inception_4b/relu_3x3
2016-09-18 01:54:01.754 STDERR [INFO] I0918 01:54:01.725517 14610 net.cpp:425] inception_4b/relu_3x3 <- inception_4b/3x3
2016-09-18 01:54:01.754 STDERR [INFO] I0918 01:54:01.725522 14610 net.cpp:386] inception_4b/relu_3x3 -> inception_4b/3x3 (in-place)
2016-09-18 01:54:01.754 STDERR [INFO] I0918 01:54:01.725528 14610 net.cpp:141] Setting up inception_4b/relu_3x3
2016-09-18 01:54:01.754 STDERR [INFO] I0918 01:54:01.725531 14610 net.cpp:148] Top shape: 10 224 14 14 (439040)
2016-09-18 01:54:01.754 STDERR [INFO] I0918 01:54:01.725534 14610 net.cpp:156] Memory required for data: 397393920
2016-09-18 01:54:01.754 STDERR [INFO] I0918 01:54:01.725538 14610 layer_factory.hpp:77] Creating layer inception_4b/5x5_reduce
2016-09-18 01:54:01.754 STDERR [INFO] I0918 01:54:01.725559 14610 net.cpp:91] Creating Layer inception_4b/5x5_reduce
2016-09-18 01:54:01.754 STDERR [INFO] I0918 01:54:01.725564 14610 net.cpp:425] inception_4b/5x5_reduce <- inception_4a/output_inception_4a/output_0_split_2
2016-09-18 01:54:01.754 STDERR [INFO] I0918 01:54:01.725569 14610 net.cpp:399] inception_4b/5x5_reduce -> inception_4b/5x5_reduce
2016-09-18 01:54:01.755 STDERR [INFO] I0918 01:54:01.725689 14610 net.cpp:141] Setting up inception_4b/5x5_reduce
2016-09-18 01:54:01.755 STDERR [INFO] I0918 01:54:01.725695 14610 net.cpp:148] Top shape: 10 24 14 14 (47040)
2016-09-18 01:54:01.755 STDERR [INFO] I0918 01:54:01.725698 14610 net.cpp:156] Memory required for data: 397582080
2016-09-18 01:54:01.755 STDERR [INFO] I0918 01:54:01.725704 14610 layer_factory.hpp:77] Creating layer inception_4b/relu_5x5_reduce
2016-09-18 01:54:01.755 STDERR [INFO] I0918 01:54:01.725711 14610 net.cpp:91] Creating Layer inception_4b/relu_5x5_reduce
2016-09-18 01:54:01.755 STDERR [INFO] I0918 01:54:01.725715 14610 net.cpp:425] inception_4b/relu_5x5_reduce <- inception_4b/5x5_reduce
2016-09-18 01:54:01.755 STDERR [INFO] I0918 01:54:01.725719 14610 net.cpp:386] inception_4b/relu_5x5_reduce -> inception_4b/5x5_reduce (in-place)
2016-09-18 01:54:01.755 STDERR [INFO] I0918 01:54:01.725724 14610 net.cpp:141] Setting up inception_4b/relu_5x5_reduce
2016-09-18 01:54:01.755 STDERR [INFO] I0918 01:54:01.725728 14610 net.cpp:148] Top shape: 10 24 14 14 (47040)
2016-09-18 01:54:01.755 STDERR [INFO] I0918 01:54:01.725731 14610 net.cpp:156] Memory required for data: 397770240
2016-09-18 01:54:01.755 STDERR [INFO] I0918 01:54:01.725734 14610 layer_factory.hpp:77] Creating layer inception_4b/5x5
2016-09-18 01:54:01.755 STDERR [INFO] I0918 01:54:01.725744 14610 net.cpp:91] Creating Layer inception_4b/5x5
2016-09-18 01:54:01.755 STDERR [INFO] I0918 01:54:01.725747 14610 net.cpp:425] inception_4b/5x5 <- inception_4b/5x5_reduce
2016-09-18 01:54:01.755 STDERR [INFO] I0918 01:54:01.725754 14610 net.cpp:399] inception_4b/5x5 -> inception_4b/5x5
2016-09-18 01:54:01.755 STDERR [INFO] I0918 01:54:01.725970 14620 net.cpp:141] Setting up inception_4b/1x1
2016-09-18 01:54:01.755 STDERR [INFO] I0918 01:54:01.725985 14620 net.cpp:148] Top shape: 10 160 14 14 (313600)
2016-09-18 01:54:01.755 STDERR [INFO] I0918 01:54:01.725989 14620 net.cpp:156] Memory required for data: 390871040
2016-09-18 01:54:01.755 STDERR [INFO] I0918 01:54:01.726001 14620 layer_factory.hpp:77] Creating layer inception_4b/relu_1x1
2016-09-18 01:54:01.755 STDERR [INFO] I0918 01:54:01.726012 14620 net.cpp:91] Creating Layer inception_4b/relu_1x1
2016-09-18 01:54:01.755 STDERR [INFO] I0918 01:54:01.726019 14620 net.cpp:425] inception_4b/relu_1x1 <- inception_4b/1x1
2016-09-18 01:54:01.755 STDERR [INFO] I0918 01:54:01.726027 14620 net.cpp:386] inception_4b/relu_1x1 -> inception_4b/1x1 (in-place)
2016-09-18 01:54:01.755 STDERR [INFO] I0918 01:54:01.726037 14620 net.cpp:141] Setting up inception_4b/relu_1x1
2016-09-18 01:54:01.755 STDERR [INFO] I0918 01:54:01.726044 14620 net.cpp:148] Top shape: 10 160 14 14 (313600)
2016-09-18 01:54:01.755 STDERR [INFO] I0918 01:54:01.726049 14620 net.cpp:156] Memory required for data: 392125440
2016-09-18 01:54:01.756 STDERR [INFO] I0918 01:54:01.726054 14620 layer_factory.hpp:77] Creating layer inception_4b/3x3_reduce
2016-09-18 01:54:01.756 STDERR [INFO] I0918 01:54:01.726069 14620 net.cpp:91] Creating Layer inception_4b/3x3_reduce
2016-09-18 01:54:01.756 STDERR [INFO] I0918 01:54:01.726075 14620 net.cpp:425] inception_4b/3x3_reduce <- inception_4a/output_inception_4a/output_0_split_1
2016-09-18 01:54:01.756 STDERR [INFO] I0918 01:54:01.726104 14620 net.cpp:399] inception_4b/3x3_reduce -> inception_4b/3x3_reduce
2016-09-18 01:54:01.756 STDERR [INFO] I0918 01:54:01.726109 14610 net.cpp:141] Setting up inception_4b/5x5
2016-09-18 01:54:01.756 STDERR [INFO] I0918 01:54:01.726116 14610 net.cpp:148] Top shape: 10 64 14 14 (125440)
2016-09-18 01:54:01.756 STDERR [INFO] I0918 01:54:01.726119 14610 net.cpp:156] Memory required for data: 398272000
2016-09-18 01:54:01.756 STDERR [INFO] I0918 01:54:01.726125 14610 layer_factory.hpp:77] Creating layer inception_4b/relu_5x5
2016-09-18 01:54:01.756 n.t.s.s.CVParticleSpout [INFO] [Timing] RequestID: 0 StreamID: home_peifeng_work_data_frame_1080x1920_png SequenceNr: 24 Leaving fetcher: 1474178041756 Size: 160423
2016-09-18 01:54:01.756 STDERR [INFO] I0918 01:54:01.726130 14610 net.cpp:91] Creating Layer inception_4b/relu_5x5
2016-09-18 01:54:01.756 STDERR [INFO] I0918 01:54:01.726135 14610 net.cpp:425] inception_4b/relu_5x5 <- inception_4b/5x5
2016-09-18 01:54:01.756 STDERR [INFO] I0918 01:54:01.726140 14610 net.cpp:386] inception_4b/relu_5x5 -> inception_4b/5x5 (in-place)
2016-09-18 01:54:01.756 STDERR [INFO] I0918 01:54:01.726145 14610 net.cpp:141] Setting up inception_4b/relu_5x5
2016-09-18 01:54:01.756 STDERR [INFO] I0918 01:54:01.726148 14610 net.cpp:148] Top shape: 10 64 14 14 (125440)
2016-09-18 01:54:01.756 STDERR [INFO] I0918 01:54:01.726151 14610 net.cpp:156] Memory required for data: 398773760
2016-09-18 01:54:01.756 STDERR [INFO] I0918 01:54:01.726155 14610 layer_factory.hpp:77] Creating layer inception_4b/pool
2016-09-18 01:54:01.756 STDERR [INFO] I0918 01:54:01.726167 14610 net.cpp:91] Creating Layer inception_4b/pool
2016-09-18 01:54:01.756 STDERR [INFO] I0918 01:54:01.726171 14610 net.cpp:425] inception_4b/pool <- inception_4a/output_inception_4a/output_0_split_3
2016-09-18 01:54:01.756 STDERR [INFO] I0918 01:54:01.726176 14610 net.cpp:399] inception_4b/pool -> inception_4b/pool
2016-09-18 01:54:01.756 STDERR [INFO] I0918 01:54:01.726188 14610 net.cpp:141] Setting up inception_4b/pool
2016-09-18 01:54:01.756 STDERR [INFO] I0918 01:54:01.726192 14610 net.cpp:148] Top shape: 10 512 14 14 (1003520)
2016-09-18 01:54:01.756 STDERR [INFO] I0918 01:54:01.726196 14610 net.cpp:156] Memory required for data: 402787840
2016-09-18 01:54:01.756 STDERR [INFO] I0918 01:54:01.726198 14610 layer_factory.hpp:77] Creating layer inception_4b/pool_proj
2016-09-18 01:54:01.756 STDERR [INFO] I0918 01:54:01.726207 14610 net.cpp:91] Creating Layer inception_4b/pool_proj
2016-09-18 01:54:01.756 STDERR [INFO] I0918 01:54:01.726210 14610 net.cpp:425] inception_4b/pool_proj <- inception_4b/pool
2016-09-18 01:54:01.756 STDERR [INFO] I0918 01:54:01.726225 14610 net.cpp:399] inception_4b/pool_proj -> inception_4b/pool_proj
2016-09-18 01:54:01.756 STDERR [INFO] I0918 01:54:01.726521 14610 net.cpp:141] Setting up inception_4b/pool_proj
2016-09-18 01:54:01.756 STDERR [INFO] I0918 01:54:01.726526 14610 net.cpp:148] Top shape: 10 64 14 14 (125440)
2016-09-18 01:54:01.757 STDERR [INFO] I0918 01:54:01.726529 14610 net.cpp:156] Memory required for data: 403289600
2016-09-18 01:54:01.757 STDERR [INFO] I0918 01:54:01.726536 14610 layer_factory.hpp:77] Creating layer inception_4b/relu_pool_proj
2016-09-18 01:54:01.757 STDERR [INFO] I0918 01:54:01.726543 14610 net.cpp:91] Creating Layer inception_4b/relu_pool_proj
2016-09-18 01:54:01.757 STDERR [INFO] I0918 01:54:01.726547 14610 net.cpp:425] inception_4b/relu_pool_proj <- inception_4b/pool_proj
2016-09-18 01:54:01.757 STDERR [INFO] I0918 01:54:01.726552 14610 net.cpp:386] inception_4b/relu_pool_proj -> inception_4b/pool_proj (in-place)
2016-09-18 01:54:01.757 STDERR [INFO] I0918 01:54:01.726557 14610 net.cpp:141] Setting up inception_4b/relu_pool_proj
2016-09-18 01:54:01.757 STDERR [INFO] I0918 01:54:01.726560 14610 net.cpp:148] Top shape: 10 64 14 14 (125440)
2016-09-18 01:54:01.757 STDERR [INFO] I0918 01:54:01.726563 14610 net.cpp:156] Memory required for data: 403791360
2016-09-18 01:54:01.757 STDERR [INFO] I0918 01:54:01.726567 14610 layer_factory.hpp:77] Creating layer inception_4b/output
2016-09-18 01:54:01.757 STDERR [INFO] I0918 01:54:01.726572 14610 net.cpp:91] Creating Layer inception_4b/output
2016-09-18 01:54:01.757 STDERR [INFO] I0918 01:54:01.726575 14610 net.cpp:425] inception_4b/output <- inception_4b/1x1
2016-09-18 01:54:01.757 STDERR [INFO] I0918 01:54:01.726579 14610 net.cpp:425] inception_4b/output <- inception_4b/3x3
2016-09-18 01:54:01.757 STDERR [INFO] I0918 01:54:01.726583 14610 net.cpp:425] inception_4b/output <- inception_4b/5x5
2016-09-18 01:54:01.757 STDERR [INFO] I0918 01:54:01.726586 14610 net.cpp:425] inception_4b/output <- inception_4b/pool_proj
2016-09-18 01:54:01.757 STDERR [INFO] I0918 01:54:01.726591 14610 net.cpp:399] inception_4b/output -> inception_4b/output
2016-09-18 01:54:01.757 STDERR [INFO] I0918 01:54:01.726598 14610 net.cpp:141] Setting up inception_4b/output
2016-09-18 01:54:01.757 STDERR [INFO] I0918 01:54:01.726603 14610 net.cpp:148] Top shape: 10 512 14 14 (1003520)
2016-09-18 01:54:01.757 STDERR [INFO] I0918 01:54:01.726606 14610 net.cpp:156] Memory required for data: 407805440
2016-09-18 01:54:01.757 STDERR [INFO] I0918 01:54:01.726609 14610 layer_factory.hpp:77] Creating layer inception_4b/output_inception_4b/output_0_split
2016-09-18 01:54:01.757 STDERR [INFO] I0918 01:54:01.726621 14610 net.cpp:91] Creating Layer inception_4b/output_inception_4b/output_0_split
…
2016-09-18 01:54:01.757 STDERR [INFO] I0918 01:54:01.726637 14610 net.cpp:399] inception_4b/output_inception_4b/output_0_split -> inception_4b/output_inception_4b/output_0_split_1
2016-09-18 01:54:01.757 STDERR [INFO] I0918 01:54:01.726642 14610 net.cpp:399] inception_4b/output_inception_4b/output_0_split -> inception_4b/output_inception_4b/output_0_split_2
2016-09-18 01:54:01.757 STDERR [INFO] I0918 01:54:01.726649 14610 net.cpp:399] inception_4b/output_inception_4b/output_0_split -> inception_4b/output_inception_4b/output_0_split_3
2016-09-18 01:54:01.757 STDERR [INFO] I0918 01:54:01.726655 14610 net.cpp:141] Setting up inception_4b/output_inception_4b/output_0_split
2016-09-18 01:54:01.757 STDERR [INFO] I0918 01:54:01.726660 14610 net.cpp:148] Top shape: 10 512 14 14 (1003520)
2016-09-18 01:54:01.758 STDERR [INFO] I0918 01:54:01.726663 14610 net.cpp:148] Top shape: 10 512 14 14 (1003520)
2016-09-18 01:54:01.758 STDERR [INFO] I0918 01:54:01.726667 14610 net.cpp:148] Top shape: 10 512 14 14 (1003520)
2016-09-18 01:54:01.758 STDERR [INFO] I0918 01:54:01.726826 14620 net.cpp:141] Setting up inception_4b/3x3_reduce
2016-09-18 01:54:01.758 STDERR [INFO] I0918 01:54:01.727401 14620 net.cpp:148] Top shape: 10 112 14 14 (219520)
2016-09-18 01:54:01.758 STDERR [INFO] I0918 01:54:01.727386 14610 net.cpp:148] Top shape: 10 512 14 14 (1003520)
2016-09-18 01:54:01.758 STDERR [INFO] I0918 01:54:01.727411 14620 net.cpp:156] Memory required for data: 393003520
2016-09-18 01:54:01.758 STDERR [INFO] I0918 01:54:01.726933 14608 net.cpp:141] Setting up inception_4b/3x3
2016-09-18 01:54:01.758 STDERR [INFO] I0918 01:54:01.727412 14610 net.cpp:156] Memory required for data: 423861760
2016-09-18 01:54:01.758 STDERR [INFO] I0918 01:54:01.727424 14620 layer_factory.hpp:77] Creating layer inception_4b/relu_3x3_reduce
2016-09-18 01:54:01.758 STDERR [INFO] I0918 01:54:01.727432 14610 layer_factory.hpp:77] Creating layer inception_4c/1x1
2016-09-18 01:54:01.758 STDERR [INFO] I0918 01:54:01.727434 14608 net.cpp:148] Top shape: 10 224 14 14 (439040)
2016-09-18 01:54:01.758 STDERR [INFO] I0918 01:54:01.727440 14620 net.cpp:91] Creating Layer inception_4b/relu_3x3_reduce
2016-09-18 01:54:01.758 STDERR [INFO] I0918 01:54:01.727445 14610 net.cpp:91] Creating Layer inception_4c/1x1
2016-09-18 01:54:01.758 STDERR [INFO] I0918 01:54:01.727449 14610 net.cpp:425] inception_4c/1x1 <- inception_4b/output_inception_4b/output_0_split_0
…
2016-09-18 01:54:01.759 STDERR [INFO] I0918 01:54:01.727465 14620 net.cpp:386] inception_4b/relu_3x3_reduce -> inception_4b/3x3_reduce (in-place)
2016-09-18 01:54:01.759 STDERR [INFO] I0918 01:54:01.727474 14608 net.cpp:91] Creating Layer inception_4b/relu_3x3
2016-09-18 01:54:01.759 STDERR [INFO] I0918 01:54:01.727478 14620 net.cpp:141] Setting up inception_4b/relu_3x3_reduce
2016-09-18 01:54:01.759 STDERR [INFO] I0918 01:54:01.727480 14608 net.cpp:425] inception_4b/relu_3x3 <- inception_4b/3x3
2016-09-18 01:54:01.759 STDERR [INFO] I0918 01:54:01.727486 14608 net.cpp:386] inception_4b/relu_3x3 -> inception_4b/3x3 (in-place)
2016-09-18 01:54:01.759 STDERR [INFO] I0918 01:54:01.727486 14620 net.cpp:148] Top shape: 10 112 14 14 (219520)
2016-09-18 01:54:01.759 STDERR [INFO] I0918 01:54:01.727499 14608 net.cpp:141] Setting up inception_4b/relu_3x3
2016-09-18 01:54:01.759 STDERR [INFO] I0918 01:54:01.727502 14620 net.cpp:156] Memory required for data: 393881600
2016-09-18 01:54:01.759 STDERR [INFO] I0918 01:54:01.727505 14608 net.cpp:148] Top shape: 10 224 14 14 (439040)
2016-09-18 01:54:01.759 STDERR [INFO] I0918 01:54:01.727510 14608 net.cpp:156] Memory required for data: 397393920
2016-09-18 01:54:01.759 STDERR [INFO] I0918 01:54:01.727510 14620 layer_factory.hpp:77] Creating layer inception_4b/3x3
2016-09-18 01:54:01.759 STDERR [INFO] I0918 01:54:01.727519 14608 layer_factory.hpp:77] Creating layer inception_4b/5x5_reduce
2016-09-18 01:54:01.759 STDERR [INFO] I0918 01:54:01.727546 14620 net.cpp:91] Creating Layer inception_4b/3x3
2016-09-18 01:54:01.759 STDERR [INFO] I0918 01:54:01.727555 14620 net.cpp:425] inception_4b/3x3 <- inception_4b/3x3_reduce
2016-09-18 01:54:01.759 STDERR [INFO] I0918 01:54:01.727563 14620 net.cpp:399] inception_4b/3x3 -> inception_4b/3x3
2016-09-18 01:54:01.759 STDERR [INFO] I0918 01:54:01.727576 14608 net.cpp:91] Creating Layer inception_4b/5x5_reduce
2016-09-18 01:54:01.759 STDERR [INFO] I0918 01:54:01.727581 14608 net.cpp:425] inception_4b/5x5_reduce <- inception_4a/output_inception_4a/output_0_split_2
2016-09-18 01:54:01.759 STDERR [INFO] I0918 01:54:01.727588 14608 net.cpp:399] inception_4b/5x5_reduce -> inception_4b/5x5_reduce
2016-09-18 01:54:01.759 STDERR [INFO] I0918 01:54:01.727751 14608 net.cpp:141] Setting up inception_4b/5x5_reduce
2016-09-18 01:54:01.760 STDERR [INFO] I0918 01:54:01.727757 14608 net.cpp:148] Top shape: 10 24 14 14 (47040)
2016-09-18 01:54:01.760 STDERR [INFO] I0918 01:54:01.727761 14608 net.cpp:156] Memory required for data: 397582080
2016-09-18 01:54:01.760 STDERR [INFO] I0918 01:54:01.727767 14608 layer_factory.hpp:77] Creating layer inception_4b/relu_5x5_reduce
2016-09-18 01:54:01.760 STDERR [INFO] I0918 01:54:01.727778 14608 net.cpp:91] Creating Layer inception_4b/relu_5x5_reduce
2016-09-18 01:54:01.760 STDERR [INFO] I0918 01:54:01.727782 14608 net.cpp:425] inception_4b/relu_5x5_reduce <- inception_4b/5x5_reduce
2016-09-18 01:54:01.760 STDERR [INFO] I0918 01:54:01.727787 14608 net.cpp:386] inception_4b/relu_5x5_reduce -> inception_4b/5x5_reduce (in-place)
2016-09-18 01:54:01.760 STDERR [INFO] I0918 01:54:01.727793 14608 net.cpp:141] Setting up inception_4b/relu_5x5_reduce
2016-09-18 01:54:01.760 STDERR [INFO] I0918 01:54:01.727807 14608 net.cpp:148] Top shape: 10 24 14 14 (47040)
2016-09-18 01:54:01.760 STDERR [INFO] I0918 01:54:01.727812 14608 net.cpp:156] Memory required for data: 397770240
2016-09-18 01:54:01.760 STDERR [INFO] I0918 01:54:01.727814 14608 layer_factory.hpp:77] Creating layer inception_4b/5x5
2016-09-18 01:54:01.760 STDERR [INFO] I0918 01:54:01.727825 14608 net.cpp:91] Creating Layer inception_4b/5x5
2016-09-18 01:54:01.760 STDERR [INFO] I0918 01:54:01.727828 14608 net.cpp:425] inception_4b/5x5 <- inception_4b/5x5_reduce
2016-09-18 01:54:01.760 STDERR [INFO] I0918 01:54:01.727834 14608 net.cpp:399] inception_4b/5x5 -> inception_4b/5x5
2016-09-18 01:54:01.760 STDERR [INFO] I0918 01:54:01.728092 14610 net.cpp:141] Setting up inception_4c/1x1
2016-09-18 01:54:01.760 STDERR [INFO] I0918 01:54:01.728101 14610 net.cpp:148] Top shape: 10 128 14 14 (250880)
2016-09-18 01:54:01.760 STDERR [INFO] I0918 01:54:01.728103 14610 net.cpp:156] Memory required for data: 424865280
2016-09-18 01:54:01.760 STDERR [INFO] I0918 01:54:01.728111 14610 layer_factory.hpp:77] Creating layer inception_4c/relu_1x1
2016-09-18 01:54:01.760 STDERR [INFO] I0918 01:54:01.728116 14610 net.cpp:91] Creating Layer inception_4c/relu_1x1
2016-09-18 01:54:01.760 STDERR [INFO] I0918 01:54:01.728121 14610 net.cpp:425] inception_4c/relu_1x1 <- inception_4c/1x1
2016-09-18 01:54:01.760 STDERR [INFO] I0918 01:54:01.728133 14610 net.cpp:386] inception_4c/relu_1x1 -> inception_4c/1x1 (in-place)
2016-09-18 01:54:01.760 STDERR [INFO] I0918 01:54:01.728139 14610 net.cpp:141] Setting up inception_4c/relu_1x1
2016-09-18 01:54:01.760 STDERR [INFO] I0918 01:54:01.728144 14610 net.cpp:148] Top shape: 10 128 14 14 (250880)
2016-09-18 01:54:01.760 STDERR [INFO] I0918 01:54:01.728147 14610 net.cpp:156] Memory required for data: 425868800
2016-09-18 01:54:01.760 STDERR [INFO] I0918 01:54:01.728150 14610 layer_factory.hpp:77] Creating layer inception_4c/3x3_reduce
2016-09-18 01:54:01.760 STDERR [INFO] I0918 01:54:01.728162 14610 net.cpp:91] Creating Layer inception_4c/3x3_reduce
2016-09-18 01:54:01.760 STDERR [INFO] I0918 01:54:01.728165 14610 net.cpp:425] inception_4c/3x3_reduce <- inception_4b/output_inception_4b/output_0_split_1
2016-09-18 01:54:01.760 STDERR [INFO] I0918 01:54:01.728170 14610 net.cpp:399] inception_4c/3x3_reduce -> inception_4c/3x3_reduce
2016-09-18 01:54:01.761 STDERR [INFO] I0918 01:54:01.728205 14608 net.cpp:141] Setting up inception_4b/5x5
2016-09-18 01:54:01.761 STDERR [INFO] I0918 01:54:01.728214 14608 net.cpp:148] Top shape: 10 64 14 14 (125440)
2016-09-18 01:54:01.761 STDERR [INFO] I0918 01:54:01.728216 14608 net.cpp:156] Memory required for data: 398272000
2016-09-18 01:54:01.761 STDERR [INFO] I0918 01:54:01.728224 14608 layer_factory.hpp:77] Creating layer inception_4b/relu_5x5
2016-09-18 01:54:01.761 STDERR [INFO] I0918 01:54:01.728229 14608 net.cpp:91] Creating Layer inception_4b/relu_5x5
2016-09-18 01:54:01.761 STDERR [INFO] I0918 01:54:01.728232 14608 net.cpp:425] inception_4b/relu_5x5 <- inception_4b/5x5
2016-09-18 01:54:01.761 STDERR [INFO] I0918 01:54:01.728236 14608 net.cpp:386] inception_4b/relu_5x5 -> inception_4b/5x5 (in-place)
2016-09-18 01:54:01.761 STDERR [INFO] I0918 01:54:01.728242 14608 net.cpp:141] Setting up inception_4b/relu_5x5
…
2016-09-18 01:54:01.802 STDERR [INFO] I0918 01:54:01.795609 14620 net.cpp:425] inception_5a/relu_5x5_reduce <- inception_5a/5x5_reduce
2016-09-18 01:54:01.802 STDERR [INFO] I0918 01:54:01.795614 14620 net.cpp:386] inception_5a/relu_5x5_reduce -> inception_5a/5x5_reduce (in-place)
2016-09-18 01:54:01.802 STDERR [INFO] I0918 01:54:01.795621 14620 net.cpp:141] Setting up inception_5a/relu_5x5_reduce
2016-09-18 01:54:01.802 STDERR [INFO] I0918 01:54:01.795626 14620 net.cpp:148] Top shape: 10 32 7 7 (15680)
2016-09-18 01:54:01.802 STDERR [INFO] I0918 01:54:01.795629 14620 net.cpp:156] Memory required for data: 531991040
2016-09-18 01:54:01.802 STDERR [INFO] I0918 01:54:01.795632 14620 layer_factory.hpp:77] Creating layer inception_5a/5x5
2016-09-18 01:54:01.802 STDERR [INFO] I0918 01:54:01.795651 14620 net.cpp:91] Creating Layer inception_5a/5x5
2016-09-18 01:54:01.802 STDERR [INFO] I0918 01:54:01.795655 14620 net.cpp:425] inception_5a/5x5 <- inception_5a/5x5_reduce
2016-09-18 01:54:01.802 STDERR [INFO] I0918 01:54:01.795661 14620 net.cpp:399] inception_5a/5x5 -> inception_5a/5x5
2016-09-18 01:54:01.802 STDERR [INFO] I0918 01:54:01.796169 14610 net.cpp:141] Setting up inception_5b/1x1
2016-09-18 01:54:01.802 STDERR [INFO] I0918 01:54:01.796186 14610 net.cpp:148] Top shape: 10 384 7 7 (188160)
2016-09-18 01:54:01.802 STDERR [INFO] I0918 01:54:01.796192 14610 net.cpp:156] Memory required for data: 543531520
2016-09-18 01:54:01.802 STDERR [INFO] I0918 01:54:01.796205 14610 layer_factory.hpp:77] Creating layer inception_5b/relu_1x1
2016-09-18 01:54:01.802 STDERR [INFO] I0918 01:54:01.796214 14610 net.cpp:91] Creating Layer inception_5b/relu_1x1
2016-09-18 01:54:01.802 STDERR [INFO] I0918 01:54:01.796222 14610 net.cpp:425] inception_5b/relu_1x1 <- inception_5b/1x1
2016-09-18 01:54:01.802 STDERR [INFO] I0918 01:54:01.796233 14610 net.cpp:386] inception_5b/relu_1x1 -> inception_5b/1x1 (in-place)
2016-09-18 01:54:01.802 STDERR [INFO] I0918 01:54:01.796243 14610 net.cpp:141] Setting up inception_5b/relu_1x1
2016-09-18 01:54:01.802 STDERR [INFO] I0918 01:54:01.796252 14610 net.cpp:148] Top shape: 10 384 7 7 (188160)
2016-09-18 01:54:01.802 STDERR [INFO] I0918 01:54:01.796255 14610 net.cpp:156] Memory required for data: 544284160
2016-09-18 01:54:01.802 STDERR [INFO] I0918 01:54:01.796260 14610 layer_factory.hpp:77] Creating layer inception_5b/3x3_reduce
2016-09-18 01:54:01.802 STDERR [INFO] I0918 01:54:01.796274 14610 net.cpp:91] Creating Layer inception_5b/3x3_reduce
2016-09-18 01:54:01.802 STDERR [INFO] I0918 01:54:01.796280 14610 net.cpp:425] inception_5b/3x3_reduce <- inception_5a/output_inception_5a/output_0_split_1
2016-09-18 01:54:01.802 STDERR [INFO] I0918 01:54:01.796293 14610 net.cpp:399] inception_5b/3x3_reduce -> inception_5b/3x3_reduce
2016-09-18 01:54:01.802 STDERR [INFO] I0918 01:54:01.796586 14620 net.cpp:141] Setting up inception_5a/5x5
2016-09-18 01:54:01.802 STDERR [INFO] I0918 01:54:01.796596 14620 net.cpp:148] Top shape: 10 128 7 7 (62720)
2016-09-18 01:54:01.802 STDERR [INFO] I0918 01:54:01.796598 14620 net.cpp:156] Memory required for data: 532241920
2016-09-18 01:54:01.802 STDERR [INFO] I0918 01:54:01.796604 14620 layer_factory.hpp:77] Creating layer inception_5a/relu_5x5
2016-09-18 01:54:01.802 STDERR [INFO] I0918 01:54:01.796634 14620 net.cpp:91] Creating Layer inception_5a/relu_5x5
2016-09-18 01:54:01.802 STDERR [INFO] I0918 01:54:01.796639 14620 net.cpp:425] inception_5a/relu_5x5 <- inception_5a/5x5
2016-09-18 01:54:01.802 STDERR [INFO] I0918 01:54:01.796643 14620 net.cpp:386] inception_5a/relu_5x5 -> inception_5a/5x5 (in-place)
2016-09-18 01:54:01.802 STDERR [INFO] I0918 01:54:01.796649 14620 net.cpp:141] Setting up inception_5a/relu_5x5
2016-09-18 01:54:01.802 STDERR [INFO] I0918 01:54:01.796654 14620 net.cpp:148] Top shape: 10 128 7 7 (62720)
2016-09-18 01:54:01.802 STDERR [INFO] I0918 01:54:01.796658 14620 net.cpp:156] Memory required for data: 532492800
2016-09-18 01:54:01.802 STDERR [INFO] I0918 01:54:01.796660 14620 layer_factory.hpp:77] Creating layer inception_5a/pool
2016-09-18 01:54:01.802 STDERR [INFO] I0918 01:54:01.796666 14620 net.cpp:91] Creating Layer inception_5a/pool
2016-09-18 01:54:01.802 STDERR [INFO] I0918 01:54:01.796670 14620 net.cpp:425] inception_5a/pool <- pool4/3x3_s2_pool4/3x3_s2_0_split_3
2016-09-18 01:54:01.802 STDERR [INFO] I0918 01:54:01.796684 14620 net.cpp:399] inception_5a/pool -> inception_5a/pool
2016-09-18 01:54:01.802 STDERR [INFO] I0918 01:54:01.796700 14620 net.cpp:141] Setting up inception_5a/pool
2016-09-18 01:54:01.802 STDERR [INFO] I0918 01:54:01.796705 14620 net.cpp:148] Top shape: 10 832 7 7 (407680)
2016-09-18 01:54:01.802 STDERR [INFO] I0918 01:54:01.796707 14620 net.cpp:156] Memory required for data: 534123520
2016-09-18 01:54:01.802 STDERR [INFO] I0918 01:54:01.796710 14620 layer_factory.hpp:77] Creating layer inception_5a/pool_proj
2016-09-18 01:54:01.802 STDERR [INFO] I0918 01:54:01.796721 14620 net.cpp:91] Creating Layer inception_5a/pool_proj
2016-09-18 01:54:01.802 STDERR [INFO] I0918 01:54:01.796725 14620 net.cpp:425] inception_5a/pool_proj <- inception_5a/pool
2016-09-18 01:54:01.802 STDERR [INFO] I0918 01:54:01.796733 14620 net.cpp:399] inception_5a/pool_proj -> inception_5a/pool_proj
2016-09-18 01:54:01.802 STDERR [INFO] I0918 01:54:01.797886 14620 net.cpp:141] Setting up inception_5a/pool_proj
2016-09-18 01:54:01.802 STDERR [INFO] I0918 01:54:01.797900 14620 net.cpp:148] Top shape: 10 128 7 7 (62720)
2016-09-18 01:54:01.802 STDERR [INFO] I0918 01:54:01.797907 14620 net.cpp:156] Memory required for data: 534374400
2016-09-18 01:54:01.802 STDERR [INFO] I0918 01:54:01.797916 14620 layer_factory.hpp:77] Creating layer inception_5a/relu_pool_proj
2016-09-18 01:54:01.802 STDERR [INFO] I0918 01:54:01.797925 14620 net.cpp:91] Creating Layer inception_5a/relu_pool_proj
2016-09-18 01:54:01.802 STDERR [INFO] I0918 01:54:01.797932 14620 net.cpp:425] inception_5a/relu_pool_proj <- inception_5a/pool_proj
2016-09-18 01:54:01.803 STDERR [INFO] I0918 01:54:01.797940 14620 net.cpp:386] inception_5a/relu_pool_proj -> inception_5a/pool_proj (in-place)
2016-09-18 01:54:01.803 STDERR [INFO] I0918 01:54:01.797951 14620 net.cpp:141] Setting up inception_5a/relu_pool_proj
2016-09-18 01:54:01.803 STDERR [INFO] I0918 01:54:01.797958 14620 net.cpp:148] Top shape: 10 128 7 7 (62720)
2016-09-18 01:54:01.803 STDERR [INFO] I0918 01:54:01.797962 14620 net.cpp:156] Memory required for data: 534625280
2016-09-18 01:54:01.803 STDERR [INFO] I0918 01:54:01.797967 14620 layer_factory.hpp:77] Creating layer inception_5a/output
2016-09-18 01:54:01.803 STDERR [INFO] I0918 01:54:01.797976 14620 net.cpp:91] Creating Layer inception_5a/output
2016-09-18 01:54:01.803 STDERR [INFO] I0918 01:54:01.797981 14620 net.cpp:425] inception_5a/output <- inception_5a/1x1
2016-09-18 01:54:01.803 STDERR [INFO] I0918 01:54:01.797987 14620 net.cpp:425] inception_5a/output <- inception_5a/3x3
2016-09-18 01:54:01.803 STDERR [INFO] I0918 01:54:01.797993 14620 net.cpp:425] inception_5a/output <- inception_5a/5x5
2016-09-18 01:54:01.803 STDERR [INFO] I0918 01:54:01.797998 14620 net.cpp:425] inception_5a/output <- inception_5a/pool_proj
2016-09-18 01:54:01.803 STDERR [INFO] I0918 01:54:01.798007 14620 net.cpp:399] inception_5a/output -> inception_5a/output
2016-09-18 01:54:01.803 STDERR [INFO] I0918 01:54:01.798018 14620 net.cpp:141] Setting up inception_5a/output
2016-09-18 01:54:01.803 STDERR [INFO] I0918 01:54:01.798025 14620 net.cpp:148] Top shape: 10 832 7 7 (407680)
2016-09-18 01:54:01.803 STDERR [INFO] I0918 01:54:01.798029 14620 net.cpp:156] Memory required for data: 536256000
2016-09-18 01:54:01.803 STDERR [INFO] I0918 01:54:01.798034 14620 layer_factory.hpp:77] Creating layer inception_5a/output_inception_5a/output_0_split
2016-09-18 01:54:01.803 STDERR [INFO] I0918 01:54:01.798043 14620 net.cpp:91] Creating Layer inception_5a/output_inception_5a/output_0_split
…
2016-09-18 01:54:01.803 STDERR [INFO] I0918 01:54:01.798070 14620 net.cpp:399] inception_5a/output_inception_5a/output_0_split -> inception_5a/output_inception_5a/output_0_split_1
2016-09-18 01:54:01.803 STDERR [INFO] I0918 01:54:01.798079 14620 net.cpp:399] inception_5a/output_inception_5a/output_0_split -> inception_5a/output_inception_5a/output_0_split_2
2016-09-18 01:54:01.803 STDERR [INFO] I0918 01:54:01.798089 14620 net.cpp:399] inception_5a/output_inception_5a/output_0_split -> inception_5a/output_inception_5a/output_0_split_3
2016-09-18 01:54:01.803 STDERR [INFO] I0918 01:54:01.798102 14620 net.cpp:141] Setting up inception_5a/output_inception_5a/output_0_split
2016-09-18 01:54:01.803 STDERR [INFO] I0918 01:54:01.798110 14620 net.cpp:148] Top shape: 10 832 7 7 (407680)
2016-09-18 01:54:01.803 STDERR [INFO] I0918 01:54:01.798115 14620 net.cpp:148] Top shape: 10 832 7 7 (407680)
2016-09-18 01:54:01.803 STDERR [INFO] I0918 01:54:01.798121 14620 net.cpp:148] Top shape: 10 832 7 7 (407680)
2016-09-18 01:54:01.803 STDERR [INFO] I0918 01:54:01.798127 14620 net.cpp:148] Top shape: 10 832 7 7 (407680)
2016-09-18 01:54:01.803 STDERR [INFO] I0918 01:54:01.798135 14620 net.cpp:156] Memory required for data: 542778880
2016-09-18 01:54:01.803 STDERR [INFO] I0918 01:54:01.798141 14620 layer_factory.hpp:77] Creating layer inception_5b/1x1
2016-09-18 01:54:01.803 STDERR [INFO] I0918 01:54:01.798156 14620 net.cpp:91] Creating Layer inception_5b/1x1
2016-09-18 01:54:01.803 STDERR [INFO] I0918 01:54:01.798161 14620 net.cpp:425] inception_5b/1x1 <- inception_5a/output_inception_5a/output_0_split_0
2016-09-18 01:54:01.803 STDERR [INFO] I0918 01:54:01.798171 14620 net.cpp:399] inception_5b/1x1 -> inception_5b/1x1
2016-09-18 01:54:01.803 STDERR [INFO] I0918 01:54:01.798264 14608 net.cpp:141] Setting up inception_5b/1x1
2016-09-18 01:54:01.803 STDERR [INFO] I0918 01:54:01.798274 14608 net.cpp:148] Top shape: 10 384 7 7 (188160)
2016-09-18 01:54:01.803 STDERR [INFO] I0918 01:54:01.798277 14608 net.cpp:156] Memory required for data: 543531520
2016-09-18 01:54:01.803 STDERR [INFO] I0918 01:54:01.798285 14608 layer_factory.hpp:77] Creating layer inception_5b/relu_1x1
2016-09-18 01:54:01.803 STDERR [INFO] I0918 01:54:01.798296 14608 net.cpp:91] Creating Layer inception_5b/relu_1x1
2016-09-18 01:54:01.803 STDERR [INFO] I0918 01:54:01.798302 14608 net.cpp:425] inception_5b/relu_1x1 <- inception_5b/1x1
2016-09-18 01:54:01.803 STDERR [INFO] I0918 01:54:01.798306 14608 net.cpp:386] inception_5b/relu_1x1 -> inception_5b/1x1 (in-place)
2016-09-18 01:54:01.803 STDERR [INFO] I0918 01:54:01.798312 14608 net.cpp:141] Setting up inception_5b/relu_1x1
2016-09-18 01:54:01.804 STDERR [INFO] I0918 01:54:01.798317 14608 net.cpp:148] Top shape: 10 384 7 7 (188160)
2016-09-18 01:54:01.804 STDERR [INFO] I0918 01:54:01.798319 14608 net.cpp:156] Memory required for data: 544284160
2016-09-18 01:54:01.804 STDERR [INFO] I0918 01:54:01.798323 14608 layer_factory.hpp:77] Creating layer inception_5b/3x3_reduce
2016-09-18 01:54:01.804 STDERR [INFO] I0918 01:54:01.798336 14608 net.cpp:91] Creating Layer inception_5b/3x3_reduce
2016-09-18 01:54:01.804 STDERR [INFO] I0918 01:54:01.798341 14608 net.cpp:425] inception_5b/3x3_reduce <- inception_5a/output_inception_5a/output_0_split_1
2016-09-18 01:54:01.804 STDERR [INFO] I0918 01:54:01.798348 14608 net.cpp:399] inception_5b/3x3_reduce -> inception_5b/3x3_reduce
2016-09-18 01:54:01.804 STDERR [INFO] I0918 01:54:01.798995 14610 net.cpp:141] Setting up inception_5b/3x3_reduce
2016-09-18 01:54:01.804 STDERR [INFO] I0918 01:54:01.799011 14610 net.cpp:148] Top shape: 10 192 7 7 (94080)
2016-09-18 01:54:01.804 STDERR [INFO] I0918 01:54:01.799017 14610 net.cpp:156] Memory required for data: 544660480
2016-09-18 01:54:01.804 STDERR [INFO] I0918 01:54:01.799029 14610 layer_factory.hpp:77] Creating layer inception_5b/relu_3x3_reduce
2016-09-18 01:54:01.804 STDERR [INFO] I0918 01:54:01.799041 14610 net.cpp:91] Creating Layer inception_5b/relu_3x3_reduce
2016-09-18 01:54:01.804 STDERR [INFO] I0918 01:54:01.799047 14610 net.cpp:425] inception_5b/relu_3x3_reduce <- inception_5b/3x3_reduce
2016-09-18 01:54:01.804 STDERR [INFO] I0918 01:54:01.799058 14610 net.cpp:386] inception_5b/relu_3x3_reduce -> inception_5b/3x3_reduce (in-place)
2016-09-18 01:54:01.804 STDERR [INFO] I0918 01:54:01.799069 14610 net.cpp:141] Setting up inception_5b/relu_3x3_reduce
2016-09-18 01:54:01.804 STDERR [INFO] I0918 01:54:01.799077 14610 net.cpp:148] Top shape: 10 192 7 7 (94080)
2016-09-18 01:54:01.804 STDERR [INFO] I0918 01:54:01.799082 14610 net.cpp:156] Memory required for data: 545036800
2016-09-18 01:54:01.804 STDERR [INFO] I0918 01:54:01.799088 14610 layer_factory.hpp:77] Creating layer inception_5b/3x3
2016-09-18 01:54:01.804 STDERR [INFO] I0918 01:54:01.799109 14610 net.cpp:91] Creating Layer inception_5b/3x3
2016-09-18 01:54:01.804 STDERR [INFO] I0918 01:54:01.799115 14610 net.cpp:425] inception_5b/3x3 <- inception_5b/3x3_reduce
2016-09-18 01:54:01.804 STDERR [INFO] I0918 01:54:01.799125 14610 net.cpp:399] inception_5b/3x3 -> inception_5b/3x3
2016-09-18 01:54:01.804 STDERR [INFO] I0918 01:54:01.799760 14608 net.cpp:141] Setting up inception_5b/3x3_reduce
2016-09-18 01:54:01.804 STDERR [INFO] I0918 01:54:01.799768 14608 net.cpp:148] Top shape: 10 192 7 7 (94080)
2016-09-18 01:54:01.804 STDERR [INFO] I0918 01:54:01.799772 14608 net.cpp:156] Memory required for data: 544660480
2016-09-18 01:54:01.804 STDERR [INFO] I0918 01:54:01.799778 14608 layer_factory.hpp:77] Creating layer inception_5b/relu_3x3_reduce
2016-09-18 01:54:01.805 STDERR [INFO] I0918 01:54:01.799784 14608 net.cpp:91] Creating Layer inception_5b/relu_3x3_reduce
2016-09-18 01:54:01.805 STDERR [INFO] I0918 01:54:01.799789 14608 net.cpp:425] inception_5b/relu_3x3_reduce <- inception_5b/3x3_reduce
2016-09-18 01:54:01.805 STDERR [INFO] I0918 01:54:01.799795 14608 net.cpp:386] inception_5b/relu_3x3_reduce -> inception_5b/3x3_reduce (in-place)
2016-09-18 01:54:01.805 STDERR [INFO] I0918 01:54:01.799808 14608 net.cpp:141] Setting up inception_5b/relu_3x3_reduce
2016-09-18 01:54:01.805 STDERR [INFO] I0918 01:54:01.799813 14608 net.cpp:148] Top shape: 10 192 7 7 (94080)
2016-09-18 01:54:01.805 STDERR [INFO] I0918 01:54:01.799815 14608 net.cpp:156] Memory required for data: 545036800
2016-09-18 01:54:01.805 STDERR [INFO] I0918 01:54:01.799818 14608 layer_factory.hpp:77] Creating layer inception_5b/3x3
2016-09-18 01:54:01.805 STDERR [INFO] I0918 01:54:01.799827 14608 net.cpp:91] Creating Layer inception_5b/3x3
2016-09-18 01:54:01.805 STDERR [INFO] I0918 01:54:01.799831 14608 net.cpp:425] inception_5b/3x3 <- inception_5b/3x3_reduce
2016-09-18 01:54:01.805 STDERR [INFO] I0918 01:54:01.799845 14608 net.cpp:399] inception_5b/3x3 -> inception_5b/3x3
2016-09-18 01:54:01.805 STDERR [INFO] I0918 01:54:01.801404 14620 net.cpp:141] Setting up inception_5b/1x1
2016-09-18 01:54:01.805 STDERR [INFO] I0918 01:54:01.801415 14620 net.cpp:148] Top shape: 10 384 7 7 (188160)
2016-09-18 01:54:01.805 STDERR [INFO] I0918 01:54:01.801419 14620 net.cpp:156] Memory required for data: 543531520
2016-09-18 01:54:01.805 STDERR [INFO] I0918 01:54:01.801426 14620 layer_factory.hpp:77] Creating layer inception_5b/relu_1x1
2016-09-18 01:54:01.805 STDERR [INFO] I0918 01:54:01.801434 14620 net.cpp:91] Creating Layer inception_5b/relu_1x1
2016-09-18 01:54:01.805 STDERR [INFO] I0918 01:54:01.801437 14620 net.cpp:425] inception_5b/relu_1x1 <- inception_5b/1x1
2016-09-18 01:54:01.805 STDERR [INFO] I0918 01:54:01.801443 14620 net.cpp:386] inception_5b/relu_1x1 -> inception_5b/1x1 (in-place)
2016-09-18 01:54:01.805 STDERR [INFO] I0918 01:54:01.801450 14620 net.cpp:141] Setting up inception_5b/relu_1x1
2016-09-18 01:54:01.805 STDERR [INFO] I0918 01:54:01.801453 14620 net.cpp:148] Top shape: 10 384 7 7 (188160)
2016-09-18 01:54:01.805 STDERR [INFO] I0918 01:54:01.801456 14620 net.cpp:156] Memory required for data: 544284160
2016-09-18 01:54:01.805 STDERR [INFO] I0918 01:54:01.801460 14620 layer_factory.hpp:77] Creating layer inception_5b/3x3_reduce
2016-09-18 01:54:01.805 STDERR [INFO] I0918 01:54:01.801472 14620 net.cpp:91] Creating Layer inception_5b/3x3_reduce
2016-09-18 01:54:01.805 STDERR [INFO] I0918 01:54:01.801477 14620 net.cpp:425] inception_5b/3x3_reduce <- inception_5a/output_inception_5a/output_0_split_1
2016-09-18 01:54:01.805 STDERR [INFO] I0918 01:54:01.801483 14620 net.cpp:399] inception_5b/3x3_reduce -> inception_5b/3x3_reduce
2016-09-18 01:54:01.805 STDERR [INFO] I0918 01:54:01.802858 14620 net.cpp:141] Setting up inception_5b/3x3_reduce
2016-09-18 01:54:01.805 STDERR [INFO] I0918 01:54:01.802866 14620 net.cpp:148] Top shape: 10 192 7 7 (94080)
2016-09-18 01:54:01.805 STDERR [INFO] I0918 01:54:01.802870 14620 net.cpp:156] Memory required for data: 544660480
2016-09-18 01:54:01.806 STDERR [INFO] I0918 01:54:01.802875 14620 layer_factory.hpp:77] Creating layer inception_5b/relu_3x3_reduce
2016-09-18 01:54:01.806 STDERR [INFO] I0918 01:54:01.802881 14620 net.cpp:91] Creating Layer inception_5b/relu_3x3_reduce
2016-09-18 01:54:01.806 STDERR [INFO] I0918 01:54:01.802886 14620 net.cpp:425] inception_5b/relu_3x3_reduce <- inception_5b/3x3_reduce
2016-09-18 01:54:01.806 STDERR [INFO] I0918 01:54:01.802893 14620 net.cpp:386] inception_5b/relu_3x3_reduce -> inception_5b/3x3_reduce (in-place)
2016-09-18 01:54:01.806 STDERR [INFO] I0918 01:54:01.802898 14620 net.cpp:141] Setting up inception_5b/relu_3x3_reduce
2016-09-18 01:54:01.806 STDERR [INFO] I0918 01:54:01.802903 14620 net.cpp:148] Top shape: 10 192 7 7 (94080)
2016-09-18 01:54:01.806 STDERR [INFO] I0918 01:54:01.802906 14620 net.cpp:156] Memory required for data: 545036800
2016-09-18 01:54:01.806 STDERR [INFO] I0918 01:54:01.802909 14620 layer_factory.hpp:77] Creating layer inception_5b/3x3
2016-09-18 01:54:01.806 STDERR [INFO] I0918 01:54:01.802918 14620 net.cpp:91] Creating Layer inception_5b/3x3
2016-09-18 01:54:01.806 STDERR [INFO] I0918 01:54:01.802922 14620 net.cpp:425] inception_5b/3x3 <- inception_5b/3x3_reduce
2016-09-18 01:54:01.806 STDERR [INFO] I0918 01:54:01.802927 14620 net.cpp:399] inception_5b/3x3 -> inception_5b/3x3
2016-09-18 01:54:01.806 STDERR [INFO] I0918 01:54:01.805567 14608 net.cpp:141] Setting up inception_5b/3x3
2016-09-18 01:54:01.806 STDERR [INFO] I0918 01:54:01.805591 14608 net.cpp:148] Top shape: 10 384 7 7 (188160)
2016-09-18 01:54:01.806 STDERR [INFO] I0918 01:54:01.805595 14608 net.cpp:156] Memory required for data: 545789440
2016-09-18 01:54:01.806 STDERR [INFO] I0918 01:54:01.805603 14608 layer_factory.hpp:77] Creating layer inception_5b/relu_3x3
2016-09-18 01:54:01.806 STDERR [INFO] I0918 01:54:01.805613 14608 net.cpp:91] Creating Layer inception_5b/relu_3x3
2016-09-18 01:54:01.806 STDERR [INFO] I0918 01:54:01.805619 14608 net.cpp:425] inception_5b/relu_3x3 <- inception_5b/3x3
2016-09-18 01:54:01.806 STDERR [INFO] I0918 01:54:01.805626 14608 net.cpp:386] inception_5b/relu_3x3 -> inception_5b/3x3 (in-place)
2016-09-18 01:54:01.806 STDERR [INFO] I0918 01:54:01.805634 14608 net.cpp:141] Setting up inception_5b/relu_3x3
2016-09-18 01:54:01.806 STDERR [INFO] I0918 01:54:01.805637 14608 net.cpp:148] Top shape: 10 384 7 7 (188160)
2016-09-18 01:54:01.806 STDERR [INFO] I0918 01:54:01.805640 14608 net.cpp:156] Memory required for data: 546542080
2016-09-18 01:54:01.806 STDERR [INFO] I0918 01:54:01.805644 14608 layer_factory.hpp:77] Creating layer inception_5b/5x5_reduce
2016-09-18 01:54:01.806 STDERR [INFO] I0918 01:54:01.805655 14608 net.cpp:91] Creating Layer inception_5b/5x5_reduce
2016-09-18 01:54:01.806 STDERR [INFO] I0918 01:54:01.805658 14608 net.cpp:425] inception_5b/5x5_reduce <- inception_5a/output_inception_5a/output_0_split_2
2016-09-18 01:54:01.806 STDERR [INFO] I0918 01:54:01.805666 14608 net.cpp:399] inception_5b/5x5_reduce -> inception_5b/5x5_reduce
2016-09-18 01:54:01.806 STDERR [INFO] I0918 01:54:01.806023 14608 net.cpp:141] Setting up inception_5b/5x5_reduce
2016-09-18 01:54:01.806 STDERR [INFO] I0918 01:54:01.806030 14608 net.cpp:148] Top shape: 10 48 7 7 (23520)
2016-09-18 01:54:01.806 STDERR [INFO] I0918 01:54:01.806032 14608 net.cpp:156] Memory required for data: 546636160
2016-09-18 01:54:01.806 STDERR [INFO] I0918 01:54:01.806038 14608 layer_factory.hpp:77] Creating layer inception_5b/relu_5x5_reduce
2016-09-18 01:54:01.806 STDERR [INFO] I0918 01:54:01.806046 14608 net.cpp:91] Creating Layer inception_5b/relu_5x5_reduce
2016-09-18 01:54:01.806 STDERR [INFO] I0918 01:54:01.806049 14608 net.cpp:425] inception_5b/relu_5x5_reduce <- inception_5b/5x5_reduce
2016-09-18 01:54:01.806 STDERR [INFO] I0918 01:54:01.806053 14608 net.cpp:386] inception_5b/relu_5x5_reduce -> inception_5b/5x5_reduce (in-place)
2016-09-18 01:54:01.806 STDERR [INFO] I0918 01:54:01.806058 14608 net.cpp:141] Setting up inception_5b/relu_5x5_reduce
2016-09-18 01:54:01.806 STDERR [INFO] I0918 01:54:01.806062 14608 net.cpp:148] Top shape: 10 48 7 7 (23520)
2016-09-18 01:54:01.807 STDERR [INFO] I0918 01:54:01.806066 14608 net.cpp:156] Memory required for data: 546730240
2016-09-18 01:54:01.807 STDERR [INFO] I0918 01:54:01.806068 14608 layer_factory.hpp:77] Creating layer inception_5b/5x5
2016-09-18 01:54:01.807 STDERR [INFO] I0918 01:54:01.806079 14608 net.cpp:91] Creating Layer inception_5b/5x5
2016-09-18 01:54:01.807 STDERR [INFO] I0918 01:54:01.806082 14608 net.cpp:425] inception_5b/5x5 <- inception_5b/5x5_reduce
2016-09-18 01:54:01.807 STDERR [INFO] I0918 01:54:01.806089 14608 net.cpp:399] inception_5b/5x5 -> inception_5b/5x5
2016-09-18 01:54:01.807 STDERR [INFO] I0918 01:54:01.807456 14608 net.cpp:141] Setting up inception_5b/5x5
2016-09-18 01:54:01.807 STDERR [INFO] I0918 01:54:01.807473 14608 net.cpp:148] Top shape: 10 128 7 7 (62720)
2016-09-18 01:54:01.807 STDERR [INFO] I0918 01:54:01.807477 14608 net.cpp:156] Memory required for data: 546981120
2016-09-18 01:54:01.807 STDERR [INFO] I0918 01:54:01.807484 14608 layer_factory.hpp:77] Creating layer inception_5b/relu_5x5
2016-09-18 01:54:01.807 STDERR [INFO] I0918 01:54:01.807492 14608 net.cpp:91] Creating Layer inception_5b/relu_5x5
2016-09-18 01:54:01.807 STDERR [INFO] I0918 01:54:01.807497 14608 net.cpp:425] inception_5b/relu_5x5 <- inception_5b/5x5
2016-09-18 01:54:01.807 STDERR [INFO] I0918 01:54:01.807502 14608 net.cpp:386] inception_5b/relu_5x5 -> inception_5b/5x5 (in-place)
2016-09-18 01:54:01.807 STDERR [INFO] I0918 01:54:01.807508 14608 net.cpp:141] Setting up inception_5b/relu_5x5
2016-09-18 01:54:01.807 STDERR [INFO] I0918 01:54:01.807512 14608 net.cpp:148] Top shape: 10 128 7 7 (62720)
2016-09-18 01:54:01.807 STDERR [INFO] I0918 01:54:01.807515 14608 net.cpp:156] Memory required for data: 547232000
2016-09-18 01:54:01.807 STDERR [INFO] I0918 01:54:01.807519 14608 layer_factory.hpp:77] Creating layer inception_5b/pool
2016-09-18 01:54:01.807 STDERR [INFO] I0918 01:54:01.807526 14608 net.cpp:91] Creating Layer inception_5b/pool
2016-09-18 01:54:01.807 STDERR [INFO] I0918 01:54:01.807531 14608 net.cpp:425] inception_5b/pool <- inception_5a/output_inception_5a/output_0_split_3
2016-09-18 01:54:01.807 STDERR [INFO] I0918 01:54:01.807540 14608 net.cpp:399] inception_5b/pool -> inception_5b/pool
2016-09-18 01:54:01.807 STDERR [INFO] I0918 01:54:01.807550 14608 net.cpp:141] Setting up inception_5b/pool
2016-09-18 01:54:01.807 STDERR [INFO] I0918 01:54:01.807555 14608 net.cpp:148] Top shape: 10 832 7 7 (407680)
2016-09-18 01:54:01.807 STDERR [INFO] I0918 01:54:01.807557 14608 net.cpp:156] Memory required for data: 548862720
2016-09-18 01:54:01.807 STDERR [INFO] I0918 01:54:01.807560 14608 layer_factory.hpp:77] Creating layer inception_5b/pool_proj
2016-09-18 01:54:01.807 STDERR [INFO] I0918 01:54:01.807571 14608 net.cpp:91] Creating Layer inception_5b/pool_proj
2016-09-18 01:54:01.808 STDERR [INFO] I0918 01:54:01.807575 14608 net.cpp:425] inception_5b/pool_proj <- inception_5b/pool
2016-09-18 01:54:01.808 STDERR [INFO] I0918 01:54:01.807582 14608 net.cpp:399] inception_5b/pool_proj -> inception_5b/pool_proj
2016-09-18 01:54:01.808 STDERR [INFO] I0918 01:54:01.807715 14610 net.cpp:141] Setting up inception_5b/3x3
2016-09-18 01:54:01.808 STDERR [INFO] I0918 01:54:01.807732 14610 net.cpp:148] Top shape: 10 384 7 7 (188160)
2016-09-18 01:54:01.808 STDERR [INFO] I0918 01:54:01.807737 14610 net.cpp:156] Memory required for data: 545789440
2016-09-18 01:54:01.808 STDERR [INFO] I0918 01:54:01.807749 14610 layer_factory.hpp:77] Creating layer inception_5b/relu_3x3
2016-09-18 01:54:01.808 STDERR [INFO] I0918 01:54:01.807760 14610 net.cpp:91] Creating Layer inception_5b/relu_3x3
2016-09-18 01:54:01.808 STDERR [INFO] I0918 01:54:01.807767 14610 net.cpp:425] inception_5b/relu_3x3 <- inception_5b/3x3
2016-09-18 01:54:01.808 STDERR [INFO] I0918 01:54:01.807775 14610 net.cpp:386] inception_5b/relu_3x3 -> inception_5b/3x3 (in-place)
2016-09-18 01:54:01.808 STDERR [INFO] I0918 01:54:01.807785 14610 net.cpp:141] Setting up inception_5b/relu_3x3
2016-09-18 01:54:01.808 STDERR [INFO] I0918 01:54:01.807792 14610 net.cpp:148] Top shape: 10 384 7 7 (188160)
2016-09-18 01:54:01.808 STDERR [INFO] I0918 01:54:01.807797 14610 net.cpp:156] Memory required for data: 546542080
2016-09-18 01:54:01.808 STDERR [INFO] I0918 01:54:01.807811 14610 layer_factory.hpp:77] Creating layer inception_5b/5x5_reduce
2016-09-18 01:54:01.808 STDERR [INFO] I0918 01:54:01.807828 14610 net.cpp:91] Creating Layer inception_5b/5x5_reduce
2016-09-18 01:54:01.808 STDERR [INFO] I0918 01:54:01.807835 14610 net.cpp:425] inception_5b/5x5_reduce <- inception_5a/output_inception_5a/output_0_split_2
2016-09-18 01:54:01.808 STDERR [INFO] I0918 01:54:01.807847 14610 net.cpp:399] inception_5b/5x5_reduce -> inception_5b/5x5_reduce
2016-09-18 01:54:01.808 STDERR [INFO] I0918 01:54:01.808365 14610 net.cpp:141] Setting up inception_5b/5x5_reduce
2016-09-18 01:54:01.808 STDERR [INFO] I0918 01:54:01.808382 14610 net.cpp:148] Top shape: 10 48 7 7 (23520)
2016-09-18 01:54:01.808 STDERR [INFO] I0918 01:54:01.808388 14610 net.cpp:156] Memory required for data: 546636160
2016-09-18 01:54:01.808 STDERR [INFO] I0918 01:54:01.808398 14610 layer_factory.hpp:77] Creating layer inception_5b/relu_5x5_reduce
2016-09-18 01:54:01.808 STDERR [INFO] I0918 01:54:01.808406 14610 net.cpp:91] Creating Layer inception_5b/relu_5x5_reduce
2016-09-18 01:54:01.808 STDERR [INFO] I0918 01:54:01.808413 14610 net.cpp:425] inception_5b/relu_5x5_reduce <- inception_5b/5x5_reduce
2016-09-18 01:54:01.808 STDERR [INFO] I0918 01:54:01.808419 14610 net.cpp:386] inception_5b/relu_5x5_reduce -> inception_5b/5x5_reduce (in-place)
2016-09-18 01:54:01.808 STDERR [INFO] I0918 01:54:01.808429 14610 net.cpp:141] Setting up inception_5b/relu_5x5_reduce
2016-09-18 01:54:01.808 STDERR [INFO] I0918 01:54:01.808435 14610 net.cpp:148] Top shape: 10 48 7 7 (23520)
2016-09-18 01:54:01.808 STDERR [INFO] I0918 01:54:01.808439 14610 net.cpp:156] Memory required for data: 546730240
2016-09-18 01:54:01.808 STDERR [INFO] I0918 01:54:01.808444 14610 layer_factory.hpp:77] Creating layer inception_5b/5x5
2016-09-18 01:54:01.808 STDERR [INFO] I0918 01:54:01.808461 14610 net.cpp:91] Creating Layer inception_5b/5x5
2016-09-18 01:54:01.808 STDERR [INFO] I0918 01:54:01.808467 14610 net.cpp:425] inception_5b/5x5 <- inception_5b/5x5_reduce
2016-09-18 01:54:01.808 STDERR [INFO] I0918 01:54:01.808477 14610 net.cpp:399] inception_5b/5x5 -> inception_5b/5x5
2016-09-18 01:54:01.808 STDERR [INFO] I0918 01:54:01.808545 14608 net.cpp:141] Setting up inception_5b/pool_proj
2016-09-18 01:54:01.808 STDERR [INFO] I0918 01:54:01.808554 14608 net.cpp:148] Top shape: 10 128 7 7 (62720)
2016-09-18 01:54:01.808 STDERR [INFO] I0918 01:54:01.808557 14608 net.cpp:156] Memory required for data: 549113600
2016-09-18 01:54:01.808 STDERR [INFO] I0918 01:54:01.808564 14608 layer_factory.hpp:77] Creating layer inception_5b/relu_pool_proj
2016-09-18 01:54:01.808 STDERR [INFO] I0918 01:54:01.808573 14608 net.cpp:91] Creating Layer inception_5b/relu_pool_proj
2016-09-18 01:54:01.808 STDERR [INFO] I0918 01:54:01.808576 14608 net.cpp:425] inception_5b/relu_pool_proj <- inception_5b/pool_proj
2016-09-18 01:54:01.808 STDERR [INFO] I0918 01:54:01.808581 14608 net.cpp:386] inception_5b/relu_pool_proj -> inception_5b/pool_proj (in-place)
2016-09-18 01:54:01.808 STDERR [INFO] I0918 01:54:01.808586 14608 net.cpp:141] Setting up inception_5b/relu_pool_proj
2016-09-18 01:54:01.808 STDERR [INFO] I0918 01:54:01.808591 14608 net.cpp:148] Top shape: 10 128 7 7 (62720)
2016-09-18 01:54:01.808 STDERR [INFO] I0918 01:54:01.808593 14608 net.cpp:156] Memory required for data: 549364480
2016-09-18 01:54:01.808 STDERR [INFO] I0918 01:54:01.808596 14608 layer_factory.hpp:77] Creating layer inception_5b/output
2016-09-18 01:54:01.808 STDERR [INFO] I0918 01:54:01.808605 14608 net.cpp:91] Creating Layer inception_5b/output
2016-09-18 01:54:01.808 STDERR [INFO] I0918 01:54:01.808609 14608 net.cpp:425] inception_5b/output <- inception_5b/1x1
2016-09-18 01:54:01.808 STDERR [INFO] I0918 01:54:01.808614 14608 net.cpp:425] inception_5b/output <- inception_5b/3x3
2016-09-18 01:54:01.809 STDERR [INFO] I0918 01:54:01.808616 14608 net.cpp:425] inception_5b/output <- inception_5b/5x5
2016-09-18 01:54:01.809 STDERR [INFO] I0918 01:54:01.808620 14608 net.cpp:425] inception_5b/output <- inception_5b/pool_proj
2016-09-18 01:54:01.809 STDERR [INFO] I0918 01:54:01.808625 14608 net.cpp:399] inception_5b/output -> inception_5b/output
2016-09-18 01:54:01.809 STDERR [INFO] I0918 01:54:01.808634 14608 net.cpp:141] Setting up inception_5b/output
2016-09-18 01:54:01.809 STDERR [INFO] I0918 01:54:01.808639 14608 net.cpp:148] Top shape: 10 1024 7 7 (501760)
2016-09-18 01:54:01.809 STDERR [INFO] I0918 01:54:01.808641 14608 net.cpp:156] Memory required for data: 551371520
2016-09-18 01:54:01.809 STDERR [INFO] I0918 01:54:01.808645 14608 layer_factory.hpp:77] Creating layer pool5/7x7_s1
2016-09-18 01:54:01.809 STDERR [INFO] I0918 01:54:01.808651 14608 net.cpp:91] Creating Layer pool5/7x7_s1
2016-09-18 01:54:01.809 STDERR [INFO] I0918 01:54:01.808655 14608 net.cpp:425] pool5/7x7_s1 <- inception_5b/output
2016-09-18 01:54:01.809 STDERR [INFO] I0918 01:54:01.808662 14608 net.cpp:399] pool5/7x7_s1 -> pool5/7x7_s1
2016-09-18 01:54:01.809 STDERR [INFO] I0918 01:54:01.808670 14608 net.cpp:141] Setting up pool5/7x7_s1
2016-09-18 01:54:01.809 STDERR [INFO] I0918 01:54:01.808675 14608 net.cpp:148] Top shape: 10 1024 1 1 (10240)
2016-09-18 01:54:01.809 STDERR [INFO] I0918 01:54:01.808677 14608 net.cpp:156] Memory required for data: 551412480
2016-09-18 01:54:01.809 STDERR [INFO] I0918 01:54:01.808681 14608 layer_factory.hpp:77] Creating layer pool5/drop_7x7_s1
2016-09-18 01:54:01.809 STDERR [INFO] I0918 01:54:01.808698 14608 net.cpp:91] Creating Layer pool5/drop_7x7_s1
2016-09-18 01:54:01.809 STDERR [INFO] I0918 01:54:01.808703 14608 net.cpp:425] pool5/drop_7x7_s1 <- pool5/7x7_s1
2016-09-18 01:54:01.809 STDERR [INFO] I0918 01:54:01.808707 14608 net.cpp:386] pool5/drop_7x7_s1 -> pool5/7x7_s1 (in-place)
2016-09-18 01:54:01.809 STDERR [INFO] I0918 01:54:01.808724 14608 net.cpp:141] Setting up pool5/drop_7x7_s1
2016-09-18 01:54:01.809 STDERR [INFO] I0918 01:54:01.808728 14608 net.cpp:148] Top shape: 10 1024 1 1 (10240)
2016-09-18 01:54:01.809 STDERR [INFO] I0918 01:54:01.808732 14608 net.cpp:156] Memory required for data: 551453440
2016-09-18 01:54:01.809 STDERR [INFO] I0918 01:54:01.808734 14608 layer_factory.hpp:77] Creating layer loss3/classifier
2016-09-18 01:54:01.809 STDERR [INFO] I0918 01:54:01.808744 14608 net.cpp:91] Creating Layer loss3/classifier
2016-09-18 01:54:01.809 STDERR [INFO] I0918 01:54:01.808748 14608 net.cpp:425] loss3/classifier <- pool5/7x7_s1
2016-09-18 01:54:01.809 STDERR [INFO] I0918 01:54:01.808770 14608 net.cpp:399] loss3/classifier -> loss3/classifier
2016-09-18 01:54:01.809 STDERR [INFO] I0918 01:54:01.808773 14620 net.cpp:141] Setting up inception_5b/3x3
2016-09-18 01:54:01.809 STDERR [INFO] I0918 01:54:01.808786 14620 net.cpp:148] Top shape: 10 384 7 7 (188160)
2016-09-18 01:54:01.809 STDERR [INFO] I0918 01:54:01.808790 14620 net.cpp:156] Memory required for data: 545789440
2016-09-18 01:54:01.809 STDERR [INFO] I0918 01:54:01.808799 14620 layer_factory.hpp:77] Creating layer inception_5b/relu_3x3
2016-09-18 01:54:01.809 STDERR [INFO] I0918 01:54:01.808805 14620 net.cpp:91] Creating Layer inception_5b/relu_3x3
2016-09-18 01:54:01.809 STDERR [INFO] I0918 01:54:01.808812 14620 net.cpp:425] inception_5b/relu_3x3 <- inception_5b/3x3
2016-09-18 01:54:01.809 STDERR [INFO] I0918 01:54:01.808817 14620 net.cpp:386] inception_5b/relu_3x3 -> inception_5b/3x3 (in-place)
2016-09-18 01:54:01.809 STDERR [INFO] I0918 01:54:01.808826 14620 net.cpp:141] Setting up inception_5b/relu_3x3
2016-09-18 01:54:01.809 STDERR [INFO] I0918 01:54:01.808831 14620 net.cpp:148] Top shape: 10 384 7 7 (188160)
2016-09-18 01:54:01.809 STDERR [INFO] I0918 01:54:01.808835 14620 net.cpp:156] Memory required for data: 546542080
2016-09-18 01:54:01.809 STDERR [INFO] I0918 01:54:01.808837 14620 layer_factory.hpp:77] Creating layer inception_5b/5x5_reduce
2016-09-18 01:54:01.809 STDERR [INFO] I0918 01:54:01.808846 14620 net.cpp:91] Creating Layer inception_5b/5x5_reduce
2016-09-18 01:54:01.809 STDERR [INFO] I0918 01:54:01.808851 14620 net.cpp:425] inception_5b/5x5_reduce <- inception_5a/output_inception_5a/output_0_split_2
2016-09-18 01:54:01.809 STDERR [INFO] I0918 01:54:01.808866 14620 net.cpp:399] inception_5b/5x5_reduce -> inception_5b/5x5_reduce
2016-09-18 01:54:01.809 STDERR [INFO] I0918 01:54:01.809240 14620 net.cpp:141] Setting up inception_5b/5x5_reduce
2016-09-18 01:54:01.809 STDERR [INFO] I0918 01:54:01.809247 14620 net.cpp:148] Top shape: 10 48 7 7 (23520)
2016-09-18 01:54:01.809 STDERR [INFO] I0918 01:54:01.809250 14620 net.cpp:156] Memory required for data: 546636160
2016-09-18 01:54:01.809 STDERR [INFO] I0918 01:54:01.809257 14620 layer_factory.hpp:77] Creating layer inception_5b/relu_5x5_reduce
2016-09-18 01:54:01.809 STDERR [INFO] I0918 01:54:01.809269 14620 net.cpp:91] Creating Layer inception_5b/relu_5x5_reduce
2016-09-18 01:54:01.809 STDERR [INFO] I0918 01:54:01.809273 14620 net.cpp:425] inception_5b/relu_5x5_reduce <- inception_5b/5x5_reduce
2016-09-18 01:54:01.809 STDERR [INFO] I0918 01:54:01.809278 14620 net.cpp:386] inception_5b/relu_5x5_reduce -> inception_5b/5x5_reduce (in-place)
2016-09-18 01:54:01.809 STDERR [INFO] I0918 01:54:01.809284 14620 net.cpp:141] Setting up inception_5b/relu_5x5_reduce
2016-09-18 01:54:01.809 STDERR [INFO] I0918 01:54:01.809288 14620 net.cpp:148] Top shape: 10 48 7 7 (23520)
2016-09-18 01:54:01.809 STDERR [INFO] I0918 01:54:01.809291 14620 net.cpp:156] Memory required for data: 546730240
2016-09-18 01:54:01.809 STDERR [INFO] I0918 01:54:01.809294 14620 layer_factory.hpp:77] Creating layer inception_5b/5x5
2016-09-18 01:54:01.809 STDERR [INFO] I0918 01:54:01.809304 14620 net.cpp:91] Creating Layer inception_5b/5x5
2016-09-18 01:54:01.810 STDERR [INFO] I0918 01:54:01.809308 14620 net.cpp:425] inception_5b/5x5 <- inception_5b/5x5_reduce
2016-09-18 01:54:01.812 STDERR [INFO] I0918 01:54:01.812837 14620 net.cpp:399] inception_5b/5x5 -> inception_5b/5x5
2016-09-18 01:54:01.813 STDERR [INFO] I0918 01:54:01.812840 14610 net.cpp:141] Setting up inception_5b/5x5
2016-09-18 01:54:01.813 STDERR [INFO] I0918 01:54:01.812861 14610 net.cpp:148] Top shape: 10 128 7 7 (62720)
2016-09-18 01:54:01.813 STDERR [INFO] I0918 01:54:01.812867 14610 net.cpp:156] Memory required for data: 546981120
2016-09-18 01:54:01.813 STDERR [INFO] I0918 01:54:01.812878 14610 layer_factory.hpp:77] Creating layer inception_5b/relu_5x5
2016-09-18 01:54:01.813 STDERR [INFO] I0918 01:54:01.812888 14610 net.cpp:91] Creating Layer inception_5b/relu_5x5
2016-09-18 01:54:01.813 STDERR [INFO] I0918 01:54:01.812896 14610 net.cpp:425] inception_5b/relu_5x5 <- inception_5b/5x5
2016-09-18 01:54:01.813 STDERR [INFO] I0918 01:54:01.812904 14610 net.cpp:386] inception_5b/relu_5x5 -> inception_5b/5x5 (in-place)
2016-09-18 01:54:01.813 STDERR [INFO] I0918 01:54:01.812913 14610 net.cpp:141] Setting up inception_5b/relu_5x5
2016-09-18 01:54:01.813 STDERR [INFO] I0918 01:54:01.812921 14610 net.cpp:148] Top shape: 10 128 7 7 (62720)
2016-09-18 01:54:01.813 STDERR [INFO] I0918 01:54:01.812925 14610 net.cpp:156] Memory required for data: 547232000
2016-09-18 01:54:01.813 STDERR [INFO] I0918 01:54:01.812930 14610 layer_factory.hpp:77] Creating layer inception_5b/pool
2016-09-18 01:54:01.813 STDERR [INFO] I0918 01:54:01.812952 14610 net.cpp:91] Creating Layer inception_5b/pool
2016-09-18 01:54:01.813 STDERR [INFO] I0918 01:54:01.812960 14610 net.cpp:425] inception_5b/pool <- inception_5a/output_inception_5a/output_0_split_3
2016-09-18 01:54:01.813 STDERR [INFO] I0918 01:54:01.812968 14610 net.cpp:399] inception_5b/pool -> inception_5b/pool
2016-09-18 01:54:01.813 STDERR [INFO] I0918 01:54:01.812981 14610 net.cpp:141] Setting up inception_5b/pool
2016-09-18 01:54:01.813 STDERR [INFO] I0918 01:54:01.812991 14610 net.cpp:148] Top shape: 10 832 7 7 (407680)
2016-09-18 01:54:01.813 STDERR [INFO] I0918 01:54:01.812996 14610 net.cpp:156] Memory required for data: 548862720
2016-09-18 01:54:01.813 STDERR [INFO] I0918 01:54:01.813001 14610 layer_factory.hpp:77] Creating layer inception_5b/pool_proj
2016-09-18 01:54:01.813 STDERR [INFO] I0918 01:54:01.813014 14610 net.cpp:91] Creating Layer inception_5b/pool_proj
2016-09-18 01:54:01.813 STDERR [INFO] I0918 01:54:01.813019 14610 net.cpp:425] inception_5b/pool_proj <- inception_5b/pool
2016-09-18 01:54:01.813 STDERR [INFO] I0918 01:54:01.813041 14610 net.cpp:399] inception_5b/pool_proj -> inception_5b/pool_proj
2016-09-18 01:54:01.816 STDERR [INFO] I0918 01:54:01.816500 14610 net.cpp:141] Setting up inception_5b/pool_proj
2016-09-18 01:54:01.816 STDERR [INFO] I0918 01:54:01.816504 14620 net.cpp:141] Setting up inception_5b/5x5
2016-09-18 01:54:01.816 STDERR [INFO] I0918 01:54:01.816520 14610 net.cpp:148] Top shape: 10 128 7 7 (62720)
2016-09-18 01:54:01.816 STDERR [INFO] I0918 01:54:01.816524 14620 net.cpp:148] Top shape: 10 128 7 7 (62720)
2016-09-18 01:54:01.816 STDERR [INFO] I0918 01:54:01.816525 14610 net.cpp:156] Memory required for data: 549113600
2016-09-18 01:54:01.816 STDERR [INFO] I0918 01:54:01.816527 14620 net.cpp:156] Memory required for data: 546981120
2016-09-18 01:54:01.816 STDERR [INFO] I0918 01:54:01.816541 14620 layer_factory.hpp:77] Creating layer inception_5b/relu_5x5
2016-09-18 01:54:01.816 STDERR [INFO] I0918 01:54:01.816540 14610 layer_factory.hpp:77] Creating layer inception_5b/relu_pool_proj
2016-09-18 01:54:01.816 STDERR [INFO] I0918 01:54:01.816551 14620 net.cpp:91] Creating Layer inception_5b/relu_5x5
2016-09-18 01:54:01.816 STDERR [INFO] I0918 01:54:01.816556 14620 net.cpp:425] inception_5b/relu_5x5 <- inception_5b/5x5
2016-09-18 01:54:01.816 STDERR [INFO] I0918 01:54:01.816557 14610 net.cpp:91] Creating Layer inception_5b/relu_pool_proj
2016-09-18 01:54:01.816 STDERR [INFO] I0918 01:54:01.816565 14620 net.cpp:386] inception_5b/relu_5x5 -> inception_5b/5x5 (in-place)
2016-09-18 01:54:01.816 STDERR [INFO] I0918 01:54:01.816565 14610 net.cpp:425] inception_5b/relu_pool_proj <- inception_5b/pool_proj
2016-09-18 01:54:01.816 STDERR [INFO] I0918 01:54:01.816572 14620 net.cpp:141] Setting up inception_5b/relu_5x5
2016-09-18 01:54:01.816 STDERR [INFO] I0918 01:54:01.816577 14620 net.cpp:148] Top shape: 10 128 7 7 (62720)
2016-09-18 01:54:01.816 STDERR [INFO] I0918 01:54:01.816576 14610 net.cpp:386] inception_5b/relu_pool_proj -> inception_5b/pool_proj (in-place)
2016-09-18 01:54:01.817 STDERR [INFO] I0918 01:54:01.816584 14620 net.cpp:156] Memory required for data: 547232000
2016-09-18 01:54:01.817 STDERR [INFO] I0918 01:54:01.816593 14620 layer_factory.hpp:77] Creating layer inception_5b/pool
2016-09-18 01:54:01.817 STDERR [INFO] I0918 01:54:01.816596 14610 net.cpp:141] Setting up inception_5b/relu_pool_proj
2016-09-18 01:54:01.817 STDERR [INFO] I0918 01:54:01.816601 14620 net.cpp:91] Creating Layer inception_5b/pool
2016-09-18 01:54:01.817 STDERR [INFO] I0918 01:54:01.816606 14620 net.cpp:425] inception_5b/pool <- inception_5a/output_inception_5a/output_0_split_3
2016-09-18 01:54:01.817 STDERR [INFO] I0918 01:54:01.816606 14610 net.cpp:148] Top shape: 10 128 7 7 (62720)
2016-09-18 01:54:01.817 STDERR [INFO] I0918 01:54:01.816612 14620 net.cpp:399] inception_5b/pool -> inception_5b/pool
2016-09-18 01:54:01.817 STDERR [INFO] I0918 01:54:01.816612 14610 net.cpp:156] Memory required for data: 549364480
2016-09-18 01:54:01.817 STDERR [INFO] I0918 01:54:01.816617 14610 layer_factory.hpp:77] Creating layer inception_5b/output
2016-09-18 01:54:01.817 STDERR [INFO] I0918 01:54:01.816620 14620 net.cpp:141] Setting up inception_5b/pool
2016-09-18 01:54:01.817 STDERR [INFO] I0918 01:54:01.816625 14620 net.cpp:148] Top shape: 10 832 7 7 (407680)
2016-09-18 01:54:01.817 STDERR [INFO] I0918 01:54:01.816627 14610 net.cpp:91] Creating Layer inception_5b/output
2016-09-18 01:54:01.817 STDERR [INFO] I0918 01:54:01.816628 14620 net.cpp:156] Memory required for data: 548862720
2016-09-18 01:54:01.817 STDERR [INFO] I0918 01:54:01.816637 14620 layer_factory.hpp:77] Creating layer inception_5b/pool_proj
2016-09-18 01:54:01.817 STDERR [INFO] I0918 01:54:01.816635 14610 net.cpp:425] inception_5b/output <- inception_5b/1x1
…
2016-09-18 01:54:01.817 STDERR [INFO] I0918 01:54:01.816655 14610 net.cpp:425] inception_5b/output <- inception_5b/5x5
2016-09-18 01:54:01.817 STDERR [INFO] I0918 01:54:01.816663 14620 net.cpp:399] inception_5b/pool_proj -> inception_5b/pool_proj
2016-09-18 01:54:01.817 STDERR [INFO] I0918 01:54:01.816663 14610 net.cpp:425] inception_5b/output <- inception_5b/pool_proj
2016-09-18 01:54:01.817 STDERR [INFO] I0918 01:54:01.816671 14610 net.cpp:399] inception_5b/output -> inception_5b/output
2016-09-18 01:54:01.817 STDERR [INFO] I0918 01:54:01.816684 14610 net.cpp:141] Setting up inception_5b/output
2016-09-18 01:54:01.817 STDERR [INFO] I0918 01:54:01.816691 14610 net.cpp:148] Top shape: 10 1024 7 7 (501760)
2016-09-18 01:54:01.817 STDERR [INFO] I0918 01:54:01.816696 14610 net.cpp:156] Memory required for data: 551371520
2016-09-18 01:54:01.817 STDERR [INFO] I0918 01:54:01.816701 14610 layer_factory.hpp:77] Creating layer pool5/7x7_s1
2016-09-18 01:54:01.817 STDERR [INFO] I0918 01:54:01.816718 14610 net.cpp:91] Creating Layer pool5/7x7_s1
2016-09-18 01:54:01.817 STDERR [INFO] I0918 01:54:01.816725 14610 net.cpp:425] pool5/7x7_s1 <- inception_5b/output
2016-09-18 01:54:01.817 STDERR [INFO] I0918 01:54:01.816735 14610 net.cpp:399] pool5/7x7_s1 -> pool5/7x7_s1
2016-09-18 01:54:01.817 STDERR [INFO] I0918 01:54:01.816745 14610 net.cpp:141] Setting up pool5/7x7_s1
2016-09-18 01:54:01.817 STDERR [INFO] I0918 01:54:01.816756 14610 net.cpp:148] Top shape: 10 1024 1 1 (10240)
2016-09-18 01:54:01.817 STDERR [INFO] I0918 01:54:01.816761 14610 net.cpp:156] Memory required for data: 551412480
2016-09-18 01:54:01.817 STDERR [INFO] I0918 01:54:01.816766 14610 layer_factory.hpp:77] Creating layer pool5/drop_7x7_s1
2016-09-18 01:54:01.817 STDERR [INFO] I0918 01:54:01.816774 14610 net.cpp:91] Creating Layer pool5/drop_7x7_s1
2016-09-18 01:54:01.817 STDERR [INFO] I0918 01:54:01.816781 14610 net.cpp:425] pool5/drop_7x7_s1 <- pool5/7x7_s1
2016-09-18 01:54:01.817 STDERR [INFO] I0918 01:54:01.816787 14610 net.cpp:386] pool5/drop_7x7_s1 -> pool5/7x7_s1 (in-place)
2016-09-18 01:54:01.817 STDERR [INFO] I0918 01:54:01.816797 14610 net.cpp:141] Setting up pool5/drop_7x7_s1
2016-09-18 01:54:01.817 STDERR [INFO] I0918 01:54:01.816804 14610 net.cpp:148] Top shape: 10 1024 1 1 (10240)
2016-09-18 01:54:01.817 STDERR [INFO] I0918 01:54:01.816809 14610 net.cpp:156] Memory required for data: 551453440
2016-09-18 01:54:01.817 STDERR [INFO] I0918 01:54:01.816815 14610 layer_factory.hpp:77] Creating layer loss3/classifier
2016-09-18 01:54:01.818 STDERR [INFO] I0918 01:54:01.816838 14610 net.cpp:91] Creating Layer loss3/classifier
2016-09-18 01:54:01.818 STDERR [INFO] I0918 01:54:01.816843 14610 net.cpp:425] loss3/classifier <- pool5/7x7_s1
2016-09-18 01:54:01.818 STDERR [INFO] I0918 01:54:01.816853 14610 net.cpp:399] loss3/classifier -> loss3/classifier
2016-09-18 01:54:01.822 STDERR [INFO] I0918 01:54:01.822562 14620 net.cpp:141] Setting up inception_5b/pool_proj
2016-09-18 01:54:01.822 STDERR [INFO] I0918 01:54:01.822592 14620 net.cpp:148] Top shape: 10 128 7 7 (62720)
2016-09-18 01:54:01.822 STDERR [INFO] I0918 01:54:01.822595 14620 net.cpp:156] Memory required for data: 549113600
2016-09-18 01:54:01.822 STDERR [INFO] I0918 01:54:01.822604 14620 layer_factory.hpp:77] Creating layer inception_5b/relu_pool_proj
2016-09-18 01:54:01.822 STDERR [INFO] I0918 01:54:01.822615 14620 net.cpp:91] Creating Layer inception_5b/relu_pool_proj
2016-09-18 01:54:01.822 STDERR [INFO] I0918 01:54:01.822623 14620 net.cpp:425] inception_5b/relu_pool_proj <- inception_5b/pool_proj
2016-09-18 01:54:01.822 STDERR [INFO] I0918 01:54:01.822641 14620 net.cpp:386] inception_5b/relu_pool_proj -> inception_5b/pool_proj (in-place)
2016-09-18 01:54:01.822 STDERR [INFO] I0918 01:54:01.822652 14620 net.cpp:141] Setting up inception_5b/relu_pool_proj
2016-09-18 01:54:01.822 STDERR [INFO] I0918 01:54:01.822656 14620 net.cpp:148] Top shape: 10 128 7 7 (62720)
2016-09-18 01:54:01.823 STDERR [INFO] I0918 01:54:01.822660 14620 net.cpp:156] Memory required for data: 549364480
2016-09-18 01:54:01.823 STDERR [INFO] I0918 01:54:01.822664 14620 layer_factory.hpp:77] Creating layer inception_5b/output
2016-09-18 01:54:01.823 STDERR [INFO] I0918 01:54:01.822670 14620 net.cpp:91] Creating Layer inception_5b/output
2016-09-18 01:54:01.823 STDERR [INFO] I0918 01:54:01.822674 14620 net.cpp:425] inception_5b/output <- inception_5b/1x1
2016-09-18 01:54:01.823 STDERR [INFO] I0918 01:54:01.822679 14620 net.cpp:425] inception_5b/output <- inception_5b/3x3
2016-09-18 01:54:01.823 STDERR [INFO] I0918 01:54:01.822684 14620 net.cpp:425] inception_5b/output <- inception_5b/5x5
2016-09-18 01:54:01.823 STDERR [INFO] I0918 01:54:01.822687 14620 net.cpp:425] inception_5b/output <- inception_5b/pool_proj
2016-09-18 01:54:01.823 STDERR [INFO] I0918 01:54:01.822692 14620 net.cpp:399] inception_5b/output -> inception_5b/output
2016-09-18 01:54:01.823 STDERR [INFO] I0918 01:54:01.822700 14620 net.cpp:141] Setting up inception_5b/output
2016-09-18 01:54:01.823 STDERR [INFO] I0918 01:54:01.822705 14620 net.cpp:148] Top shape: 10 1024 7 7 (501760)
2016-09-18 01:54:01.823 STDERR [INFO] I0918 01:54:01.822710 14620 net.cpp:156] Memory required for data: 551371520
2016-09-18 01:54:01.823 STDERR [INFO] I0918 01:54:01.822713 14620 layer_factory.hpp:77] Creating layer pool5/7x7_s1
2016-09-18 01:54:01.823 STDERR [INFO] I0918 01:54:01.822721 14620 net.cpp:91] Creating Layer pool5/7x7_s1
2016-09-18 01:54:01.823 STDERR [INFO] I0918 01:54:01.822723 14620 net.cpp:425] pool5/7x7_s1 <- inception_5b/output
2016-09-18 01:54:01.823 STDERR [INFO] I0918 01:54:01.822729 14620 net.cpp:399] pool5/7x7_s1 -> pool5/7x7_s1
2016-09-18 01:54:01.823 STDERR [INFO] I0918 01:54:01.822737 14620 net.cpp:141] Setting up pool5/7x7_s1
2016-09-18 01:54:01.823 STDERR [INFO] I0918 01:54:01.822741 14620 net.cpp:148] Top shape: 10 1024 1 1 (10240)
2016-09-18 01:54:01.823 STDERR [INFO] I0918 01:54:01.822744 14620 net.cpp:156] Memory required for data: 551412480
2016-09-18 01:54:01.823 STDERR [INFO] I0918 01:54:01.822747 14620 layer_factory.hpp:77] Creating layer pool5/drop_7x7_s1
2016-09-18 01:54:01.823 STDERR [INFO] I0918 01:54:01.822762 14620 net.cpp:91] Creating Layer pool5/drop_7x7_s1
2016-09-18 01:54:01.823 STDERR [INFO] I0918 01:54:01.822767 14620 net.cpp:425] pool5/drop_7x7_s1 <- pool5/7x7_s1
2016-09-18 01:54:01.823 STDERR [INFO] I0918 01:54:01.822770 14620 net.cpp:386] pool5/drop_7x7_s1 -> pool5/7x7_s1 (in-place)
2016-09-18 01:54:01.823 STDERR [INFO] I0918 01:54:01.822777 14620 net.cpp:141] Setting up pool5/drop_7x7_s1
2016-09-18 01:54:01.823 STDERR [INFO] I0918 01:54:01.822782 14620 net.cpp:148] Top shape: 10 1024 1 1 (10240)
2016-09-18 01:54:01.823 STDERR [INFO] I0918 01:54:01.822785 14620 net.cpp:156] Memory required for data: 551453440
2016-09-18 01:54:01.823 STDERR [INFO] I0918 01:54:01.822788 14620 layer_factory.hpp:77] Creating layer loss3/classifier
2016-09-18 01:54:01.823 STDERR [INFO] I0918 01:54:01.822798 14620 net.cpp:91] Creating Layer loss3/classifier
2016-09-18 01:54:01.823 STDERR [INFO] I0918 01:54:01.822803 14620 net.cpp:425] loss3/classifier <- pool5/7x7_s1
2016-09-18 01:54:01.823 STDERR [INFO] I0918 01:54:01.822808 14620 net.cpp:399] loss3/classifier -> loss3/classifier
2016-09-18 01:54:01.826 STDERR [INFO] I0918 01:54:01.826601 14608 net.cpp:141] Setting up loss3/classifier
2016-09-18 01:54:01.826 STDERR [INFO] I0918 01:54:01.826622 14608 net.cpp:148] Top shape: 10 1000 (10000)
2016-09-18 01:54:01.826 STDERR [INFO] I0918 01:54:01.826627 14608 net.cpp:156] Memory required for data: 551493440
2016-09-18 01:54:01.826 STDERR [INFO] I0918 01:54:01.826635 14608 layer_factory.hpp:77] Creating layer prob
2016-09-18 01:54:01.826 STDERR [INFO] I0918 01:54:01.826645 14608 net.cpp:91] Creating Layer prob
2016-09-18 01:54:01.826 STDERR [INFO] I0918 01:54:01.826653 14608 net.cpp:425] prob <- loss3/classifier
2016-09-18 01:54:01.826 STDERR [INFO] I0918 01:54:01.826659 14608 net.cpp:399] prob -> prob
2016-09-18 01:54:01.826 STDERR [INFO] I0918 01:54:01.826697 14608 net.cpp:141] Setting up prob
2016-09-18 01:54:01.826 STDERR [INFO] I0918 01:54:01.826704 14608 net.cpp:148] Top shape: 10 1000 (10000)
2016-09-18 01:54:01.826 STDERR [INFO] I0918 01:54:01.826706 14608 net.cpp:156] Memory required for data: 551533440
2016-09-18 01:54:01.826 STDERR [INFO] I0918 01:54:01.826710 14608 net.cpp:219] prob does not need backward computation.
2016-09-18 01:54:01.827 STDERR [INFO] I0918 01:54:01.826714 14608 net.cpp:219] loss3/classifier does not need backward computation.
2016-09-18 01:54:01.827 STDERR [INFO] I0918 01:54:01.826717 14608 net.cpp:219] pool5/drop_7x7_s1 does not need backward computation.
…
