…
Java HotSpot(TM) 64-Bit Server VM warning: You have loaded library /tmp/cvld7566211995950081978/libopencv_java310.xine1.so which might have disabled stack guard. The VM will try to fix the stack guard now.
It's highly recommended that you fix the library with 'execstack -c <libfile>', or link it with '-z noexecstack'.
WARNING: Logging before InitGoogleLogging() is written to STDERR
I0714 21:03:12.601433 13347 net.cpp:49] Initializing net from parameters: 
name: "GoogleNet"
state {
  phase: TEST
}
layer {
  name: "data"
  type: "Input"
  top: "data"
  input_param {
    shape {
      dim: 10
      dim: 3
      dim: 224
      dim: 224
    }
  }
}
layer {
  name: "conv1/7x7_s2"
  type: "Convolution"
  bottom: "data"
  top: "conv1/7x7_s2"
  param {
    lr_mult: 1
    decay_mult: 1
  }
  param {
    lr_mult: 2
    decay_mult: 0
  }
  convolution_param {
    num_output: 64
    pad: 3
    kernel_size: 7
    stride: 2
    weight_filler {
      type: "xavier"
      std: 0.1
    }
    bias_filler {
      type: "constant"
      value: 0.2
    }
  }
}
layer {
  name: "conv1/relu_7x7"
  type: "ReLU"
  bottom: "conv1/7x7_s2"
  top: "conv1/7x7_s2"
}
layer {
  name: "pool1/3x3_s2"
  type: "Pooling"
  bottom: "conv1/7x7_s2"
  top: "pool1/3x3_s2"
  pooling_param {
    pool: MAX
    kernel_size: 3
    stride: 2
  }
}
layer {
  name: "pool1/norm1"
  type: "LRN"
  bottom: "pool1/3x3_s2"
  top: "pool1/norm1"
  lrn_param {
    local_size: 5
    alpha: 0.0001
    beta: 0.75
  }
}
layer {
  name: "conv2/3x3_reduce"
  type: "Convolution"
  bottom: "pool1/norm1"
  top: "conv2/3x3_reduce"
  param {
    lr_mult: 1
    decay_mult: 1
  }
  param {
    lr_mult: 2
    decay_mult: 0
  }
  convolution_param {
    num_output: 64
    kernel_size: 1
    weight_filler {
      type: "xavier"
      std: 0.1
    }
    bias_filler {
      type: "constant"
      value: 0.2
    }
  }
}
layer {
  name: "conv2/relu_3x3_reduce"
  type: "ReLU"
  bottom: "conv2/3x3_reduce"
  top: "conv2/3x3_reduce"
}
layer {
  name: "conv2/3x3"
  type: "Convolution"
  bottom: "conv2/3x3_reduce"
  top: "conv2/3x3"
  param {
    lr_mult: 1
    decay_mult: 1
  }
  param {
    lr_mult: 2
    decay_mult: 0
  }
  convolution_param {
    num_output: 192
    pad: 1
    kernel_size: 3
    weight_filler {
      type: "xavier"
      std: 0.03
    }
    bias_filler {
      type: "constant"
      value: 0.2
    }
  }
}
layer {
  name: "conv2/relu_3x3"
  type: "ReLU"
  bottom: "conv2/3x3"
  top: "conv2/3x3"
}
layer {
  name: "conv2/norm2"
  type: "LRN"
  bottom: "conv2/3x3"
  top: "conv2/norm2"
  lrn_param {
    local_size: 5
    alpha: 0.0001
    beta: 0.75
  }
}
layer {
  name: "pool2/3x3_s2"
  type: "Pooling"
  bottom: "conv2/norm2"
  top: "pool2/3x3_s2"
  pooling_param {
    pool: MAX
    kernel_size: 3
    stride: 2
  }
}
layer {
  name: "inception_3a/1x1"
  type: "Convolution"
  bottom: "pool2/3x3_s2"
  top: "inception_3a/1x1"
  param {
    lr_mult: 1
    decay_mult: 1
  }
  param {
    lr_mult: 2
    decay_mult: 0
  }
  convolution_param {
    num_output: 64
    kernel_size: 1
    weight_filler {
      type: "xavier"
      std: 0.03
    }
    bias_filler {
      type: "constant"
      value: 0.2
    }
  }
}
layer {
  name: "inception_3a/relu_1x1"
  type: "ReLU"
  bottom: "inception_3a/1x1"
  top: "inception_3a/1x1"
}
layer {
  name: "inception_3a/3x3_reduce"
  type: "Convolution"
  bottom: "pool2/3x3_s2"
  top: "inception_3a/3x3_reduce"
  param {
    lr_mult: 1
    decay_mult: 1
  }
  param {
    lr_mult: 2
    decay_mult: 0
  }
  convolution_param {
    num_output: 96
    kernel_size: 1
    weight_filler {
      type: "xavier"
      std: 0.09
    }
    bias_filler {
      type: "constant"
      value: 0.2
    }
  }
}
layer {
  name: "inception_3a/relu_3x3_reduce"
  type: "ReLU"
  bottom: "inception_3a/3x3_reduce"
  top: "inception_3a/3x3_reduce"
}
layer {
  name: "inception_3a/3x3"
  type: "Convolution"
  bottom: "inception_3a/3x3_reduce"
  top: "inception_3a/3x3"
  param {
    lr_mult: 1
    decay_mult: 1
  }
  param {
    lr_mult: 2
    decay_mult: 0
  }
  convolution_param {
    num_output: 128
    pad: 1
    kernel_size: 3
    weight_filler {
      type: "xavier"
      std: 0.03
    }
    bias_filler {
      type: "constant"
      value: 0.2
    }
  }
}
layer {
  name: "inception_3a/relu_3x3"
  type: "ReLU"
  bottom: "inception_3a/3x3"
  top: "inception_3a/3x3"
}
layer {
  name: "inception_3a/5x5_reduce"
  type: "Convolution"
  bottom: "pool2/3x3_s2"
  top: "inception_3a/5x5_reduce"
  param {
    lr_mult: 1
    decay_mult: 1
  }
  param {
    lr_mult: 2
    decay_mult: 0
  }
  convolution_param {
    num_output: 16
    kernel_size: 1
    weight_filler {
      type: "xavier"
      std: 0.2
    }
    bias_filler {
      type: "constant"
      value: 0.2
    }
  }
}
layer {
  name: "inception_3a/relu_5x5_reduce"
  type: "ReLU"
  bottom: "inception_3a/5x5_reduce"
  top: "inception_3a/5x5_reduce"
}
layer {
  name: "inception_3a/5x5"
  type: "Convolution"
  bottom: "inception_3a/5x5_reduce"
  top: "inception_3a/5x5"
  param {
    lr_mult: 1
    decay_mult: 1
  }
  param {
    lr_mult: 2
    decay_mult: 0
  }
  convolution_param {
    num_output: 32
    pad: 2
    kernel_size: 5
    weight_filler {
      type: "xavier"
      std: 0.03
    }
    bias_filler {
      type: "constant"
      value: 0.2
    }
  }
}
layer {
  name: "inception_3a/relu_5x5"
  type: "ReLU"
  bottom: "inception_3a/5x5"
  top: "inception_3a/5x5"
}
layer {
  name: "inception_3a/pool"
  type: "Pooling"
  bottom: "pool2/3x3_s2"
  top: "inception_3a/pool"
  pooling_param {
    pool: MAX
    kernel_size: 3
    stride: 1
    pad: 1
  }
}
layer {
  name: "inception_3a/pool_proj"
  type: "Convolution"
  bottom: "inception_3a/pool"
  top: "inception_3a/pool_proj"
  param {
    lr_mult: 1
    decay_mult: 1
  }
  param {
    lr_mult: 2
    decay_mult: 0
  }
  convolution_param {
    num_output: 32
    kernel_size: 1
    weight_filler {
      type: "xavier"
      std: 0.1
    }
    bias_filler {
      type: "constant"
      value: 0.2
    }
  }
}
layer {
  name: "inception_3a/relu_pool_proj"
  type: "ReLU"
  bottom: "inception_3a/pool_proj"
  top: "inception_3a/pool_proj"
}
layer {
  name: "inception_3a/output"
  type: "Concat"
  bottom: "inception_3a/1x1"
  bottom: "inception_3a/3x3"
  bottom: "inception_3a/5x5"
  bottom: "inception_3a/pool_proj"
  top: "inception_3a/output"
}
layer {
  name: "inception_3b/1x1"
  type: "Convolution"
  bottom: "inception_3a/output"
  top: "inception_3b/1x1"
  param {
    lr_mult: 1
    decay_mult: 1
  }
  param {
    lr_mult: 2
    decay_mult: 0
  }
  convolution_param {
    num_output: 128
    kernel_size: 1
    weight_filler {
      type: "xavier"
      std: 0.03
    }
    bias_filler {
      type: "constant"
      value: 0.2
    }
  }
}
layer {
  name: "inception_3b/relu_1x1"
  type: "ReLU"
  bottom: "inception_3b/1x1"
  top: "inception_3b/1x1"
}
layer {
  name: "inception_3b/3x3_reduce"
  type: "Convolution"
  bottom: "inception_3a/output"
  top: "inception_3b/3x3_reduce"
  param {
    lr_mult: 1
    decay_mult: 1
  }
  param {
    lr_mult: 2
    decay_mult: 0
  }
  convolution_param {
    num_output: 128
    kernel_size: 1
    weight_filler {
      type: "xavier"
      std: 0.09
    }
    bias_filler {
      type: "constant"
      value: 0.2
    }
  }
}
layer {
  name: "inception_3b/relu_3x3_reduce"
  type: "ReLU"
  bottom: "inception_3b/3x3_reduce"
  top: "inception_3b/3x3_reduce"
}
layer {
  name: "inception_3b/3x3"
  type: "Convolution"
  bottom: "inception_3b/3x3_reduce"
  top: "inception_3b/3x3"
  param {
    lr_mult: 1
    decay_mult: 1
  }
  param {
    lr_mult: 2
    decay_mult: 0
  }
  convolution_param {
    num_output: 192
    pad: 1
    kernel_size: 3
    weight_filler {
      type: "xavier"
      std: 0.03
    }
    bias_filler {
      type: "constant"
      value: 0.2
    }
  }
}
layer {
  name: "inception_3b/relu_3x3"
  type: "ReLU"
  bottom: "inception_3b/3x3"
  top: "inception_3b/3x3"
}
layer {
  name: "inception_3b/5x5_reduce"
  type: "Convolution"
  bottom: "inception_3a/output"
  top: "inception_3b/5x5_reduce"
  param {
    lr_mult: 1
    decay_mult: 1
  }
  param {
    lr_mult: 2
    decay_mult: 0
  }
  convolution_param {
    num_output: 32
    kernel_size: 1
    weight_filler {
      type: "xavier"
      std: 0.2
    }
    bias_filler {
      type: "constant"
      value: 0.2
    }
  }
}
layer {
  name: "inception_3b/relu_5x5_reduce"
  type: "ReLU"
  bottom: "inception_3b/5x5_reduce"
  top: "inception_3b/5x5_reduce"
}
layer {
  name: "inception_3b/5x5"
  type: "Convolution"
  bottom: "inception_3b/5x5_reduce"
  top: "inception_3b/5x5"
  param {
    lr_mult: 1
    decay_mult: 1
  }
  param {
    lr_mult: 2
    decay_mult: 0
  }
  convolution_param {
    num_output: 96
    pad: 2
    kernel_size: 5
    weight_filler {
      type: "xavier"
      std: 0.03
    }
    bias_filler {
      type: "constant"
      value: 0.2
    }
  }
}
layer {
  name: "inception_3b/relu_5x5"
  type: "ReLU"
  bottom: "inception_3b/5x5"
  top: "inception_3b/5x5"
}
layer {
  name: "inception_3b/pool"
  type: "Pooling"
  bottom: "inception_3a/output"
  top: "inception_3b/pool"
  pooling_param {
    pool: MAX
    kernel_size: 3
    stride: 1
    pad: 1
  }
}
layer {
  name: "inception_3b/pool_proj"
  type: "Convolution"
  bottom: "inception_3b/pool"
  top: "inception_3b/pool_proj"
  param {
    lr_mult: 1
    decay_mult: 1
  }
  param {
    lr_mult: 2
    decay_mult: 0
  }
  convolution_param {
    num_output: 64
    kernel_size: 1
    weight_filler {
      type: "xavier"
      std: 0.1
    }
    bias_filler {
      type: "constant"
      value: 0.2
    }
  }
}
layer {
  name: "inception_3b/relu_pool_proj"
  type: "ReLU"
  bottom: "inception_3b/pool_proj"
  top: "inception_3b/pool_proj"
}
layer {
  name: "inception_3b/output"
  type: "Concat"
  bottom: "inception_3b/1x1"
  bottom: "inception_3b/3x3"
  bottom: "inception_3b/5x5"
  bottom: "inception_3b/pool_proj"
  top: "inception_3b/output"
}
layer {
  name: "pool3/3x3_s2"
  type: "Pooling"
  bottom: "inception_3b/output"
  top: "pool3/3x3_s2"
  pooling_param {
    pool: MAX
    kernel_size: 3
    stride: 2
  }
}
layer {
  name: "inception_4a/1x1"
  type: "Convolution"
  bottom: "pool3/3x3_s2"
  top: "inception_4a/1x1"
  param {
    lr_mult: 1
    decay_mult: 1
  }
  param {
    lr_mult: 2
    decay_mult: 0
  }
  convolution_param {
    num_output: 192
    kernel_size: 1
    weight_filler {
      type: "xavier"
      std: 0.03
    }
    bias_filler {
      type: "constant"
      value: 0.2
    }
  }
}
layer {
  name: "inception_4a/relu_1x1"
  type: "ReLU"
  bottom: "inception_4a/1x1"
  top: "inception_4a/1x1"
}
layer {
  name: "inception_4a/3x3_reduce"
  type: "Convolution"
  bottom: "pool3/3x3_s2"
  top: "inception_4a/3x3_reduce"
  param {
    lr_mult: 1
    decay_mult: 1
  }
  param {
    lr_mult: 2
    decay_mult: 0
  }
  convolution_param {
    num_output: 96
    kernel_size: 1
    weight_filler {
      type: "xavier"
      std: 0.09
    }
    bias_filler {
      type: "constant"
      value: 0.2
    }
  }
}
layer {
  name: "inception_4a/relu_3x3_reduce"
  type: "ReLU"
  bottom: "inception_4a/3x3_reduce"
  top: "inception_4a/3x3_reduce"
}
layer {
  name: "inception_4a/3x3"
  type: "Convolution"
  bottom: "inception_4a/3x3_reduce"
  top: "inception_4a/3x3"
  param {
    lr_mult: 1
    decay_mult: 1
  }
  param {
    lr_mult: 2
    decay_mult: 0
  }
  convolution_param {
    num_output: 208
    pad: 1
    kernel_size: 3
    weight_filler {
      type: "xavier"
      std: 0.03
    }
    bias_filler {
      type: "constant"
      value: 0.2
    }
  }
}
layer {
  name: "inception_4a/relu_3x3"
  type: "ReLU"
  bottom: "inception_4a/3x3"
  top: "inception_4a/3x3"
}
layer {
  name: "inception_4a/5x5_reduce"
  type: "Convolution"
  bottom: "pool3/3x3_s2"
  top: "inception_4a/5x5_reduce"
  param {
    lr_mult: 1
    decay_mult: 1
  }
  param {
    lr_mult: 2
    decay_mult: 0
  }
  convolution_param {
    num_output: 16
    kernel_size: 1
    weight_filler {
      type: "xavier"
      std: 0.2
    }
    bias_filler {
      type: "constant"
      value: 0.2
    }
  }
}
layer {
  name: "inception_4a/relu_5x5_reduce"
  type: "ReLU"
  bottom: "inception_4a/5x5_reduce"
  top: "inception_4a/5x5_reduce"
}
layer {
  name: "inception_4a/5x5"
  type: "Convolution"
  bottom: "inception_4a/5x5_reduce"
  top: "inception_4a/5x5"
  param {
    lr_mult: 1
    decay_mult: 1
  }
  param {
    lr_mult: 2
    decay_mult: 0
  }
  convolution_param {
    num_output: 48
    pad: 2
    kernel_size: 5
    weight_filler {
      type: "xavier"
      std: 0.03
    }
    bias_filler {
      type: "constant"
      value: 0.2
    }
  }
}
layer {
  name: "inception_4a/relu_5x5"
  type: "ReLU"
  bottom: "inception_4a/5x5"
  top: "inception_4a/5x5"
}
layer {
  name: "inception_4a/pool"
  type: "Pooling"
  bottom: "pool3/3x3_s2"
  top: "inception_4a/pool"
  pooling_param {
    pool: MAX
    kernel_size: 3
    stride: 1
    pad: 1
  }
}
layer {
  name: "inception_4a/pool_proj"
  type: "Convolution"
  bottom: "inception_4a/pool"
  top: "inception_4a/pool_proj"
  param {
    lr_mult: 1
    decay_mult: 1
  }
  param {
    lr_mult: 2
    decay_mult: 0
  }
  convolution_param {
    num_output: 64
    kernel_size: 1
    weight_filler {
      type: "xavier"
      std: 0.1
    }
    bias_filler {
      type: "constant"
      value: 0.2
    }
  }
}
layer {
  name: "inception_4a/relu_pool_proj"
  type: "ReLU"
  bottom: "inception_4a/pool_proj"
  top: "inception_4a/pool_proj"
}
layer {
  name: "inception_4a/output"
  type: "Concat"
  bottom: "inception_4a/1x1"
  bottom: "inception_4a/3x3"
  bottom: "inception_4a/5x5"
  bottom: "inception_4a/pool_proj"
  top: "inception_4a/output"
}
layer {
  name: "inception_4b/1x1"
  type: "Convolution"
  bottom: "inception_4a/output"
  top: "inception_4b/1x1"
  param {
    lr_mult: 1
    decay_mult: 1
  }
  param {
    lr_mult: 2
    decay_mult: 0
  }
  convolution_param {
    num_output: 160
    kernel_size: 1
    weight_filler {
      type: "xavier"
      std: 0.03
    }
    bias_filler {
      type: "constant"
      value: 0.2
    }
  }
}
layer {
  name: "inception_4b/relu_1x1"
  type: "ReLU"
  bottom: "inception_4b/1x1"
  top: "inception_4b/1x1"
}
layer {
  name: "inception_4b/3x3_reduce"
  type: "Convolution"
  bottom: "inception_4a/output"
  top: "inception_4b/3x3_reduce"
  param {
    lr_mult: 1
    decay_mult: 1
  }
  param {
    lr_mult: 2
    decay_mult: 0
  }
  convolution_param {
    num_output: 112
    kernel_size: 1
    weight_filler {
      type: "xavier"
      std: 0.09
    }
    bias_filler {
      type: "constant"
      value: 0.2
    }
  }
}
layer {
  name: "inception_4b/relu_3x3_reduce"
  type: "ReLU"
  bottom: "inception_4b/3x3_reduce"
  top: "inception_4b/3x3_reduce"
}
layer {
  name: "inception_4b/3x3"
  type: "Convolution"
  bottom: "inception_4b/3x3_reduce"
  top: "inception_4b/3x3"
  param {
    lr_mult: 1
    decay_mult: 1
  }
  param {
    lr_mult: 2
    decay_mult: 0
  }
  convolution_param {
    num_output: 224
    pad: 1
    kernel_size: 3
    weight_filler {
      type: "xavier"
      std: 0.03
    }
    bias_filler {
      type: "constant"
      value: 0.2
    }
  }
}
layer {
  name: "inception_4b/relu_3x3"
  type: "ReLU"
  bottom: "inception_4b/3x3"
  top: "inception_4b/3x3"
}
layer {
  name: "inception_4b/5x5_reduce"
  type: "Convolution"
  bottom: "inception_4a/output"
  top: "inception_4b/5x5_reduce"
  param {
    lr_mult: 1
    decay_mult: 1
  }
  param {
    lr_mult: 2
    decay_mult: 0
  }
  convolution_param {
    num_output: 24
    kernel_size: 1
    weight_filler {
      type: "xavier"
      std: 0.2
    }
    bias_filler {
      type: "constant"
      value: 0.2
    }
  }
}
layer {
  name: "inception_4b/relu_5x5_reduce"
  type: "ReLU"
  bottom: "inception_4b/5x5_reduce"
  top: "inception_4b/5x5_reduce"
}
layer {
  name: "inception_4b/5x5"
  type: "Convolution"
  bottom: "inception_4b/5x5_reduce"
  top: "inception_4b/5x5"
  param {
    lr_mult: 1
    decay_mult: 1
  }
  param {
    lr_mult: 2
    decay_mult: 0
  }
  convolution_param {
    num_output: 64
    pad: 2
    kernel_size: 5
    weight_filler {
      type: "xavier"
      std: 0.03
    }
    bias_filler {
      type: "constant"
      value: 0.2
    }
  }
}
layer {
  name: "inception_4b/relu_5x5"
  type: "ReLU"
  bottom: "inception_4b/5x5"
  top: "inception_4b/5x5"
}
layer {
  name: "inception_4b/pool"
  type: "Pooling"
  bottom: "inception_4a/output"
  top: "inception_4b/pool"
  pooling_param {
    pool: MAX
    kernel_size: 3
    stride: 1
    pad: 1
  }
}
layer {
  name: "inception_4b/pool_proj"
  type: "Convolution"
  bottom: "inception_4b/pool"
  top: "inception_4b/pool_proj"
  param {
    lr_mult: 1
    decay_mult: 1
  }
  param {
    lr_mult: 2
    decay_mult: 0
  }
  convolution_param {
    num_output: 64
    kernel_size: 1
    weight_filler {
      type: "xavier"
      std: 0.1
    }
    bias_filler {
      type: "constant"
      value: 0.2
    }
  }
}
layer {
  name: "inception_4b/relu_pool_proj"
  type: "ReLU"
  bottom: "inception_4b/pool_proj"
  top: "inception_4b/pool_proj"
}
layer {
  name: "inception_4b/output"
  type: "Concat"
  bottom: "inception_4b/1x1"
  bottom: "inception_4b/3x3"
  bottom: "inception_4b/5x5"
  bottom: "inception_4b/pool_proj"
  top: "inception_4b/output"
}
layer {
  name: "inception_4c/1x1"
  type: "Convolution"
  bottom: "inception_4b/output"
  top: "inception_4c/1x1"
  param {
    lr_mult: 1
    decay_mult: 1
  }
  param {
    lr_mult: 2
    decay_mult: 0
  }
  convolution_param {
    num_output: 128
    kernel_size: 1
    weight_filler {
      type: "xavier"
      std: 0.03
    }
    bias_filler {
      type: "constant"
      value: 0.2
    }
  }
}
layer {
  name: "inception_4c/relu_1x1"
  type: "ReLU"
  bottom: "inception_4c/1x1"
  top: "inception_4c/1x1"
}
layer {
  name: "inception_4c/3x3_reduce"
  type: "Convolution"
  bottom: "inception_4b/output"
  top: "inception_4c/3x3_reduce"
  param {
    lr_mult: 1
    decay_mult: 1
  }
  param {
    lr_mult: 2
    decay_mult: 0
  }
  convolution_param {
    num_output: 128
    kernel_size: 1
    weight_filler {
      type: "xavier"
      std: 0.09
    }
    bias_filler {
      type: "constant"
      value: 0.2
    }
  }
}
layer {
  name: "inception_4c/relu_3x3_reduce"
  type: "ReLU"
  bottom: "inception_4c/3x3_reduce"
  top: "inception_4c/3x3_reduce"
}
layer {
  name: "inception_4c/3x3"
  type: "Convolution"
  bottom: "inception_4c/3x3_reduce"
  top: "inception_4c/3x3"
  param {
    lr_mult: 1
    decay_mult: 1
  }
  param {
    lr_mult: 2
    decay_mult: 0
  }
  convolution_param {
    num_output: 256
    pad: 1
    kernel_size: 3
    weight_filler {
      type: "xavier"
      std: 0.03
    }
    bias_filler {
      type: "constant"
      value: 0.2
    }
  }
}
layer {
  name: "inception_4c/relu_3x3"
  type: "ReLU"
  bottom: "inception_4c/3x3"
  top: "inception_4c/3x3"
}
layer {
  name: "inception_4c/5x5_reduce"
  type: "Convolution"
  bottom: "inception_4b/output"
  top: "inception_4c/5x5_reduce"
  param {
    lr_mult: 1
    decay_mult: 1
  }
  param {
    lr_mult: 2
    decay_mult: 0
  }
  convolution_param {
    num_output: 24
    kernel_size: 1
    weight_filler {
      type: "xavier"
      std: 0.2
    }
    bias_filler {
      type: "constant"
      value: 0.2
    }
  }
}
layer {
  name: "inception_4c/relu_5x5_reduce"
  type: "ReLU"
  bottom: "inception_4c/5x5_reduce"
  top: "inception_4c/5x5_reduce"
}
layer {
  name: "inception_4c/5x5"
  type: "Convolution"
  bottom: "inception_4c/5x5_reduce"
  top: "inception_4c/5x5"
  param {
    lr_mult: 1
    decay_mult: 1
  }
  param {
    lr_mult: 2
    decay_mult: 0
  }
  convolution_param {
    num_output: 64
    pad: 2
    kernel_size: 5
    weight_filler {
      type: "xavier"
      std: 0.03
    }
    bias_filler {
      type: "constant"
      value: 0.2
    }
  }
}
layer {
  name: "inception_4c/relu_5x5"
  type: "ReLU"
  bottom: "inception_4c/5x5"
  top: "inception_4c/5x5"
}
layer {
  name: "inception_4c/pool"
  type: "Pooling"
  bottom: "inception_4b/output"
  top: "inception_4c/pool"
  pooling_param {
    pool: MAX
    kernel_size: 3
    stride: 1
    pad: 1
  }
}
layer {
  name: "inception_4c/pool_proj"
  type: "Convolution"
  bottom: "inception_4c/pool"
  top: "inception_4c/pool_proj"
  param {
    lr_mult: 1
    decay_mult: 1
  }
  param {
    lr_mult: 2
    decay_mult: 0
  }
  convolution_param {
    num_output: 64
    kernel_size: 1
    weight_filler {
      type: "xavier"
      std: 0.1
    }
    bias_filler {
      type: "constant"
      value: 0.2
    }
  }
}
layer {
  name: "inception_4c/relu_pool_proj"
  type: "ReLU"
  bottom: "inception_4c/pool_proj"
  top: "inception_4c/pool_proj"
}
layer {
  name: "inception_4c/output"
  type: "Concat"
  bottom: "inception_4c/1x1"
  bottom: "inception_4c/3x3"
  bottom: "inception_4c/5x5"
  bottom: "inception_4c/pool_proj"
  top: "inception_4c/output"
}
layer {
  name: "inception_4d/1x1"
  type: "Convolution"
  bottom: "inception_4c/output"
  top: "inception_4d/1x1"
  param {
    lr_mult: 1
    decay_mult: 1
  }
  param {
    lr_mult: 2
    decay_mult: 0
  }
  convolution_param {
    num_output: 112
    kernel_size: 1
    weight_filler {
      type: "xavier"
      std: 0.03
    }
    bias_filler {
      type: "constant"
      value: 0.2
    }
  }
}
layer {
  name: "inception_4d/relu_1x1"
  type: "ReLU"
  bottom: "inception_4d/1x1"
  top: "inception_4d/1x1"
}
layer {
  name: "inception_4d/3x3_reduce"
  type: "Convolution"
  bottom: "inception_4c/output"
  top: "inception_4d/3x3_reduce"
  param {
    lr_mult: 1
    decay_mult: 1
  }
  param {
    lr_mult: 2
    decay_mult: 0
  }
  convolution_param {
    num_output: 144
    kernel_size: 1
    weight_filler {
      type: "xavier"
      std: 0.09
    }
    bias_filler {
      type: "constant"
      value: 0.2
    }
  }
}
layer {
  name: "inception_4d/relu_3x3_reduce"
  type: "ReLU"
  bottom: "inception_4d/3x3_reduce"
  top: "inception_4d/3x3_reduce"
}
layer {
  name: "inception_4d/3x3"
  type: "Convolution"
  bottom: "inception_4d/3x3_reduce"
  top: "inception_4d/3x3"
  param {
    lr_mult: 1
    decay_mult: 1
  }
  param {
    lr_mult: 2
    decay_mult: 0
  }
  convolution_param {
    num_output: 288
    pad: 1
    kernel_size: 3
    weight_filler {
      type: "xavier"
      std: 0.03
    }
    bias_filler {
      type: "constant"
      value: 0.2
    }
  }
}
layer {
  name: "inception_4d/relu_3x3"
  type: "ReLU"
  bottom: "inception_4d/3x3"
  top: "inception_4d/3x3"
}
layer {
  name: "inception_4d/5x5_reduce"
  type: "Convolution"
  bottom: "inception_4c/output"
  top: "inception_4d/5x5_reduce"
  param {
    lr_mult: 1
    decay_mult: 1
  }
  param {
    lr_mult: 2
    decay_mult: 0
  }
  convolution_param {
    num_output: 32
    kernel_size: 1
    weight_filler {
      type: "xavier"
      std: 0.2
    }
    bias_filler {
      type: "constant"
      value: 0.2
    }
  }
}
layer {
  name: "inception_4d/relu_5x5_reduce"
  type: "ReLU"
  bottom: "inception_4d/5x5_reduce"
  top: "inception_4d/5x5_reduce"
}
layer {
  name: "inception_4d/5x5"
  type: "Convolution"
  bottom: "inception_4d/5x5_reduce"
  top: "inception_4d/5x5"
  param {
    lr_mult: 1
    decay_mult: 1
  }
  param {
    lr_mult: 2
    decay_mult: 0
  }
  convolution_param {
    num_output: 64
    pad: 2
    kernel_size: 5
    weight_filler {
      type: "xavier"
      std: 0.03
    }
    bias_filler {
      type: "constant"
      value: 0.2
    }
  }
}
layer {
  name: "inception_4d/relu_5x5"
  type: "ReLU"
  bottom: "inception_4d/5x5"
  top: "inception_4d/5x5"
}
layer {
  name: "inception_4d/pool"
  type: "Pooling"
  bottom: "inception_4c/output"
  top: "inception_4d/pool"
  pooling_param {
    pool: MAX
    kernel_size: 3
    stride: 1
    pad: 1
  }
}
layer {
  name: "inception_4d/pool_proj"
  type: "Convolution"
  bottom: "inception_4d/pool"
  top: "inception_4d/pool_proj"
  param {
    lr_mult: 1
    decay_mult: 1
  }
  param {
    lr_mult: 2
    decay_mult: 0
  }
  convolution_param {
    num_output: 64
    kernel_size: 1
    weight_filler {
      type: "xavier"
      std: 0.1
    }
    bias_filler {
      type: "constant"
      value: 0.2
    }
  }
}
layer {
  name: "inception_4d/relu_pool_proj"
  type: "ReLU"
  bottom: "inception_4d/pool_proj"
  top: "inception_4d/pool_proj"
}
layer {
  name: "inception_4d/output"
  type: "Concat"
  bottom: "inception_4d/1x1"
  bottom: "inception_4d/3x3"
  bottom: "inception_4d/5x5"
  bottom: "inception_4d/pool_proj"
  top: "inception_4d/output"
}
layer {
  name: "inception_4e/1x1"
  type: "Convolution"
  bottom: "inception_4d/output"
  top: "inception_4e/1x1"
  param {
    lr_mult: 1
    decay_mult: 1
  }
  param {
    lr_mult: 2
    decay_mult: 0
  }
  convolution_param {
    num_output: 256
    kernel_size: 1
    weight_filler {
      type: "xavier"
      std: 0.03
    }
    bias_filler {
      type: "constant"
      value: 0.2
    }
  }
}
layer {
  name: "inception_4e/relu_1x1"
  type: "ReLU"
  bottom: "inception_4e/1x1"
  top: "inception_4e/1x1"
}
layer {
  name: "inception_4e/3x3_reduce"
  type: "Convolution"
  bottom: "inception_4d/output"
  top: "inception_4e/3x3_reduce"
  param {
    lr_mult: 1
    decay_mult: 1
  }
  param {
    lr_mult: 2
    decay_mult: 0
  }
  convolution_param {
    num_output: 160
    kernel_size: 1
    weight_filler {
      type: "xavier"
      std: 0.09
    }
    bias_filler {
      type: "constant"
      value: 0.2
    }
  }
}
layer {
  name: "inception_4e/relu_3x3_reduce"
  type: "ReLU"
  bottom: "inception_4e/3x3_reduce"
  top: "inception_4e/3x3_reduce"
}
layer {
  name: "inception_4e/3x3"
  type: "Convolution"
  bottom: "inception_4e/3x3_reduce"
  top: "inception_4e/3x3"
  param {
    lr_mult: 1
    decay_mult: 1
  }
  param {
    lr_mult: 2
    decay_mult: 0
  }
  convolution_param {
    num_output: 320
    pad: 1
    kernel_size: 3
    weight_filler {
      type: "xavier"
      std: 0.03
    }
    bias_filler {
      type: "constant"
      value: 0.2
    }
  }
}
layer {
  name: "inception_4e/relu_3x3"
  type: "ReLU"
  bottom: "inception_4e/3x3"
  top: "inception_4e/3x3"
}
layer {
  name: "inception_4e/5x5_reduce"
  type: "Convolution"
  bottom: "inception_4d/output"
  top: "inception_4e/5x5_reduce"
  param {
    lr_mult: 1
    decay_mult: 1
  }
  param {
    lr_mult: 2
    decay_mult: 0
  }
  convolution_param {
    num_output: 32
    kernel_size: 1
    weight_filler {
      type: "xavier"
      std: 0.2
    }
    bias_filler {
      type: "constant"
      value: 0.2
    }
  }
}
layer {
  name: "inception_4e/relu_5x5_reduce"
  type: "ReLU"
  bottom: "inception_4e/5x5_reduce"
  top: "inception_4e/5x5_reduce"
}
layer {
  name: "inception_4e/5x5"
  type: "Convolution"
  bottom: "inception_4e/5x5_reduce"
  top: "inception_4e/5x5"
  param {
    lr_mult: 1
    decay_mult: 1
  }
  param {
    lr_mult: 2
    decay_mult: 0
  }
  convolution_param {
    num_output: 128
    pad: 2
    kernel_size: 5
    weight_filler {
      type: "xavier"
      std: 0.03
    }
    bias_filler {
      type: "constant"
      value: 0.2
    }
  }
}
layer {
  name: "inception_4e/relu_5x5"
  type: "ReLU"
  bottom: "inception_4e/5x5"
  top: "inception_4e/5x5"
}
layer {
  name: "inception_4e/pool"
  type: "Pooling"
  bottom: "inception_4d/output"
  top: "inception_4e/pool"
  pooling_param {
    pool: MAX
    kernel_size: 3
    stride: 1
    pad: 1
  }
}
layer {
  name: "inception_4e/pool_proj"
  type: "Convolution"
  bottom: "inception_4e/pool"
  top: "inception_4e/pool_proj"
  param {
    lr_mult: 1
    decay_mult: 1
  }
  param {
    lr_mult: 2
    decay_mult: 0
  }
  convolution_param {
    num_output: 128
    kernel_size: 1
    weight_filler {
      type: "xavier"
      std: 0.1
    }
    bias_filler {
      type: "constant"
      value: 0.2
    }
  }
}
layer {
  name: "inception_4e/relu_pool_proj"
  type: "ReLU"
  bottom: "inception_4e/pool_proj"
  top: "inception_4e/pool_proj"
}
layer {
  name: "inception_4e/output"
  type: "Concat"
  bottom: "inception_4e/1x1"
  bottom: "inception_4e/3x3"
  bottom: "inception_4e/5x5"
  bottom: "inception_4e/pool_proj"
  top: "inception_4e/output"
}
layer {
  name: "pool4/3x3_s2"
  type: "Pooling"
  bottom: "inception_4e/output"
  top: "pool4/3x3_s2"
  pooling_param {
    pool: MAX
    kernel_size: 3
    stride: 2
  }
}
layer {
  name: "inception_5a/1x1"
  type: "Convolution"
  bottom: "pool4/3x3_s2"
  top: "inception_5a/1x1"
  param {
    lr_mult: 1
    decay_mult: 1
  }
  param {
    lr_mult: 2
    decay_mult: 0
  }
  convolution_param {
    num_output: 256
    kernel_size: 1
    weight_filler {
      type: "xavier"
      std: 0.03
    }
    bias_filler {
      type: "constant"
      value: 0.2
    }
  }
}
layer {
  name: "inception_5a/relu_1x1"
  type: "ReLU"
  bottom: "inception_5a/1x1"
  top: "inception_5a/1x1"
}
layer {
  name: "inception_5a/3x3_reduce"
  type: "Convolution"
  bottom: "pool4/3x3_s2"
  top: "inception_5a/3x3_reduce"
  param {
    lr_mult: 1
    decay_mult: 1
  }
  param {
    lr_mult: 2
    decay_mult: 0
  }
  convolution_param {
    num_output: 160
    kernel_size: 1
    weight_filler {
      type: "xavier"
      std: 0.09
    }
    bias_filler {
      type: "constant"
      value: 0.2
    }
  }
}
layer {
  name: "inception_5a/relu_3x3_reduce"
  type: "ReLU"
  bottom: "inception_5a/3x3_reduce"
  top: "inception_5a/3x3_reduce"
}
layer {
  name: "inception_5a/3x3"
  type: "Convolution"
  bottom: "inception_5a/3x3_reduce"
  top: "inception_5a/3x3"
  param {
    lr_mult: 1
    decay_mult: 1
  }
  param {
    lr_mult: 2
    decay_mult: 0
  }
  convolution_param {
    num_output: 320
    pad: 1
    kernel_size: 3
    weight_filler {
      type: "xavier"
      std: 0.03
    }
    bias_filler {
      type: "constant"
      value: 0.2
    }
  }
}
layer {
  name: "inception_5a/relu_3x3"
  type: "ReLU"
  bottom: "inception_5a/3x3"
  top: "inception_5a/3x3"
}
layer {
  name: "inception_5a/5x5_reduce"
  type: "Convolution"
  bottom: "pool4/3x3_s2"
  top: "inception_5a/5x5_reduce"
  param {
    lr_mult: 1
    decay_mult: 1
  }
  param {
    lr_mult: 2
    decay_mult: 0
  }
  convolution_param {
    num_output: 32
    kernel_size: 1
    weight_filler {
      type: "xavier"
      std: 0.2
    }
    bias_filler {
      type: "constant"
      value: 0.2
    }
I0714 21:03:12.602524 13347 layer_factory.hpp:77] Creating layer data
I0714 21:03:12.602556 13347 net.cpp:91] Creating Layer data
I0714 21:03:12.602568 13347 net.cpp:399] data -> data
I0714 21:03:12.610323 13343 net.cpp:49] Initializing net from parameters: 
name: "GoogleNet"
state {
  phase: TEST
}
layer {
  name: "data"
  type: "Input"
  top: "data"
  input_param {
    shape {
      dim: 10
      dim: 3
      dim: 224
      dim: 224
    }
  }
}
layer {
  name: "conv1/7x7_s2"
  type: "Convolution"
  bottom: "data"
  top: "conv1/7x7_s2"
  param {
    lr_mult: 1
    decay_mult: 1
  }
  param {
    lr_mult: 2
    decay_mult: 0
  }
  convolution_param {
    num_output: 64
    pad: 3
    kernel_size: 7
    stride: 2
    weight_filler {
      type: "xavier"
      std: 0.1
    }
    bias_filler {
      type: "constant"
      value: 0.2
    }
  }
}
layer {
  name: "conv1/relu_7x7"
  type: "ReLU"
  bottom: "conv1/7x7_s2"
  top: "conv1/7x7_s2"
}
layer {
  name: "pool1/3x3_s2"
  type: "Pooling"
  bottom: "conv1/7x7_s2"
  top: "pool1/3x3_s2"
  pooling_param {
    pool: MAX
    kernel_size: 3
    stride: 2
  }
}
layer {
  name: "pool1/norm1"
  type: "LRN"
  bottom: "pool1/3x3_s2"
  top: "pool1/norm1"
  lrn_param {
    local_size: 5
    alpha: 0.0001
    beta: 0.75
  }
}
layer {
  name: "conv2/3x3_reduce"
  type: "Convolution"
  bottom: "pool1/norm1"
  top: "conv2/3x3_reduce"
  param {
    lr_mult: 1
    decay_mult: 1
  }
  param {
    lr_mult: 2
    decay_mult: 0
  }
  convolution_param {
    num_output: 64
    kernel_size: 1
    weight_filler {
      type: "xavier"
      std: 0.1
    }
    bias_filler {
      type: "constant"
      value: 0.2
    }
  }
}
layer {
  name: "conv2/relu_3x3_reduce"
  type: "ReLU"
  bottom: "conv2/3x3_reduce"
  top: "conv2/3x3_reduce"
}
layer {
  name: "conv2/3x3"
  type: "Convolution"
  bottom: "conv2/3x3_reduce"
  top: "conv2/3x3"
  param {
    lr_mult: 1
    decay_mult: 1
  }
  param {
    lr_mult: 2
    decay_mult: 0
  }
  convolution_param {
    num_output: 192
    pad: 1
    kernel_size: 3
    weight_filler {
      type: "xavier"
      std: 0.03
    }
    bias_filler {
      type: "constant"
      value: 0.2
    }
  }
}
layer {
  name: "conv2/relu_3x3"
  type: "ReLU"
  bottom: "conv2/3x3"
  top: "conv2/3x3"
}
layer {
  name: "conv2/norm2"
  type: "LRN"
  bottom: "conv2/3x3"
  top: "conv2/norm2"
  lrn_param {
    local_size: 5
    alpha: 0.0001
    beta: 0.75
  }
}
layer {
  name: "pool2/3x3_s2"
  type: "Pooling"
  bottom: "conv2/norm2"
  top: "pool2/3x3_s2"
  pooling_param {
    pool: MAX
    kernel_size: 3
    stride: 2
  }
}
layer {
  name: "inception_3a/1x1"
  type: "Convolution"
  bottom: "pool2/3x3_s2"
  top: "inception_3a/1x1"
  param {
    lr_mult: 1
    decay_mult: 1
  }
  param {
    lr_mult: 2
    decay_mult: 0
  }
  convolution_param {
    num_output: 64
    kernel_size: 1
    weight_filler {
      type: "xavier"
      std: 0.03
    }
    bias_filler {
      type: "constant"
      value: 0.2
    }
  }
}
layer {
  name: "inception_3a/relu_1x1"
  type: "ReLU"
  bottom: "inception_3a/1x1"
  top: "inception_3a/1x1"
}
layer {
  name: "inception_3a/3x3_reduce"
  type: "Convolution"
  bottom: "pool2/3x3_s2"
  top: "inception_3a/3x3_reduce"
  param {
    lr_mult: 1
    decay_mult: 1
  }
  param {
    lr_mult: 2
    decay_mult: 0
  }
  convolution_param {
    num_output: 96
    kernel_size: 1
    weight_filler {
      type: "xavier"
      std: 0.09
    }
    bias_filler {
      type: "constant"
      value: 0.2
    }
  }
}
layer {
  name: "inception_3a/relu_3x3_reduce"
  type: "ReLU"
  bottom: "inception_3a/3x3_reduce"
  top: "inception_3a/3x3_reduce"
}
layer {
  name: "inception_3a/3x3"
  type: "Convolution"
  bottom: "inception_3a/3x3_reduce"
  top: "inception_3a/3x3"
  param {
    lr_mult: 1
    decay_mult: 1
  }
  param {
    lr_mult: 2
    decay_mult: 0
  }
  convolution_param {
    num_output: 128
    pad: 1
    kernel_size: 3
    weight_filler {
      type: "xavier"
      std: 0.03
    }
    bias_filler {
      type: "constant"
      value: 0.2
    }
  }
}
layer {
  name: "inception_3a/relu_3x3"
  type: "ReLU"
  bottom: "inception_3a/3x3"
  top: "inception_3a/3x3"
}
layer {
  name: "inception_3a/5x5_reduce"
  type: "Convolution"
  bottom: "pool2/3x3_s2"
  top: "inception_3a/5x5_reduce"
  param {
    lr_mult: 1
    decay_mult: 1
  }
  param {
    lr_mult: 2
    decay_mult: 0
  }
  convolution_param {
    num_output: 16
    kernel_size: 1
    weight_filler {
      type: "xavier"
      std: 0.2
    }
    bias_filler {
      type: "constant"
      value: 0.2
    }
  }
}
layer {
  name: "inception_3a/relu_5x5_reduce"
  type: "ReLU"
  bottom: "inception_3a/5x5_reduce"
  top: "inception_3a/5x5_reduce"
}
layer {
  name: "inception_3a/5x5"
  type: "Convolution"
  bottom: "inception_3a/5x5_reduce"
  top: "inception_3a/5x5"
  param {
    lr_mult: 1
    decay_mult: 1
  }
  param {
    lr_mult: 2
    decay_mult: 0
  }
  convolution_param {
    num_output: 32
    pad: 2
    kernel_size: 5
    weight_filler {
      type: "xavier"
      std: 0.03
    }
    bias_filler {
      type: "constant"
      value: 0.2
    }
  }
}
layer {
  name: "inception_3a/relu_5x5"
  type: "ReLU"
  bottom: "inception_3a/5x5"
  top: "inception_3a/5x5"
}
layer {
  name: "inception_3a/pool"
  type: "Pooling"
  bottom: "pool2/3x3_s2"
  top: "inception_3a/pool"
  pooling_param {
    pool: MAX
    kernel_size: 3
    stride: 1
    pad: 1
  }
}
layer {
  name: "inception_3a/pool_proj"
  type: "Convolution"
  bottom: "inception_3a/pool"
  top: "inception_3a/pool_proj"
  param {
    lr_mult: 1
    decay_mult: 1
  }
  param {
    lr_mult: 2
    decay_mult: 0
  }
  convolution_param {
    num_output: 32
    kernel_size: 1
    weight_filler {
      type: "xavier"
      std: 0.1
    }
    bias_filler {
      type: "constant"
      value: 0.2
    }
  }
}
layer {
  name: "inception_3a/relu_pool_proj"
  type: "ReLU"
  bottom: "inception_3a/pool_proj"
  top: "inception_3a/pool_proj"
}
layer {
  name: "inception_3a/output"
  type: "Concat"
  bottom: "inception_3a/1x1"
  bottom: "inception_3a/3x3"
  bottom: "inception_3a/5x5"
  bottom: "inception_3a/pool_proj"
  top: "inception_3a/output"
}
layer {
  name: "inception_3b/1x1"
  type: "Convolution"
  bottom: "inception_3a/output"
  top: "inception_3b/1x1"
  param {
    lr_mult: 1
    decay_mult: 1
  }
  param {
    lr_mult: 2
    decay_mult: 0
  }
  convolution_param {
    num_output: 128
    kernel_size: 1
    weight_filler {
      type: "xavier"
      std: 0.03
    }
    bias_filler {
      type: "constant"
      value: 0.2
    }
  }
}
layer {
  name: "inception_3b/relu_1x1"
  type: "ReLU"
  bottom: "inception_3b/1x1"
  top: "inception_3b/1x1"
}
layer {
  name: "inception_3b/3x3_reduce"
  type: "Convolution"
  bottom: "inception_3a/output"
  top: "inception_3b/3x3_reduce"
  param {
    lr_mult: 1
    decay_mult: 1
  }
  param {
    lr_mult: 2
    decay_mult: 0
  }
  convolution_param {
    num_output: 128
    kernel_size: 1
    weight_filler {
      type: "xavier"
      std: 0.09
    }
    bias_filler {
      type: "constant"
      value: 0.2
    }
  }
}
layer {
  name: "inception_3b/relu_3x3_reduce"
  type: "ReLU"
  bottom: "inception_3b/3x3_reduce"
  top: "inception_3b/3x3_reduce"
}
layer {
  name: "inception_3b/3x3"
  type: "Convolution"
  bottom: "inception_3b/3x3_reduce"
  top: "inception_3b/3x3"
  param {
    lr_mult: 1
    decay_mult: 1
  }
  param {
    lr_mult: 2
    decay_mult: 0
  }
  convolution_param {
    num_output: 192
    pad: 1
    kernel_size: 3
    weight_filler {
      type: "xavier"
      std: 0.03
    }
    bias_filler {
      type: "constant"
      value: 0.2
    }
  }
}
layer {
  name: "inception_3b/relu_3x3"
  type: "ReLU"
  bottom: "inception_3b/3x3"
  top: "inception_3b/3x3"
}
layer {
  name: "inception_3b/5x5_reduce"
  type: "Convolution"
  bottom: "inception_3a/output"
  top: "inception_3b/5x5_reduce"
  param {
    lr_mult: 1
    decay_mult: 1
  }
  param {
    lr_mult: 2
    decay_mult: 0
  }
  convolution_param {
    num_output: 32
    kernel_size: 1
    weight_filler {
      type: "xavier"
      std: 0.2
    }
    bias_filler {
      type: "constant"
      value: 0.2
    }
  }
}
layer {
  name: "inception_3b/relu_5x5_reduce"
  type: "ReLU"
  bottom: "inception_3b/5x5_reduce"
  top: "inception_3b/5x5_reduce"
}
layer {
  name: "inception_3b/5x5"
  type: "Convolution"
  bottom: "inception_3b/5x5_reduce"
  top: "inception_3b/5x5"
  param {
    lr_mult: 1
    decay_mult: 1
  }
  param {
    lr_mult: 2
    decay_mult: 0
  }
  convolution_param {
    num_output: 96
    pad: 2
    kernel_size: 5
    weight_filler {
      type: "xavier"
      std: 0.03
    }
    bias_filler {
      type: "constant"
      value: 0.2
    }
  }
}
layer {
  name: "inception_3b/relu_5x5"
  type: "ReLU"
  bottom: "inception_3b/5x5"
  top: "inception_3b/5x5"
}
layer {
  name: "inception_3b/pool"
  type: "Pooling"
  bottom: "inception_3a/output"
  top: "inception_3b/pool"
  pooling_param {
    pool: MAX
    kernel_size: 3
    stride: 1
    pad: 1
  }
}
layer {
  name: "inception_3b/pool_proj"
  type: "Convolution"
  bottom: "inception_3b/pool"
  top: "inception_3b/pool_proj"
  param {
    lr_mult: 1
    decay_mult: 1
  }
  param {
    lr_mult: 2
    decay_mult: 0
  }
  convolution_param {
    num_output: 64
    kernel_size: 1
    weight_filler {
      type: "xavier"
      std: 0.1
    }
    bias_filler {
      type: "constant"
      value: 0.2
    }
  }
}
layer {
  name: "inception_3b/relu_pool_proj"
  type: "ReLU"
  bottom: "inception_3b/pool_proj"
  top: "inception_3b/pool_proj"
}
layer {
  name: "inception_3b/output"
  type: "Concat"
  bottom: "inception_3b/1x1"
  bottom: "inception_3b/3x3"
  bottom: "inception_3b/5x5"
  bottom: "inception_3b/pool_proj"
  top: "inception_3b/output"
}
layer {
  name: "pool3/3x3_s2"
  type: "Pooling"
  bottom: "inception_3b/output"
  top: "pool3/3x3_s2"
  pooling_param {
    pool: MAX
    kernel_size: 3
    stride: 2
  }
}
layer {
  name: "inception_4a/1x1"
  type: "Convolution"
  bottom: "pool3/3x3_s2"
  top: "inception_4a/1x1"
  param {
    lr_mult: 1
    decay_mult: 1
  }
  param {
    lr_mult: 2
    decay_mult: 0
  }
  convolution_param {
    num_output: 192
    kernel_size: 1
    weight_filler {
      type: "xavier"
      std: 0.03
    }
    bias_filler {
      type: "constant"
      value: 0.2
    }
  }
}
layer {
  name: "inception_4a/relu_1x1"
  type: "ReLU"
  bottom: "inception_4a/1x1"
  top: "inception_4a/1x1"
}
layer {
  name: "inception_4a/3x3_reduce"
  type: "Convolution"
  bottom: "pool3/3x3_s2"
  top: "inception_4a/3x3_reduce"
  param {
    lr_mult: 1
    decay_mult: 1
  }
  param {
    lr_mult: 2
    decay_mult: 0
  }
  convolution_param {
    num_output: 96
    kernel_size: 1
    weight_filler {
      type: "xavier"
      std: 0.09
    }
    bias_filler {
      type: "constant"
      value: 0.2
    }
  }
}
layer {
  name: "inception_4a/relu_3x3_reduce"
  type: "ReLU"
  bottom: "inception_4a/3x3_reduce"
  top: "inception_4a/3x3_reduce"
}
layer {
  name: "inception_4a/3x3"
  type: "Convolution"
  bottom: "inception_4a/3x3_reduce"
  top: "inception_4a/3x3"
  param {
    lr_mult: 1
    decay_mult: 1
  }
  param {
    lr_mult: 2
    decay_mult: 0
  }
  convolution_param {
    num_output: 208
    pad: 1
    kernel_size: 3
    weight_filler {
      type: "xavier"
      std: 0.03
    }
    bias_filler {
      type: "constant"
      value: 0.2
    }
  }
}
layer {
  name: "inception_4a/relu_3x3"
  type: "ReLU"
  bottom: "inception_4a/3x3"
  top: "inception_4a/3x3"
}
layer {
  name: "inception_4a/5x5_reduce"
  type: "Convolution"
  bottom: "pool3/3x3_s2"
  top: "inception_4a/5x5_reduce"
  param {
    lr_mult: 1
    decay_mult: 1
  }
  param {
    lr_mult: 2
    decay_mult: 0
  }
  convolution_param {
    num_output: 16
    kernel_size: 1
    weight_filler {
      type: "xavier"
      std: 0.2
    }
    bias_filler {
      type: "constant"
      value: 0.2
    }
  }
}
layer {
  name: "inception_4a/relu_5x5_reduce"
  type: "ReLU"
  bottom: "inception_4a/5x5_reduce"
  top: "inception_4a/5x5_reduce"
}
layer {
  name: "inception_4a/5x5"
  type: "Convolution"
  bottom: "inception_4a/5x5_reduce"
  top: "inception_4a/5x5"
  param {
    lr_mult: 1
    decay_mult: 1
  }
  param {
    lr_mult: 2
    decay_mult: 0
  }
  convolution_param {
    num_output: 48
    pad: 2
    kernel_size: 5
    weight_filler {
      type: "xavier"
      std: 0.03
    }
    bias_filler {
      type: "constant"
      value: 0.2
    }
  }
}
layer {
  name: "inception_4a/relu_5x5"
  type: "ReLU"
  bottom: "inception_4a/5x5"
  top: "inception_4a/5x5"
}
layer {
  name: "inception_4a/pool"
  type: "Pooling"
  bottom: "pool3/3x3_s2"
  top: "inception_4a/pool"
  pooling_param {
    pool: MAX
    kernel_size: 3
    stride: 1
    pad: 1
  }
}
layer {
  name: "inception_4a/pool_proj"
  type: "Convolution"
  bottom: "inception_4a/pool"
  top: "inception_4a/pool_proj"
  param {
    lr_mult: 1
    decay_mult: 1
  }
  param {
    lr_mult: 2
    decay_mult: 0
  }
  convolution_param {
    num_output: 64
    kernel_size: 1
    weight_filler {
      type: "xavier"
      std: 0.1
    }
    bias_filler {
      type: "constant"
      value: 0.2
    }
  }
}
layer {
  name: "inception_4a/relu_pool_proj"
  type: "ReLU"
  bottom: "inception_4a/pool_proj"
  top: "inception_4a/pool_proj"
}
layer {
  name: "inception_4a/output"
  type: "Concat"
  bottom: "inception_4a/1x1"
  bottom: "inception_4a/3x3"
  bottom: "inception_4a/5x5"
  bottom: "inception_4a/pool_proj"
  top: "inception_4a/output"
}
layer {
  name: "inception_4b/1x1"
  type: "Convolution"
  bottom: "inception_4a/output"
  top: "inception_4b/1x1"
  param {
    lr_mult: 1
    decay_mult: 1
  }
  param {
    lr_mult: 2
    decay_mult: 0
  }
  convolution_param {
    num_output: 160
    kernel_size: 1
    weight_filler {
      type: "xavier"
      std: 0.03
    }
    bias_filler {
      type: "constant"
      value: 0.2
    }
  }
}
layer {
  name: "inception_4b/relu_1x1"
  type: "ReLU"
  bottom: "inception_4b/1x1"
  top: "inception_4b/1x1"
}
layer {
  name: "inception_4b/3x3_reduce"
  type: "Convolution"
  bottom: "inception_4a/output"
  top: "inception_4b/3x3_reduce"
  param {
    lr_mult: 1
    decay_mult: 1
  }
  param {
    lr_mult: 2
    decay_mult: 0
  }
  convolution_param {
    num_output: 112
    kernel_size: 1
    weight_filler {
      type: "xavier"
      std: 0.09
    }
    bias_filler {
      type: "constant"
      value: 0.2
    }
  }
}
layer {
  name: "inception_4b/relu_3x3_reduce"
  type: "ReLU"
  bottom: "inception_4b/3x3_reduce"
  top: "inception_4b/3x3_reduce"
}
layer {
  name: "inception_4b/3x3"
  type: "Convolution"
  bottom: "inception_4b/3x3_reduce"
  top: "inception_4b/3x3"
  param {
    lr_mult: 1
    decay_mult: 1
  }
  param {
    lr_mult: 2
    decay_mult: 0
  }
  convolution_param {
    num_output: 224
    pad: 1
    kernel_size: 3
    weight_filler {
      type: "xavier"
      std: 0.03
    }
    bias_filler {
      type: "constant"
      value: 0.2
    }
  }
}
layer {
  name: "inception_4b/relu_3x3"
  type: "ReLU"
  bottom: "inception_4b/3x3"
  top: "inception_4b/3x3"
}
layer {
  name: "inception_4b/5x5_reduce"
  type: "Convolution"
  bottom: "inception_4a/output"
  top: "inception_4b/5x5_reduce"
  param {
    lr_mult: 1
    decay_mult: 1
  }
  param {
    lr_mult: 2
    decay_mult: 0
  }
  convolution_param {
    num_output: 24
    kernel_size: 1
    weight_filler {
      type: "xavier"
      std: 0.2
    }
    bias_filler {
      type: "constant"
      value: 0.2
    }
  }
}
layer {
  name: "inception_4b/relu_5x5_reduce"
  type: "ReLU"
  bottom: "inception_4b/5x5_reduce"
  top: "inception_4b/5x5_reduce"
}
layer {
  name: "inception_4b/5x5"
  type: "Convolution"
  bottom: "inception_4b/5x5_reduce"
  top: "inception_4b/5x5"
  param {
    lr_mult: 1
    decay_mult: 1
  }
  param {
    lr_mult: 2
    decay_mult: 0
  }
  convolution_param {
    num_output: 64
    pad: 2
    kernel_size: 5
    weight_filler {
      type: "xavier"
      std: 0.03
    }
    bias_filler {
      type: "constant"
      value: 0.2
    }
  }
}
layer {
  name: "inception_4b/relu_5x5"
  type: "ReLU"
  bottom: "inception_4b/5x5"
  top: "inception_4b/5x5"
}
layer {
  name: "inception_4b/pool"
  type: "Pooling"
  bottom: "inception_4a/output"
  top: "inception_4b/pool"
  pooling_param {
    pool: MAX
    kernel_size: 3
    stride: 1
    pad: 1
  }
}
layer {
  name: "inception_4b/pool_proj"
  type: "Convolution"
  bottom: "inception_4b/pool"
  top: "inception_4b/pool_proj"
  param {
    lr_mult: 1
    decay_mult: 1
  }
  param {
    lr_mult: 2
    decay_mult: 0
  }
  convolution_param {
    num_output: 64
    kernel_size: 1
    weight_filler {
      type: "xavier"
      std: 0.1
    }
    bias_filler {
      type: "constant"
      value: 0.2
    }
  }
}
layer {
  name: "inception_4b/relu_pool_proj"
  type: "ReLU"
  bottom: "inception_4b/pool_proj"
  top: "inception_4b/pool_proj"
}
layer {
  name: "inception_4b/output"
  type: "Concat"
  bottom: "inception_4b/1x1"
  bottom: "inception_4b/3x3"
  bottom: "inception_4b/5x5"
  bottom: "inception_4b/pool_proj"
  top: "inception_4b/output"
}
layer {
  name: "inception_4c/1x1"
  type: "Convolution"
  bottom: "inception_4b/output"
  top: "inception_4c/1x1"
  param {
    lr_mult: 1
    decay_mult: 1
  }
  param {
    lr_mult: 2
    decay_mult: 0
  }
  convolution_param {
    num_output: 128
    kernel_size: 1
    weight_filler {
      type: "xavier"
      std: 0.03
    }
    bias_filler {
      type: "constant"
      value: 0.2
    }
  }
}
layer {
  name: "inception_4c/relu_1x1"
  type: "ReLU"
  bottom: "inception_4c/1x1"
  top: "inception_4c/1x1"
}
layer {
  name: "inception_4c/3x3_reduce"
  type: "Convolution"
  bottom: "inception_4b/output"
  top: "inception_4c/3x3_reduce"
  param {
    lr_mult: 1
    decay_mult: 1
  }
  param {
    lr_mult: 2
    decay_mult: 0
  }
  convolution_param {
    num_output: 128
    kernel_size: 1
    weight_filler {
      type: "xavier"
      std: 0.09
    }
    bias_filler {
      type: "constant"
      value: 0.2
    }
  }
}
layer {
  name: "inception_4c/relu_3x3_reduce"
  type: "ReLU"
  bottom: "inception_4c/3x3_reduce"
  top: "inception_4c/3x3_reduce"
}
layer {
  name: "inception_4c/3x3"
  type: "Convolution"
  bottom: "inception_4c/3x3_reduce"
  top: "inception_4c/3x3"
  param {
    lr_mult: 1
    decay_mult: 1
  }
  param {
    lr_mult: 2
    decay_mult: 0
  }
  convolution_param {
    num_output: 256
    pad: 1
    kernel_size: 3
    weight_filler {
      type: "xavier"
      std: 0.03
    }
    bias_filler {
      type: "constant"
      value: 0.2
    }
  }
}
layer {
  name: "inception_4c/relu_3x3"
  type: "ReLU"
  bottom: "inception_4c/3x3"
  top: "inception_4c/3x3"
}
layer {
  name: "inception_4c/5x5_reduce"
  type: "Convolution"
  bottom: "inception_4b/output"
  top: "inception_4c/5x5_reduce"
  param {
    lr_mult: 1
    decay_mult: 1
  }
  param {
    lr_mult: 2
    decay_mult: 0
  }
  convolution_param {
    num_output: 24
    kernel_size: 1
    weight_filler {
      type: "xavier"
      std: 0.2
    }
    bias_filler {
      type: "constant"
      value: 0.2
    }
  }
}
layer {
  name: "inception_4c/relu_5x5_reduce"
  type: "ReLU"
  bottom: "inception_4c/5x5_reduce"
  top: "inception_4c/5x5_reduce"
}
layer {
  name: "inception_4c/5x5"
  type: "Convolution"
  bottom: "inception_4c/5x5_reduce"
  top: "inception_4c/5x5"
  param {
    lr_mult: 1
    decay_mult: 1
  }
  param {
    lr_mult: 2
    decay_mult: 0
  }
  convolution_param {
    num_output: 64
    pad: 2
    kernel_size: 5
    weight_filler {
      type: "xavier"
      std: 0.03
    }
    bias_filler {
      type: "constant"
      value: 0.2
    }
  }
}
layer {
  name: "inception_4c/relu_5x5"
  type: "ReLU"
  bottom: "inception_4c/5x5"
  top: "inception_4c/5x5"
}
layer {
  name: "inception_4c/pool"
  type: "Pooling"
  bottom: "inception_4b/output"
  top: "inception_4c/pool"
  pooling_param {
    pool: MAX
    kernel_size: 3
    stride: 1
    pad: 1
  }
}
layer {
  name: "inception_4c/pool_proj"
  type: "Convolution"
  bottom: "inception_4c/pool"
  top: "inception_4c/pool_proj"
  param {
    lr_mult: 1
    decay_mult: 1
  }
  param {
    lr_mult: 2
    decay_mult: 0
  }
  convolution_param {
    num_output: 64
    kernel_size: 1
    weight_filler {
      type: "xavier"
      std: 0.1
    }
    bias_filler {
      type: "constant"
      value: 0.2
    }
  }
}
layer {
  name: "inception_4c/relu_pool_proj"
  type: "ReLU"
  bottom: "inception_4c/pool_proj"
  top: "inception_4c/pool_proj"
}
layer {
  name: "inception_4c/output"
  type: "Concat"
  bottom: "inception_4c/1x1"
  bottom: "inception_4c/3x3"
  bottom: "inception_4c/5x5"
  bottom: "inception_4c/pool_proj"
  top: "inception_4c/output"
}
layer {
  name: "inception_4d/1x1"
  type: "Convolution"
  bottom: "inception_4c/output"
  top: "inception_4d/1x1"
  param {
    lr_mult: 1
    decay_mult: 1
  }
  param {
    lr_mult: 2
    decay_mult: 0
  }
  convolution_param {
    num_output: 112
    kernel_size: 1
    weight_filler {
      type: "xavier"
      std: 0.03
    }
    bias_filler {
      type: "constant"
      value: 0.2
    }
  }
}
layer {
  name: "inception_4d/relu_1x1"
  type: "ReLU"
  bottom: "inception_4d/1x1"
  top: "inception_4d/1x1"
}
layer {
  name: "inception_4d/3x3_reduce"
  type: "Convolution"
  bottom: "inception_4c/output"
  top: "inception_4d/3x3_reduce"
  param {
    lr_mult: 1
    decay_mult: 1
  }
  param {
    lr_mult: 2
    decay_mult: 0
  }
  convolution_param {
    num_output: 144
    kernel_size: 1
    weight_filler {
      type: "xavier"
      std: 0.09
    }
    bias_filler {
      type: "constant"
      value: 0.2
    }
  }
}
layer {
  name: "inception_4d/relu_3x3_reduce"
  type: "ReLU"
  bottom: "inception_4d/3x3_reduce"
  top: "inception_4d/3x3_reduce"
}
layer {
  name: "inception_4d/3x3"
  type: "Convolution"
  bottom: "inception_4d/3x3_reduce"
  top: "inception_4d/3x3"
  param {
    lr_mult: 1
    decay_mult: 1
  }
  param {
    lr_mult: 2
    decay_mult: 0
  }
  convolution_param {
    num_output: 288
    pad: 1
    kernel_size: 3
    weight_filler {
      type: "xavier"
      std: 0.03
    }
    bias_filler {
      type: "constant"
      value: 0.2
    }
  }
}
layer {
  name: "inception_4d/relu_3x3"
  type: "ReLU"
  bottom: "inception_4d/3x3"
  top: "inception_4d/3x3"
}
layer {
  name: "inception_4d/5x5_reduce"
  type: "Convolution"
  bottom: "inception_4c/output"
  top: "inception_4d/5x5_reduce"
  param {
    lr_mult: 1
    decay_mult: 1
  }
  param {
    lr_mult: 2
    decay_mult: 0
  }
  convolution_param {
    num_output: 32
    kernel_size: 1
    weight_filler {
      type: "xavier"
      std: 0.2
    }
    bias_filler {
      type: "constant"
      value: 0.2
    }
  }
}
layer {
  name: "inception_4d/relu_5x5_reduce"
  type: "ReLU"
  bottom: "inception_4d/5x5_reduce"
  top: "inception_4d/5x5_reduce"
}
layer {
  name: "inception_4d/5x5"
  type: "Convolution"
  bottom: "inception_4d/5x5_reduce"
  top: "inception_4d/5x5"
  param {
    lr_mult: 1
    decay_mult: 1
  }
  param {
    lr_mult: 2
    decay_mult: 0
  }
  convolution_param {
    num_output: 64
    pad: 2
    kernel_size: 5
    weight_filler {
      type: "xavier"
      std: 0.03
    }
    bias_filler {
      type: "constant"
      value: 0.2
    }
  }
}
layer {
  name: "inception_4d/relu_5x5"
  type: "ReLU"
  bottom: "inception_4d/5x5"
  top: "inception_4d/5x5"
}
layer {
  name: "inception_4d/pool"
  type: "Pooling"
  bottom: "inception_4c/output"
  top: "inception_4d/pool"
  pooling_param {
    pool: MAX
    kernel_size: 3
    stride: 1
    pad: 1
  }
}
layer {
  name: "inception_4d/pool_proj"
  type: "Convolution"
  bottom: "inception_4d/pool"
  top: "inception_4d/pool_proj"
  param {
    lr_mult: 1
    decay_mult: 1
  }
  param {
    lr_mult: 2
    decay_mult: 0
  }
  convolution_param {
    num_output: 64
    kernel_size: 1
    weight_filler {
      type: "xavier"
      std: 0.1
    }
    bias_filler {
      type: "constant"
      value: 0.2
    }
  }
}
layer {
  name: "inception_4d/relu_pool_proj"
  type: "ReLU"
  bottom: "inception_4d/pool_proj"
  top: "inception_4d/pool_proj"
}
layer {
  name: "inception_4d/output"
  type: "Concat"
  bottom: "inception_4d/1x1"
  bottom: "inception_4d/3x3"
  bottom: "inception_4d/5x5"
  bottom: "inception_4d/pool_proj"
  top: "inception_4d/output"
}
layer {
  name: "inception_4e/1x1"
  type: "Convolution"
  bottom: "inception_4d/output"
  top: "inception_4e/1x1"
  param {
    lr_mult: 1
    decay_mult: 1
  }
  param {
    lr_mult: 2
    decay_mult: 0
  }
  convolution_param {
    num_output: 256
    kernel_size: 1
    weight_filler {
      type: "xavier"
      std: 0.03
    }
    bias_filler {
      type: "constant"
      value: 0.2
    }
  }
}
layer {
  name: "inception_4e/relu_1x1"
  type: "ReLU"
  bottom: "inception_4e/1x1"
  top: "inception_4e/1x1"
}
layer {
  name: "inception_4e/3x3_reduce"
  type: "Convolution"
  bottom: "inception_4d/output"
  top: "inception_4e/3x3_reduce"
  param {
    lr_mult: 1
    decay_mult: 1
  }
  param {
    lr_mult: 2
    decay_mult: 0
  }
  convolution_param {
    num_output: 160
    kernel_size: 1
    weight_filler {
      type: "xavier"
      std: 0.09
    }
    bias_filler {
      type: "constant"
      value: 0.2
    }
  }
}
layer {
  name: "inception_4e/relu_3x3_reduce"
  type: "ReLU"
  bottom: "inception_4e/3x3_reduce"
  top: "inception_4e/3x3_reduce"
}
layer {
  name: "inception_4e/3x3"
  type: "Convolution"
  bottom: "inception_4e/3x3_reduce"
  top: "inception_4e/3x3"
  param {
    lr_mult: 1
    decay_mult: 1
  }
  param {
    lr_mult: 2
    decay_mult: 0
  }
  convolution_param {
    num_output: 320
    pad: 1
    kernel_size: 3
    weight_filler {
      type: "xavier"
      std: 0.03
    }
    bias_filler {
      type: "constant"
      value: 0.2
    }
  }
}
layer {
  name: "inception_4e/relu_3x3"
  type: "ReLU"
  bottom: "inception_4e/3x3"
  top: "inception_4e/3x3"
}
layer {
  name: "inception_4e/5x5_reduce"
  type: "Convolution"
  bottom: "inception_4d/output"
  top: "inception_4e/5x5_reduce"
  param {
    lr_mult: 1
    decay_mult: 1
  }
  param {
    lr_mult: 2
    decay_mult: 0
  }
  convolution_param {
    num_output: 32
    kernel_size: 1
    weight_filler {
      type: "xavier"
      std: 0.2
    }
    bias_filler {
      type: "constant"
      value: 0.2
    }
  }
}
layer {
  name: "inception_4e/relu_5x5_reduce"
  type: "ReLU"
  bottom: "inception_4e/5x5_reduce"
  top: "inception_4e/5x5_reduce"
}
layer {
  name: "inception_4e/5x5"
  type: "Convolution"
  bottom: "inception_4e/5x5_reduce"
  top: "inception_4e/5x5"
  param {
    lr_mult: 1
    decay_mult: 1
  }
  param {
    lr_mult: 2
    decay_mult: 0
  }
  convolution_param {
    num_output: 128
    pad: 2
    kernel_size: 5
    weight_filler {
      type: "xavier"
      std: 0.03
    }
    bias_filler {
      type: "constant"
      value: 0.2
    }
  }
}
layer {
  name: "inception_4e/relu_5x5"
  type: "ReLU"
  bottom: "inception_4e/5x5"
  top: "inception_4e/5x5"
}
layer {
  name: "inception_4e/pool"
  type: "Pooling"
  bottom: "inception_4d/output"
  top: "inception_4e/pool"
  pooling_param {
    pool: MAX
    kernel_size: 3
    stride: 1
    pad: 1
  }
}
layer {
  name: "inception_4e/pool_proj"
  type: "Convolution"
  bottom: "inception_4e/pool"
  top: "inception_4e/pool_proj"
  param {
    lr_mult: 1
    decay_mult: 1
  }
  param {
    lr_mult: 2
    decay_mult: 0
  }
  convolution_param {
    num_output: 128
    kernel_size: 1
    weight_filler {
      type: "xavier"
      std: 0.1
    }
    bias_filler {
      type: "constant"
      value: 0.2
    }
  }
}
layer {
  name: "inception_4e/relu_pool_proj"
  type: "ReLU"
  bottom: "inception_4e/pool_proj"
  top: "inception_4e/pool_proj"
}
layer {
  name: "inception_4e/output"
  type: "Concat"
  bottom: "inception_4e/1x1"
  bottom: "inception_4e/3x3"
  bottom: "inception_4e/5x5"
  bottom: "inception_4e/pool_proj"
  top: "inception_4e/output"
}
layer {
  name: "pool4/3x3_s2"
  type: "Pooling"
  bottom: "inception_4e/output"
  top: "pool4/3x3_s2"
  pooling_param {
    pool: MAX
    kernel_size: 3
    stride: 2
  }
}
layer {
  name: "inception_5a/1x1"
  type: "Convolution"
  bottom: "pool4/3x3_s2"
  top: "inception_5a/1x1"
  param {
    lr_mult: 1
    decay_mult: 1
  }
  param {
    lr_mult: 2
    decay_mult: 0
  }
  convolution_param {
    num_output: 256
    kernel_size: 1
    weight_filler {
      type: "xavier"
      std: 0.03
    }
    bias_filler {
      type: "constant"
      value: 0.2
    }
  }
}
layer {
  name: "inception_5a/relu_1x1"
  type: "ReLU"
  bottom: "inception_5a/1x1"
  top: "inception_5a/1x1"
}
layer {
  name: "inception_5a/3x3_reduce"
  type: "Convolution"
  bottom: "pool4/3x3_s2"
  top: "inception_5a/3x3_reduce"
  param {
    lr_mult: 1
    decay_mult: 1
  }
  param {
    lr_mult: 2
    decay_mult: 0
  }
  convolution_param {
    num_output: 160
    kernel_size: 1
    weight_filler {
      type: "xavier"
      std: 0.09
    }
    bias_filler {
      type: "constant"
      value: 0.2
    }
  }
}
layer {
  name: "inception_5a/relu_3x3_reduce"
  type: "ReLU"
  bottom: "inception_5a/3x3_reduce"
  top: "inception_5a/3x3_reduce"
}
layer {
  name: "inception_5a/3x3"
  type: "Convolution"
  bottom: "inception_5a/3x3_reduce"
  top: "inception_5a/3x3"
  param {
    lr_mult: 1
    decay_mult: 1
  }
  param {
    lr_mult: 2
    decay_mult: 0
  }
  convolution_param {
    num_output: 320
    pad: 1
    kernel_size: 3
    weight_filler {
      type: "xavier"
      std: 0.03
    }
    bias_filler {
      type: "constant"
      value: 0.2
    }
  }
}
layer {
  name: "inception_5a/relu_3x3"
  type: "ReLU"
  bottom: "inception_5a/3x3"
  top: "inception_5a/3x3"
}
layer {
  name: "inception_5a/5x5_reduce"
  type: "Convolution"
  bottom: "pool4/3x3_s2"
  top: "inception_5a/5x5_reduce"
  param {
    lr_mult: 1
    decay_mult: 1
  }
  param {
    lr_mult: 2
    decay_mult: 0
  }
  convolution_param {
    num_output: 32
    kernel_size: 1
    weight_filler {
      type: "xavier"
      std: 0.2
    }
    bias_filler {
      type: "constant"
      value: 0.2
    }
I0714 21:03:12.611260 13343 layer_factory.hpp:77] Creating layer data
I0714 21:03:12.611282 13343 net.cpp:91] Creating Layer data
I0714 21:03:12.611291 13343 net.cpp:399] data -> data
I0714 21:03:13.668545 13347 net.cpp:141] Setting up data
I0714 21:03:13.668643 13347 net.cpp:148] Top shape: 10 3 224 224 (1505280)
I0714 21:03:13.668653 13347 net.cpp:156] Memory required for data: 6021120
I0714 21:03:13.668675 13347 layer_factory.hpp:77] Creating layer conv1/7x7_s2
I0714 21:03:13.668718 13347 net.cpp:91] Creating Layer conv1/7x7_s2
I0714 21:03:13.668727 13347 net.cpp:425] conv1/7x7_s2 <- data
I0714 21:03:13.668745 13347 net.cpp:399] conv1/7x7_s2 -> conv1/7x7_s2
I0714 21:03:13.681040 13343 net.cpp:141] Setting up data
I0714 21:03:13.681087 13343 net.cpp:148] Top shape: 10 3 224 224 (1505280)
I0714 21:03:13.681093 13343 net.cpp:156] Memory required for data: 6021120
I0714 21:03:13.681105 13343 layer_factory.hpp:77] Creating layer conv1/7x7_s2
I0714 21:03:13.681138 13343 net.cpp:91] Creating Layer conv1/7x7_s2
I0714 21:03:13.681145 13343 net.cpp:425] conv1/7x7_s2 <- data
I0714 21:03:13.681157 13343 net.cpp:399] conv1/7x7_s2 -> conv1/7x7_s2
I0714 21:03:14.128913 13347 net.cpp:141] Setting up conv1/7x7_s2
I0714 21:03:14.128976 13347 net.cpp:148] Top shape: 10 64 112 112 (8028160)
I0714 21:03:14.128984 13347 net.cpp:156] Memory required for data: 38133760
I0714 21:03:14.129019 13347 layer_factory.hpp:77] Creating layer conv1/relu_7x7
I0714 21:03:14.129040 13347 net.cpp:91] Creating Layer conv1/relu_7x7
I0714 21:03:14.129048 13347 net.cpp:425] conv1/relu_7x7 <- conv1/7x7_s2
I0714 21:03:14.129060 13347 net.cpp:386] conv1/relu_7x7 -> conv1/7x7_s2 (in-place)
I0714 21:03:14.130460 13347 net.cpp:141] Setting up conv1/relu_7x7
I0714 21:03:14.130477 13347 net.cpp:148] Top shape: 10 64 112 112 (8028160)
I0714 21:03:14.130483 13347 net.cpp:156] Memory required for data: 70246400
I0714 21:03:14.130489 13347 layer_factory.hpp:77] Creating layer pool1/3x3_s2
I0714 21:03:14.130486 13343 net.cpp:141] Setting up conv1/7x7_s2
I0714 21:03:14.130506 13347 net.cpp:91] Creating Layer pool1/3x3_s2
I0714 21:03:14.130511 13343 net.cpp:148] Top shape: 10 64 112 112 (8028160)
I0714 21:03:14.130514 13347 net.cpp:425] pool1/3x3_s2 <- conv1/7x7_s2
I0714 21:03:14.130517 13343 net.cpp:156] Memory required for data: 38133760
I0714 21:03:14.130523 13347 net.cpp:399] pool1/3x3_s2 -> pool1/3x3_s2
I0714 21:03:14.130534 13343 layer_factory.hpp:77] Creating layer conv1/relu_7x7
I0714 21:03:14.130548 13343 net.cpp:91] Creating Layer conv1/relu_7x7
I0714 21:03:14.130554 13343 net.cpp:425] conv1/relu_7x7 <- conv1/7x7_s2
I0714 21:03:14.130563 13343 net.cpp:386] conv1/relu_7x7 -> conv1/7x7_s2 (in-place)
I0714 21:03:14.131395 13347 net.cpp:141] Setting up pool1/3x3_s2
I0714 21:03:14.131412 13347 net.cpp:148] Top shape: 10 64 56 56 (2007040)
I0714 21:03:14.131417 13347 net.cpp:156] Memory required for data: 78274560
I0714 21:03:14.131422 13347 layer_factory.hpp:77] Creating layer pool1/norm1
I0714 21:03:14.131443 13347 net.cpp:91] Creating Layer pool1/norm1
I0714 21:03:14.131449 13347 net.cpp:425] pool1/norm1 <- pool1/3x3_s2
I0714 21:03:14.131458 13347 net.cpp:399] pool1/norm1 -> pool1/norm1
I0714 21:03:14.131464 13343 net.cpp:141] Setting up conv1/relu_7x7
I0714 21:03:14.131480 13343 net.cpp:148] Top shape: 10 64 112 112 (8028160)
I0714 21:03:14.131485 13343 net.cpp:156] Memory required for data: 70246400
I0714 21:03:14.131491 13343 layer_factory.hpp:77] Creating layer pool1/3x3_s2
I0714 21:03:14.131502 13343 net.cpp:91] Creating Layer pool1/3x3_s2
I0714 21:03:14.131507 13343 net.cpp:425] pool1/3x3_s2 <- conv1/7x7_s2
I0714 21:03:14.131520 13343 net.cpp:399] pool1/3x3_s2 -> pool1/3x3_s2
I0714 21:03:14.132282 13343 net.cpp:141] Setting up pool1/3x3_s2
I0714 21:03:14.132297 13343 net.cpp:148] Top shape: 10 64 56 56 (2007040)
I0714 21:03:14.132303 13343 net.cpp:156] Memory required for data: 78274560
I0714 21:03:14.132309 13343 layer_factory.hpp:77] Creating layer pool1/norm1
I0714 21:03:14.132330 13343 net.cpp:91] Creating Layer pool1/norm1
I0714 21:03:14.132338 13343 net.cpp:425] pool1/norm1 <- pool1/3x3_s2
I0714 21:03:14.132345 13343 net.cpp:399] pool1/norm1 -> pool1/norm1
I0714 21:03:14.133177 13347 net.cpp:141] Setting up pool1/norm1
I0714 21:03:14.133194 13347 net.cpp:148] Top shape: 10 64 56 56 (2007040)
I0714 21:03:14.133200 13347 net.cpp:156] Memory required for data: 86302720
I0714 21:03:14.133205 13347 layer_factory.hpp:77] Creating layer conv2/3x3_reduce
I0714 21:03:14.133237 13347 net.cpp:91] Creating Layer conv2/3x3_reduce
I0714 21:03:14.133245 13347 net.cpp:425] conv2/3x3_reduce <- pool1/norm1
I0714 21:03:14.133255 13347 net.cpp:399] conv2/3x3_reduce -> conv2/3x3_reduce
I0714 21:03:14.133380 13343 net.cpp:141] Setting up pool1/norm1
I0714 21:03:14.133396 13343 net.cpp:148] Top shape: 10 64 56 56 (2007040)
I0714 21:03:14.133401 13343 net.cpp:156] Memory required for data: 86302720
I0714 21:03:14.133407 13343 layer_factory.hpp:77] Creating layer conv2/3x3_reduce
I0714 21:03:14.133429 13343 net.cpp:91] Creating Layer conv2/3x3_reduce
I0714 21:03:14.133435 13343 net.cpp:425] conv2/3x3_reduce <- pool1/norm1
I0714 21:03:14.133445 13343 net.cpp:399] conv2/3x3_reduce -> conv2/3x3_reduce
I0714 21:03:14.139878 13347 net.cpp:141] Setting up conv2/3x3_reduce
I0714 21:03:14.139901 13347 net.cpp:148] Top shape: 10 64 56 56 (2007040)
I0714 21:03:14.139907 13347 net.cpp:156] Memory required for data: 94330880
I0714 21:03:14.139922 13347 layer_factory.hpp:77] Creating layer conv2/relu_3x3_reduce
I0714 21:03:14.139933 13347 net.cpp:91] Creating Layer conv2/relu_3x3_reduce
I0714 21:03:14.139940 13347 net.cpp:425] conv2/relu_3x3_reduce <- conv2/3x3_reduce
I0714 21:03:14.139951 13347 net.cpp:386] conv2/relu_3x3_reduce -> conv2/3x3_reduce (in-place)
I0714 21:03:14.140966 13347 net.cpp:141] Setting up conv2/relu_3x3_reduce
I0714 21:03:14.140971 13343 net.cpp:141] Setting up conv2/3x3_reduce
I0714 21:03:14.140983 13347 net.cpp:148] Top shape: 10 64 56 56 (2007040)
I0714 21:03:14.140990 13347 net.cpp:156] Memory required for data: 102359040
I0714 21:03:14.140990 13343 net.cpp:148] Top shape: 10 64 56 56 (2007040)
I0714 21:03:14.140996 13347 layer_factory.hpp:77] Creating layer conv2/3x3
I0714 21:03:14.140996 13343 net.cpp:156] Memory required for data: 94330880
I0714 21:03:14.141021 13347 net.cpp:91] Creating Layer conv2/3x3
I0714 21:03:14.141026 13343 layer_factory.hpp:77] Creating layer conv2/relu_3x3_reduce
I0714 21:03:14.141027 13347 net.cpp:425] conv2/3x3 <- conv2/3x3_reduce
I0714 21:03:14.141041 13343 net.cpp:91] Creating Layer conv2/relu_3x3_reduce
I0714 21:03:14.141047 13343 net.cpp:425] conv2/relu_3x3_reduce <- conv2/3x3_reduce
I0714 21:03:14.141049 13347 net.cpp:399] conv2/3x3 -> conv2/3x3
I0714 21:03:14.141058 13343 net.cpp:386] conv2/relu_3x3_reduce -> conv2/3x3_reduce (in-place)
I0714 21:03:14.142058 13343 net.cpp:141] Setting up conv2/relu_3x3_reduce
I0714 21:03:14.142076 13343 net.cpp:148] Top shape: 10 64 56 56 (2007040)
I0714 21:03:14.142081 13343 net.cpp:156] Memory required for data: 102359040
I0714 21:03:14.142087 13343 layer_factory.hpp:77] Creating layer conv2/3x3
I0714 21:03:14.142109 13343 net.cpp:91] Creating Layer conv2/3x3
I0714 21:03:14.142115 13343 net.cpp:425] conv2/3x3 <- conv2/3x3_reduce
I0714 21:03:14.142129 13343 net.cpp:399] conv2/3x3 -> conv2/3x3
I0714 21:03:14.150095 13347 net.cpp:141] Setting up conv2/3x3
I0714 21:03:14.150121 13347 net.cpp:148] Top shape: 10 192 56 56 (6021120)
I0714 21:03:14.150128 13347 net.cpp:156] Memory required for data: 126443520
I0714 21:03:14.150143 13347 layer_factory.hpp:77] Creating layer conv2/relu_3x3
I0714 21:03:14.150154 13347 net.cpp:91] Creating Layer conv2/relu_3x3
I0714 21:03:14.150161 13347 net.cpp:425] conv2/relu_3x3 <- conv2/3x3
I0714 21:03:14.150168 13347 net.cpp:386] conv2/relu_3x3 -> conv2/3x3 (in-place)
I0714 21:03:14.150596 13347 net.cpp:141] Setting up conv2/relu_3x3
I0714 21:03:14.150609 13347 net.cpp:148] Top shape: 10 192 56 56 (6021120)
I0714 21:03:14.150615 13347 net.cpp:156] Memory required for data: 150528000
I0714 21:03:14.150621 13347 layer_factory.hpp:77] Creating layer conv2/norm2
I0714 21:03:14.150637 13347 net.cpp:91] Creating Layer conv2/norm2
I0714 21:03:14.150643 13347 net.cpp:425] conv2/norm2 <- conv2/3x3
I0714 21:03:14.150651 13347 net.cpp:399] conv2/norm2 -> conv2/norm2
I0714 21:03:14.151479 13343 net.cpp:141] Setting up conv2/3x3
I0714 21:03:14.151502 13343 net.cpp:148] Top shape: 10 192 56 56 (6021120)
I0714 21:03:14.151509 13343 net.cpp:156] Memory required for data: 126443520
I0714 21:03:14.151522 13343 layer_factory.hpp:77] Creating layer conv2/relu_3x3
I0714 21:03:14.151535 13343 net.cpp:91] Creating Layer conv2/relu_3x3
I0714 21:03:14.151540 13343 net.cpp:425] conv2/relu_3x3 <- conv2/3x3
I0714 21:03:14.151548 13343 net.cpp:386] conv2/relu_3x3 -> conv2/3x3 (in-place)
I0714 21:03:14.151829 13343 net.cpp:141] Setting up conv2/relu_3x3
I0714 21:03:14.151841 13343 net.cpp:148] Top shape: 10 192 56 56 (6021120)
I0714 21:03:14.151846 13343 net.cpp:156] Memory required for data: 150528000
I0714 21:03:14.151852 13343 layer_factory.hpp:77] Creating layer conv2/norm2
I0714 21:03:14.151865 13343 net.cpp:91] Creating Layer conv2/norm2
I0714 21:03:14.151870 13343 net.cpp:425] conv2/norm2 <- conv2/3x3
I0714 21:03:14.151878 13343 net.cpp:399] conv2/norm2 -> conv2/norm2
I0714 21:03:14.152791 13347 net.cpp:141] Setting up conv2/norm2
I0714 21:03:14.152812 13347 net.cpp:148] Top shape: 10 192 56 56 (6021120)
I0714 21:03:14.152817 13347 net.cpp:156] Memory required for data: 174612480
I0714 21:03:14.152823 13347 layer_factory.hpp:77] Creating layer pool2/3x3_s2
I0714 21:03:14.152835 13347 net.cpp:91] Creating Layer pool2/3x3_s2
I0714 21:03:14.152844 13347 net.cpp:425] pool2/3x3_s2 <- conv2/norm2
I0714 21:03:14.152854 13347 net.cpp:399] pool2/3x3_s2 -> pool2/3x3_s2
I0714 21:03:14.152941 13343 net.cpp:141] Setting up conv2/norm2
I0714 21:03:14.152956 13343 net.cpp:148] Top shape: 10 192 56 56 (6021120)
I0714 21:03:14.152961 13343 net.cpp:156] Memory required for data: 174612480
I0714 21:03:14.152967 13343 layer_factory.hpp:77] Creating layer pool2/3x3_s2
I0714 21:03:14.152977 13343 net.cpp:91] Creating Layer pool2/3x3_s2
I0714 21:03:14.152982 13343 net.cpp:425] pool2/3x3_s2 <- conv2/norm2
I0714 21:03:14.152993 13343 net.cpp:399] pool2/3x3_s2 -> pool2/3x3_s2
I0714 21:03:14.153002 13347 net.cpp:141] Setting up pool2/3x3_s2
I0714 21:03:14.153014 13347 net.cpp:148] Top shape: 10 192 28 28 (1505280)
I0714 21:03:14.153019 13347 net.cpp:156] Memory required for data: 180633600
I0714 21:03:14.153024 13347 layer_factory.hpp:77] Creating layer pool2/3x3_s2_pool2/3x3_s2_0_split
I0714 21:03:14.153044 13347 net.cpp:91] Creating Layer pool2/3x3_s2_pool2/3x3_s2_0_split
I0714 21:03:14.153050 13347 net.cpp:425] pool2/3x3_s2_pool2/3x3_s2_0_split <- pool2/3x3_s2
I0714 21:03:14.153060 13347 net.cpp:399] pool2/3x3_s2_pool2/3x3_s2_0_split -> pool2/3x3_s2_pool2/3x3_s2_0_split_0
I0714 21:03:14.153072 13347 net.cpp:399] pool2/3x3_s2_pool2/3x3_s2_0_split -> pool2/3x3_s2_pool2/3x3_s2_0_split_1
I0714 21:03:14.153082 13347 net.cpp:399] pool2/3x3_s2_pool2/3x3_s2_0_split -> pool2/3x3_s2_pool2/3x3_s2_0_split_2
I0714 21:03:14.153090 13347 net.cpp:399] pool2/3x3_s2_pool2/3x3_s2_0_split -> pool2/3x3_s2_pool2/3x3_s2_0_split_3
I0714 21:03:14.153091 13343 net.cpp:141] Setting up pool2/3x3_s2
I0714 21:03:14.153103 13343 net.cpp:148] Top shape: 10 192 28 28 (1505280)
I0714 21:03:14.153108 13343 net.cpp:156] Memory required for data: 180633600
I0714 21:03:14.153113 13343 layer_factory.hpp:77] Creating layer pool2/3x3_s2_pool2/3x3_s2_0_split
I0714 21:03:14.153123 13343 net.cpp:91] Creating Layer pool2/3x3_s2_pool2/3x3_s2_0_split
I0714 21:03:14.153129 13343 net.cpp:425] pool2/3x3_s2_pool2/3x3_s2_0_split <- pool2/3x3_s2
I0714 21:03:14.153139 13343 net.cpp:399] pool2/3x3_s2_pool2/3x3_s2_0_split -> pool2/3x3_s2_pool2/3x3_s2_0_split_0
I0714 21:03:14.153151 13343 net.cpp:399] pool2/3x3_s2_pool2/3x3_s2_0_split -> pool2/3x3_s2_pool2/3x3_s2_0_split_1
I0714 21:03:14.153161 13343 net.cpp:399] pool2/3x3_s2_pool2/3x3_s2_0_split -> pool2/3x3_s2_pool2/3x3_s2_0_split_2
I0714 21:03:14.153170 13343 net.cpp:399] pool2/3x3_s2_pool2/3x3_s2_0_split -> pool2/3x3_s2_pool2/3x3_s2_0_split_3
I0714 21:03:14.153340 13347 net.cpp:141] Setting up pool2/3x3_s2_pool2/3x3_s2_0_split
I0714 21:03:14.153353 13347 net.cpp:148] Top shape: 10 192 28 28 (1505280)
I0714 21:03:14.153362 13347 net.cpp:148] Top shape: 10 192 28 28 (1505280)
I0714 21:03:14.153367 13347 net.cpp:148] Top shape: 10 192 28 28 (1505280)
I0714 21:03:14.153373 13347 net.cpp:148] Top shape: 10 192 28 28 (1505280)
I0714 21:03:14.153378 13347 net.cpp:156] Memory required for data: 204718080
I0714 21:03:14.153383 13347 layer_factory.hpp:77] Creating layer inception_3a/1x1
I0714 21:03:14.153403 13347 net.cpp:91] Creating Layer inception_3a/1x1
I0714 21:03:14.153409 13347 net.cpp:425] inception_3a/1x1 <- pool2/3x3_s2_pool2/3x3_s2_0_split_0
I0714 21:03:14.153421 13343 net.cpp:141] Setting up pool2/3x3_s2_pool2/3x3_s2_0_split
I0714 21:03:14.153435 13343 net.cpp:148] Top shape: 10 192 28 28 (1505280)
I0714 21:03:14.153440 13347 net.cpp:399] inception_3a/1x1 -> inception_3a/1x1
I0714 21:03:14.153441 13343 net.cpp:148] Top shape: 10 192 28 28 (1505280)
I0714 21:03:14.153456 13343 net.cpp:148] Top shape: 10 192 28 28 (1505280)
I0714 21:03:14.153462 13343 net.cpp:148] Top shape: 10 192 28 28 (1505280)
I0714 21:03:14.153467 13343 net.cpp:156] Memory required for data: 204718080
I0714 21:03:14.153473 13343 layer_factory.hpp:77] Creating layer inception_3a/1x1
I0714 21:03:14.153492 13343 net.cpp:91] Creating Layer inception_3a/1x1
I0714 21:03:14.153499 13343 net.cpp:425] inception_3a/1x1 <- pool2/3x3_s2_pool2/3x3_s2_0_split_0
I0714 21:03:14.153509 13343 net.cpp:399] inception_3a/1x1 -> inception_3a/1x1
I0714 21:03:14.159757 13347 net.cpp:141] Setting up inception_3a/1x1
I0714 21:03:14.159785 13347 net.cpp:148] Top shape: 10 64 28 28 (501760)
I0714 21:03:14.159791 13347 net.cpp:156] Memory required for data: 206725120
I0714 21:03:14.159804 13347 layer_factory.hpp:77] Creating layer inception_3a/relu_1x1
I0714 21:03:14.159816 13347 net.cpp:91] Creating Layer inception_3a/relu_1x1
I0714 21:03:14.159822 13347 net.cpp:425] inception_3a/relu_1x1 <- inception_3a/1x1
I0714 21:03:14.159832 13347 net.cpp:386] inception_3a/relu_1x1 -> inception_3a/1x1 (in-place)
I0714 21:03:14.160413 13347 net.cpp:141] Setting up inception_3a/relu_1x1
I0714 21:03:14.160431 13347 net.cpp:148] Top shape: 10 64 28 28 (501760)
I0714 21:03:14.160436 13347 net.cpp:156] Memory required for data: 208732160
I0714 21:03:14.160444 13347 layer_factory.hpp:77] Creating layer inception_3a/3x3_reduce
I0714 21:03:14.160464 13347 net.cpp:91] Creating Layer inception_3a/3x3_reduce
I0714 21:03:14.160470 13347 net.cpp:425] inception_3a/3x3_reduce <- pool2/3x3_s2_pool2/3x3_s2_0_split_1
I0714 21:03:14.160485 13347 net.cpp:399] inception_3a/3x3_reduce -> inception_3a/3x3_reduce
I0714 21:03:14.162433 13343 net.cpp:141] Setting up inception_3a/1x1
I0714 21:03:14.162454 13343 net.cpp:148] Top shape: 10 64 28 28 (501760)
I0714 21:03:14.162461 13343 net.cpp:156] Memory required for data: 206725120
I0714 21:03:14.162472 13343 layer_factory.hpp:77] Creating layer inception_3a/relu_1x1
I0714 21:03:14.162482 13343 net.cpp:91] Creating Layer inception_3a/relu_1x1
I0714 21:03:14.162488 13343 net.cpp:425] inception_3a/relu_1x1 <- inception_3a/1x1
I0714 21:03:14.162497 13343 net.cpp:386] inception_3a/relu_1x1 -> inception_3a/1x1 (in-place)
I0714 21:03:14.162976 13343 net.cpp:141] Setting up inception_3a/relu_1x1
I0714 21:03:14.162992 13343 net.cpp:148] Top shape: 10 64 28 28 (501760)
I0714 21:03:14.162997 13343 net.cpp:156] Memory required for data: 208732160
I0714 21:03:14.163002 13343 layer_factory.hpp:77] Creating layer inception_3a/3x3_reduce
I0714 21:03:14.163022 13343 net.cpp:91] Creating Layer inception_3a/3x3_reduce
I0714 21:03:14.163028 13343 net.cpp:425] inception_3a/3x3_reduce <- pool2/3x3_s2_pool2/3x3_s2_0_split_1
I0714 21:03:14.163507 13343 net.cpp:399] inception_3a/3x3_reduce -> inception_3a/3x3_reduce
I0714 21:03:14.170578 13347 net.cpp:141] Setting up inception_3a/3x3_reduce
I0714 21:03:14.170604 13347 net.cpp:148] Top shape: 10 96 28 28 (752640)
I0714 21:03:14.170610 13347 net.cpp:156] Memory required for data: 211742720
I0714 21:03:14.170631 13347 layer_factory.hpp:77] Creating layer inception_3a/relu_3x3_reduce
I0714 21:03:14.170644 13347 net.cpp:91] Creating Layer inception_3a/relu_3x3_reduce
I0714 21:03:14.170651 13347 net.cpp:425] inception_3a/relu_3x3_reduce <- inception_3a/3x3_reduce
I0714 21:03:14.170660 13347 net.cpp:386] inception_3a/relu_3x3_reduce -> inception_3a/3x3_reduce (in-place)
I0714 21:03:14.170732 13343 net.cpp:141] Setting up inception_3a/3x3_reduce
I0714 21:03:14.170750 13343 net.cpp:148] Top shape: 10 96 28 28 (752640)
I0714 21:03:14.170756 13343 net.cpp:156] Memory required for data: 211742720
I0714 21:03:14.170774 13343 layer_factory.hpp:77] Creating layer inception_3a/relu_3x3_reduce
I0714 21:03:14.170786 13343 net.cpp:91] Creating Layer inception_3a/relu_3x3_reduce
I0714 21:03:14.170792 13343 net.cpp:425] inception_3a/relu_3x3_reduce <- inception_3a/3x3_reduce
I0714 21:03:14.170800 13343 net.cpp:386] inception_3a/relu_3x3_reduce -> inception_3a/3x3_reduce (in-place)
I0714 21:03:14.171041 13347 net.cpp:141] Setting up inception_3a/relu_3x3_reduce
I0714 21:03:14.171056 13347 net.cpp:148] Top shape: 10 96 28 28 (752640)
I0714 21:03:14.171061 13347 net.cpp:156] Memory required for data: 214753280
I0714 21:03:14.171067 13347 layer_factory.hpp:77] Creating layer inception_3a/3x3
I0714 21:03:14.171092 13347 net.cpp:91] Creating Layer inception_3a/3x3
I0714 21:03:14.171098 13347 net.cpp:425] inception_3a/3x3 <- inception_3a/3x3_reduce
I0714 21:03:14.171113 13347 net.cpp:399] inception_3a/3x3 -> inception_3a/3x3
I0714 21:03:14.171147 13343 net.cpp:141] Setting up inception_3a/relu_3x3_reduce
I0714 21:03:14.171161 13343 net.cpp:148] Top shape: 10 96 28 28 (752640)
I0714 21:03:14.171166 13343 net.cpp:156] Memory required for data: 214753280
I0714 21:03:14.171172 13343 layer_factory.hpp:77] Creating layer inception_3a/3x3
I0714 21:03:14.171195 13343 net.cpp:91] Creating Layer inception_3a/3x3
I0714 21:03:14.171200 13343 net.cpp:425] inception_3a/3x3 <- inception_3a/3x3_reduce
I0714 21:03:14.171483 13343 net.cpp:399] inception_3a/3x3 -> inception_3a/3x3
I0714 21:03:14.176066 13347 net.cpp:141] Setting up inception_3a/3x3
I0714 21:03:14.176089 13347 net.cpp:148] Top shape: 10 128 28 28 (1003520)
I0714 21:03:14.176095 13347 net.cpp:156] Memory required for data: 218767360
I0714 21:03:14.176105 13347 layer_factory.hpp:77] Creating layer inception_3a/relu_3x3
I0714 21:03:14.176125 13347 net.cpp:91] Creating Layer inception_3a/relu_3x3
I0714 21:03:14.176131 13347 net.cpp:425] inception_3a/relu_3x3 <- inception_3a/3x3
I0714 21:03:14.176142 13347 net.cpp:386] inception_3a/relu_3x3 -> inception_3a/3x3 (in-place)
I0714 21:03:14.177175 13347 net.cpp:141] Setting up inception_3a/relu_3x3
I0714 21:03:14.177188 13343 net.cpp:141] Setting up inception_3a/3x3
I0714 21:03:14.177193 13347 net.cpp:148] Top shape: 10 128 28 28 (1003520)
I0714 21:03:14.177208 13347 net.cpp:156] Memory required for data: 222781440
I0714 21:03:14.177208 13343 net.cpp:148] Top shape: 10 128 28 28 (1003520)
I0714 21:03:14.177215 13347 layer_factory.hpp:77] Creating layer inception_3a/5x5_reduce
I0714 21:03:14.177217 13343 net.cpp:156] Memory required for data: 218767360
I0714 21:03:14.177235 13343 layer_factory.hpp:77] Creating layer inception_3a/relu_3x3
I0714 21:03:14.177239 13347 net.cpp:91] Creating Layer inception_3a/5x5_reduce
I0714 21:03:14.177248 13347 net.cpp:425] inception_3a/5x5_reduce <- pool2/3x3_s2_pool2/3x3_s2_0_split_2
I0714 21:03:14.177250 13343 net.cpp:91] Creating Layer inception_3a/relu_3x3
I0714 21:03:14.177258 13343 net.cpp:425] inception_3a/relu_3x3 <- inception_3a/3x3
I0714 21:03:14.177259 13347 net.cpp:399] inception_3a/5x5_reduce -> inception_3a/5x5_reduce
I0714 21:03:14.177266 13343 net.cpp:386] inception_3a/relu_3x3 -> inception_3a/3x3 (in-place)
I0714 21:03:14.178293 13343 net.cpp:141] Setting up inception_3a/relu_3x3
I0714 21:03:14.178320 13343 net.cpp:148] Top shape: 10 128 28 28 (1003520)
I0714 21:03:14.178328 13343 net.cpp:156] Memory required for data: 222781440
I0714 21:03:14.178334 13343 layer_factory.hpp:77] Creating layer inception_3a/5x5_reduce
I0714 21:03:14.178352 13343 net.cpp:91] Creating Layer inception_3a/5x5_reduce
I0714 21:03:14.178359 13343 net.cpp:425] inception_3a/5x5_reduce <- pool2/3x3_s2_pool2/3x3_s2_0_split_2
I0714 21:03:14.178371 13343 net.cpp:399] inception_3a/5x5_reduce -> inception_3a/5x5_reduce
I0714 21:03:14.182756 13347 net.cpp:141] Setting up inception_3a/5x5_reduce
I0714 21:03:14.182776 13347 net.cpp:148] Top shape: 10 16 28 28 (125440)
I0714 21:03:14.182782 13347 net.cpp:156] Memory required for data: 223283200
I0714 21:03:14.182792 13347 layer_factory.hpp:77] Creating layer inception_3a/relu_5x5_reduce
I0714 21:03:14.182804 13347 net.cpp:91] Creating Layer inception_3a/relu_5x5_reduce
I0714 21:03:14.182818 13347 net.cpp:425] inception_3a/relu_5x5_reduce <- inception_3a/5x5_reduce
I0714 21:03:14.182827 13347 net.cpp:386] inception_3a/relu_5x5_reduce -> inception_3a/5x5_reduce (in-place)
I0714 21:03:14.183285 13347 net.cpp:141] Setting up inception_3a/relu_5x5_reduce
I0714 21:03:14.183298 13347 net.cpp:148] Top shape: 10 16 28 28 (125440)
I0714 21:03:14.183305 13347 net.cpp:156] Memory required for data: 223784960
I0714 21:03:14.183310 13347 layer_factory.hpp:77] Creating layer inception_3a/5x5
I0714 21:03:14.183336 13347 net.cpp:91] Creating Layer inception_3a/5x5
I0714 21:03:14.183343 13347 net.cpp:425] inception_3a/5x5 <- inception_3a/5x5_reduce
I0714 21:03:14.183354 13347 net.cpp:399] inception_3a/5x5 -> inception_3a/5x5
I0714 21:03:14.183393 13343 net.cpp:141] Setting up inception_3a/5x5_reduce
I0714 21:03:14.183410 13343 net.cpp:148] Top shape: 10 16 28 28 (125440)
I0714 21:03:14.183416 13343 net.cpp:156] Memory required for data: 223283200
I0714 21:03:14.183426 13343 layer_factory.hpp:77] Creating layer inception_3a/relu_5x5_reduce
I0714 21:03:14.183437 13343 net.cpp:91] Creating Layer inception_3a/relu_5x5_reduce
I0714 21:03:14.183444 13343 net.cpp:425] inception_3a/relu_5x5_reduce <- inception_3a/5x5_reduce
I0714 21:03:14.183454 13343 net.cpp:386] inception_3a/relu_5x5_reduce -> inception_3a/5x5_reduce (in-place)
I0714 21:03:14.183881 13343 net.cpp:141] Setting up inception_3a/relu_5x5_reduce
I0714 21:03:14.183894 13343 net.cpp:148] Top shape: 10 16 28 28 (125440)
I0714 21:03:14.183899 13343 net.cpp:156] Memory required for data: 223784960
I0714 21:03:14.183907 13343 layer_factory.hpp:77] Creating layer inception_3a/5x5
I0714 21:03:14.183928 13343 net.cpp:91] Creating Layer inception_3a/5x5
I0714 21:03:14.183935 13343 net.cpp:425] inception_3a/5x5 <- inception_3a/5x5_reduce
I0714 21:03:14.183946 13343 net.cpp:399] inception_3a/5x5 -> inception_3a/5x5
I0714 21:03:14.189726 13347 net.cpp:141] Setting up inception_3a/5x5
I0714 21:03:14.189751 13347 net.cpp:148] Top shape: 10 32 28 28 (250880)
I0714 21:03:14.189757 13347 net.cpp:156] Memory required for data: 224788480
I0714 21:03:14.189770 13347 layer_factory.hpp:77] Creating layer inception_3a/relu_5x5
I0714 21:03:14.189782 13347 net.cpp:91] Creating Layer inception_3a/relu_5x5
I0714 21:03:14.189788 13347 net.cpp:425] inception_3a/relu_5x5 <- inception_3a/5x5
I0714 21:03:14.189802 13347 net.cpp:386] inception_3a/relu_5x5 -> inception_3a/5x5 (in-place)
I0714 21:03:14.190203 13347 net.cpp:141] Setting up inception_3a/relu_5x5
I0714 21:03:14.190217 13347 net.cpp:148] Top shape: 10 32 28 28 (250880)
I0714 21:03:14.190222 13347 net.cpp:156] Memory required for data: 225792000
I0714 21:03:14.190228 13347 layer_factory.hpp:77] Creating layer inception_3a/pool
I0714 21:03:14.190240 13347 net.cpp:91] Creating Layer inception_3a/pool
I0714 21:03:14.190246 13347 net.cpp:425] inception_3a/pool <- pool2/3x3_s2_pool2/3x3_s2_0_split_3
I0714 21:03:14.190255 13347 net.cpp:399] inception_3a/pool -> inception_3a/pool
I0714 21:03:14.190853 13343 net.cpp:141] Setting up inception_3a/5x5
I0714 21:03:14.190876 13343 net.cpp:148] Top shape: 10 32 28 28 (250880)
I0714 21:03:14.190882 13343 net.cpp:156] Memory required for data: 224788480
I0714 21:03:14.190891 13347 net.cpp:141] Setting up inception_3a/pool
I0714 21:03:14.190894 13343 layer_factory.hpp:77] Creating layer inception_3a/relu_5x5
I0714 21:03:14.190907 13347 net.cpp:148] Top shape: 10 192 28 28 (1505280)
I0714 21:03:14.190912 13347 net.cpp:156] Memory required for data: 231813120
I0714 21:03:14.190913 13343 net.cpp:91] Creating Layer inception_3a/relu_5x5
I0714 21:03:14.190918 13347 layer_factory.hpp:77] Creating layer inception_3a/pool_proj
I0714 21:03:14.190920 13343 net.cpp:425] inception_3a/relu_5x5 <- inception_3a/5x5
I0714 21:03:14.190934 13343 net.cpp:386] inception_3a/relu_5x5 -> inception_3a/5x5 (in-place)
I0714 21:03:14.190938 13347 net.cpp:91] Creating Layer inception_3a/pool_proj
I0714 21:03:14.190946 13347 net.cpp:425] inception_3a/pool_proj <- inception_3a/pool
I0714 21:03:14.190956 13347 net.cpp:399] inception_3a/pool_proj -> inception_3a/pool_proj
I0714 21:03:14.191350 13343 net.cpp:141] Setting up inception_3a/relu_5x5
I0714 21:03:14.191366 13343 net.cpp:148] Top shape: 10 32 28 28 (250880)
I0714 21:03:14.191372 13343 net.cpp:156] Memory required for data: 225792000
I0714 21:03:14.191378 13343 layer_factory.hpp:77] Creating layer inception_3a/pool
I0714 21:03:14.191390 13343 net.cpp:91] Creating Layer inception_3a/pool
I0714 21:03:14.191395 13343 net.cpp:425] inception_3a/pool <- pool2/3x3_s2_pool2/3x3_s2_0_split_3
I0714 21:03:14.191404 13343 net.cpp:399] inception_3a/pool -> inception_3a/pool
I0714 21:03:14.191597 13343 net.cpp:141] Setting up inception_3a/pool
I0714 21:03:14.191611 13343 net.cpp:148] Top shape: 10 192 28 28 (1505280)
I0714 21:03:14.191615 13343 net.cpp:156] Memory required for data: 231813120
I0714 21:03:14.191620 13343 layer_factory.hpp:77] Creating layer inception_3a/pool_proj
I0714 21:03:14.191638 13343 net.cpp:91] Creating Layer inception_3a/pool_proj
I0714 21:03:14.191645 13343 net.cpp:425] inception_3a/pool_proj <- inception_3a/pool
I0714 21:03:14.191663 13343 net.cpp:399] inception_3a/pool_proj -> inception_3a/pool_proj
I0714 21:03:14.195619 13347 net.cpp:141] Setting up inception_3a/pool_proj
I0714 21:03:14.195639 13347 net.cpp:148] Top shape: 10 32 28 28 (250880)
I0714 21:03:14.195646 13347 net.cpp:156] Memory required for data: 232816640
I0714 21:03:14.195663 13347 layer_factory.hpp:77] Creating layer inception_3a/relu_pool_proj
I0714 21:03:14.195675 13347 net.cpp:91] Creating Layer inception_3a/relu_pool_proj
I0714 21:03:14.195682 13347 net.cpp:425] inception_3a/relu_pool_proj <- inception_3a/pool_proj
I0714 21:03:14.195690 13347 net.cpp:386] inception_3a/relu_pool_proj -> inception_3a/pool_proj (in-place)
I0714 21:03:14.196694 13347 net.cpp:141] Setting up inception_3a/relu_pool_proj
I0714 21:03:14.196712 13347 net.cpp:148] Top shape: 10 32 28 28 (250880)
I0714 21:03:14.196717 13347 net.cpp:156] Memory required for data: 233820160
I0714 21:03:14.196724 13347 layer_factory.hpp:77] Creating layer inception_3a/output
I0714 21:03:14.196749 13347 net.cpp:91] Creating Layer inception_3a/output
I0714 21:03:14.196756 13347 net.cpp:425] inception_3a/output <- inception_3a/1x1
I0714 21:03:14.196764 13347 net.cpp:425] inception_3a/output <- inception_3a/3x3
I0714 21:03:14.196770 13347 net.cpp:425] inception_3a/output <- inception_3a/5x5
I0714 21:03:14.196776 13347 net.cpp:425] inception_3a/output <- inception_3a/pool_proj
I0714 21:03:14.196789 13347 net.cpp:399] inception_3a/output -> inception_3a/output
I0714 21:03:14.196810 13343 net.cpp:141] Setting up inception_3a/pool_proj
I0714 21:03:14.196826 13343 net.cpp:148] Top shape: 10 32 28 28 (250880)
I0714 21:03:14.196832 13343 net.cpp:156] Memory required for data: 232816640
I0714 21:03:14.196851 13343 layer_factory.hpp:77] Creating layer inception_3a/relu_pool_proj
I0714 21:03:14.196861 13343 net.cpp:91] Creating Layer inception_3a/relu_pool_proj
I0714 21:03:14.196861 13347 net.cpp:141] Setting up inception_3a/output
I0714 21:03:14.196874 13343 net.cpp:425] inception_3a/relu_pool_proj <- inception_3a/pool_proj
I0714 21:03:14.196882 13347 net.cpp:148] Top shape: 10 256 28 28 (2007040)
I0714 21:03:14.196883 13343 net.cpp:386] inception_3a/relu_pool_proj -> inception_3a/pool_proj (in-place)
I0714 21:03:14.196887 13347 net.cpp:156] Memory required for data: 241848320
I0714 21:03:14.196893 13347 layer_factory.hpp:77] Creating layer inception_3a/output_inception_3a/output_0_split
I0714 21:03:14.196903 13347 net.cpp:91] Creating Layer inception_3a/output_inception_3a/output_0_split
I0714 21:03:14.196909 13347 net.cpp:425] inception_3a/output_inception_3a/output_0_split <- inception_3a/output
I0714 21:03:14.196923 13347 net.cpp:399] inception_3a/output_inception_3a/output_0_split -> inception_3a/output_inception_3a/output_0_split_0
I0714 21:03:14.196933 13347 net.cpp:399] inception_3a/output_inception_3a/output_0_split -> inception_3a/output_inception_3a/output_0_split_1
I0714 21:03:14.196943 13347 net.cpp:399] inception_3a/output_inception_3a/output_0_split -> inception_3a/output_inception_3a/output_0_split_2
I0714 21:03:14.196952 13347 net.cpp:399] inception_3a/output_inception_3a/output_0_split -> inception_3a/output_inception_3a/output_0_split_3
I0714 21:03:14.197839 13347 net.cpp:141] Setting up inception_3a/output_inception_3a/output_0_split
I0714 21:03:14.197851 13347 net.cpp:148] Top shape: 10 256 28 28 (2007040)
I0714 21:03:14.197850 13343 net.cpp:141] Setting up inception_3a/relu_pool_proj
I0714 21:03:14.197860 13347 net.cpp:148] Top shape: 10 256 28 28 (2007040)
I0714 21:03:14.197865 13343 net.cpp:148] Top shape: 10 32 28 28 (250880)
I0714 21:03:14.197865 13347 net.cpp:148] Top shape: 10 256 28 28 (2007040)
I0714 21:03:14.197875 13343 net.cpp:156] Memory required for data: 233820160
I0714 21:03:14.197880 13347 net.cpp:148] Top shape: 10 256 28 28 (2007040)
I0714 21:03:14.197881 13343 layer_factory.hpp:77] Creating layer inception_3a/output
I0714 21:03:14.197885 13347 net.cpp:156] Memory required for data: 273960960
I0714 21:03:14.197890 13347 layer_factory.hpp:77] Creating layer inception_3b/1x1
I0714 21:03:14.197891 13343 net.cpp:91] Creating Layer inception_3a/output
I0714 21:03:14.197898 13343 net.cpp:425] inception_3a/output <- inception_3a/1x1
I0714 21:03:14.197906 13343 net.cpp:425] inception_3a/output <- inception_3a/3x3
I0714 21:03:14.197911 13347 net.cpp:91] Creating Layer inception_3b/1x1
I0714 21:03:14.197911 13343 net.cpp:425] inception_3a/output <- inception_3a/5x5
I0714 21:03:14.197921 13347 net.cpp:425] inception_3b/1x1 <- inception_3a/output_inception_3a/output_0_split_0
I0714 21:03:14.197926 13343 net.cpp:425] inception_3a/output <- inception_3a/pool_proj
I0714 21:03:14.197934 13343 net.cpp:399] inception_3a/output -> inception_3a/output
I0714 21:03:14.197935 13347 net.cpp:399] inception_3b/1x1 -> inception_3b/1x1
I0714 21:03:14.198055 13343 net.cpp:141] Setting up inception_3a/output
I0714 21:03:14.198067 13343 net.cpp:148] Top shape: 10 256 28 28 (2007040)
I0714 21:03:14.198072 13343 net.cpp:156] Memory required for data: 241848320
I0714 21:03:14.198078 13343 layer_factory.hpp:77] Creating layer inception_3a/output_inception_3a/output_0_split
I0714 21:03:14.198088 13343 net.cpp:91] Creating Layer inception_3a/output_inception_3a/output_0_split
I0714 21:03:14.198093 13343 net.cpp:425] inception_3a/output_inception_3a/output_0_split <- inception_3a/output
I0714 21:03:14.198106 13343 net.cpp:399] inception_3a/output_inception_3a/output_0_split -> inception_3a/output_inception_3a/output_0_split_0
I0714 21:03:14.198117 13343 net.cpp:399] inception_3a/output_inception_3a/output_0_split -> inception_3a/output_inception_3a/output_0_split_1
I0714 21:03:14.198127 13343 net.cpp:399] inception_3a/output_inception_3a/output_0_split -> inception_3a/output_inception_3a/output_0_split_2
I0714 21:03:14.198135 13343 net.cpp:399] inception_3a/output_inception_3a/output_0_split -> inception_3a/output_inception_3a/output_0_split_3
I0714 21:03:14.198500 13343 net.cpp:141] Setting up inception_3a/output_inception_3a/output_0_split
I0714 21:03:14.198513 13343 net.cpp:148] Top shape: 10 256 28 28 (2007040)
I0714 21:03:14.198519 13343 net.cpp:148] Top shape: 10 256 28 28 (2007040)
I0714 21:03:14.198525 13343 net.cpp:148] Top shape: 10 256 28 28 (2007040)
I0714 21:03:14.198531 13343 net.cpp:148] Top shape: 10 256 28 28 (2007040)
I0714 21:03:14.198536 13343 net.cpp:156] Memory required for data: 273960960
I0714 21:03:14.198541 13343 layer_factory.hpp:77] Creating layer inception_3b/1x1
I0714 21:03:14.198559 13343 net.cpp:91] Creating Layer inception_3b/1x1
I0714 21:03:14.198565 13343 net.cpp:425] inception_3b/1x1 <- inception_3a/output_inception_3a/output_0_split_0
I0714 21:03:14.198580 13343 net.cpp:399] inception_3b/1x1 -> inception_3b/1x1
I0714 21:03:14.204280 13347 net.cpp:141] Setting up inception_3b/1x1
I0714 21:03:14.204303 13347 net.cpp:148] Top shape: 10 128 28 28 (1003520)
I0714 21:03:14.204309 13347 net.cpp:156] Memory required for data: 277975040
I0714 21:03:14.204320 13347 layer_factory.hpp:77] Creating layer inception_3b/relu_1x1
I0714 21:03:14.204330 13347 net.cpp:91] Creating Layer inception_3b/relu_1x1
I0714 21:03:14.204339 13347 net.cpp:425] inception_3b/relu_1x1 <- inception_3b/1x1
I0714 21:03:14.204350 13347 net.cpp:386] inception_3b/relu_1x1 -> inception_3b/1x1 (in-place)
I0714 21:03:14.204838 13347 net.cpp:141] Setting up inception_3b/relu_1x1
I0714 21:03:14.204854 13347 net.cpp:148] Top shape: 10 128 28 28 (1003520)
I0714 21:03:14.204860 13347 net.cpp:156] Memory required for data: 281989120
I0714 21:03:14.204866 13347 layer_factory.hpp:77] Creating layer inception_3b/3x3_reduce
I0714 21:03:14.204890 13347 net.cpp:91] Creating Layer inception_3b/3x3_reduce
I0714 21:03:14.204896 13347 net.cpp:425] inception_3b/3x3_reduce <- inception_3a/output_inception_3a/output_0_split_1
I0714 21:03:14.204906 13347 net.cpp:399] inception_3b/3x3_reduce -> inception_3b/3x3_reduce
I0714 21:03:14.205062 13343 net.cpp:141] Setting up inception_3b/1x1
I0714 21:03:14.205103 13343 net.cpp:148] Top shape: 10 128 28 28 (1003520)
I0714 21:03:14.205109 13343 net.cpp:156] Memory required for data: 277975040
I0714 21:03:14.205127 13343 layer_factory.hpp:77] Creating layer inception_3b/relu_1x1
I0714 21:03:14.205147 13343 net.cpp:91] Creating Layer inception_3b/relu_1x1
I0714 21:03:14.205157 13343 net.cpp:425] inception_3b/relu_1x1 <- inception_3b/1x1
I0714 21:03:14.205173 13343 net.cpp:386] inception_3b/relu_1x1 -> inception_3b/1x1 (in-place)
I0714 21:03:14.206176 13343 net.cpp:141] Setting up inception_3b/relu_1x1
I0714 21:03:14.206194 13343 net.cpp:148] Top shape: 10 128 28 28 (1003520)
I0714 21:03:14.206200 13343 net.cpp:156] Memory required for data: 281989120
I0714 21:03:14.206207 13343 layer_factory.hpp:77] Creating layer inception_3b/3x3_reduce
I0714 21:03:14.206231 13343 net.cpp:91] Creating Layer inception_3b/3x3_reduce
I0714 21:03:14.206239 13343 net.cpp:425] inception_3b/3x3_reduce <- inception_3a/output_inception_3a/output_0_split_1
I0714 21:03:14.206259 13343 net.cpp:399] inception_3b/3x3_reduce -> inception_3b/3x3_reduce
I0714 21:03:14.209612 13347 net.cpp:141] Setting up inception_3b/3x3_reduce
I0714 21:03:14.209637 13347 net.cpp:148] Top shape: 10 128 28 28 (1003520)
I0714 21:03:14.209643 13347 net.cpp:156] Memory required for data: 286003200
I0714 21:03:14.209656 13347 layer_factory.hpp:77] Creating layer inception_3b/relu_3x3_reduce
I0714 21:03:14.209666 13347 net.cpp:91] Creating Layer inception_3b/relu_3x3_reduce
I0714 21:03:14.209673 13347 net.cpp:425] inception_3b/relu_3x3_reduce <- inception_3b/3x3_reduce
I0714 21:03:14.209687 13347 net.cpp:386] inception_3b/relu_3x3_reduce -> inception_3b/3x3_reduce (in-place)
I0714 21:03:14.210119 13347 net.cpp:141] Setting up inception_3b/relu_3x3_reduce
I0714 21:03:14.210134 13347 net.cpp:148] Top shape: 10 128 28 28 (1003520)
I0714 21:03:14.210139 13347 net.cpp:156] Memory required for data: 290017280
I0714 21:03:14.210144 13347 layer_factory.hpp:77] Creating layer inception_3b/3x3
I0714 21:03:14.210163 13347 net.cpp:91] Creating Layer inception_3b/3x3
I0714 21:03:14.210170 13347 net.cpp:425] inception_3b/3x3 <- inception_3b/3x3_reduce
I0714 21:03:14.210188 13347 net.cpp:399] inception_3b/3x3 -> inception_3b/3x3
I0714 21:03:14.217259 13343 net.cpp:141] Setting up inception_3b/3x3_reduce
I0714 21:03:14.217311 13343 net.cpp:148] Top shape: 10 128 28 28 (1003520)
I0714 21:03:14.217322 13343 net.cpp:156] Memory required for data: 286003200
I0714 21:03:14.217344 13343 layer_factory.hpp:77] Creating layer inception_3b/relu_3x3_reduce
I0714 21:03:14.217366 13343 net.cpp:91] Creating Layer inception_3b/relu_3x3_reduce
I0714 21:03:14.217380 13343 net.cpp:425] inception_3b/relu_3x3_reduce <- inception_3b/3x3_reduce
I0714 21:03:14.217396 13343 net.cpp:386] inception_3b/relu_3x3_reduce -> inception_3b/3x3_reduce (in-place)
I0714 21:03:14.217803 13343 net.cpp:141] Setting up inception_3b/relu_3x3_reduce
I0714 21:03:14.217821 13343 net.cpp:148] Top shape: 10 128 28 28 (1003520)
I0714 21:03:14.217830 13343 net.cpp:156] Memory required for data: 290017280
I0714 21:03:14.217840 13343 layer_factory.hpp:77] Creating layer inception_3b/3x3
I0714 21:03:14.217869 13343 net.cpp:91] Creating Layer inception_3b/3x3
I0714 21:03:14.217880 13343 net.cpp:425] inception_3b/3x3 <- inception_3b/3x3_reduce
I0714 21:03:14.217901 13343 net.cpp:399] inception_3b/3x3 -> inception_3b/3x3
I0714 21:03:14.225554 13347 net.cpp:141] Setting up inception_3b/3x3
I0714 21:03:14.225591 13347 net.cpp:148] Top shape: 10 192 28 28 (1505280)
I0714 21:03:14.225599 13347 net.cpp:156] Memory required for data: 296038400
I0714 21:03:14.225611 13347 layer_factory.hpp:77] Creating layer inception_3b/relu_3x3
I0714 21:03:14.225636 13347 net.cpp:91] Creating Layer inception_3b/relu_3x3
I0714 21:03:14.225644 13347 net.cpp:425] inception_3b/relu_3x3 <- inception_3b/3x3
I0714 21:03:14.225656 13347 net.cpp:386] inception_3b/relu_3x3 -> inception_3b/3x3 (in-place)
I0714 21:03:14.226821 13347 net.cpp:141] Setting up inception_3b/relu_3x3
I0714 21:03:14.226845 13347 net.cpp:148] Top shape: 10 192 28 28 (1505280)
I0714 21:03:14.226851 13347 net.cpp:156] Memory required for data: 302059520
I0714 21:03:14.226858 13347 layer_factory.hpp:77] Creating layer inception_3b/5x5_reduce
I0714 21:03:14.226879 13347 net.cpp:91] Creating Layer inception_3b/5x5_reduce
I0714 21:03:14.226887 13347 net.cpp:425] inception_3b/5x5_reduce <- inception_3a/output_inception_3a/output_0_split_2
I0714 21:03:14.226905 13347 net.cpp:399] inception_3b/5x5_reduce -> inception_3b/5x5_reduce
I0714 21:03:14.227068 13343 net.cpp:141] Setting up inception_3b/3x3
I0714 21:03:14.227099 13343 net.cpp:148] Top shape: 10 192 28 28 (1505280)
I0714 21:03:14.227105 13343 net.cpp:156] Memory required for data: 296038400
I0714 21:03:14.227118 13343 layer_factory.hpp:77] Creating layer inception_3b/relu_3x3
I0714 21:03:14.227144 13343 net.cpp:91] Creating Layer inception_3b/relu_3x3
I0714 21:03:14.227154 13343 net.cpp:425] inception_3b/relu_3x3 <- inception_3b/3x3
I0714 21:03:14.227165 13343 net.cpp:386] inception_3b/relu_3x3 -> inception_3b/3x3 (in-place)
I0714 21:03:14.228291 13343 net.cpp:141] Setting up inception_3b/relu_3x3
I0714 21:03:14.228310 13343 net.cpp:148] Top shape: 10 192 28 28 (1505280)
I0714 21:03:14.228317 13343 net.cpp:156] Memory required for data: 302059520
I0714 21:03:14.228322 13343 layer_factory.hpp:77] Creating layer inception_3b/5x5_reduce
I0714 21:03:14.228343 13343 net.cpp:91] Creating Layer inception_3b/5x5_reduce
I0714 21:03:14.228351 13343 net.cpp:425] inception_3b/5x5_reduce <- inception_3a/output_inception_3a/output_0_split_2
I0714 21:03:14.228366 13343 net.cpp:399] inception_3b/5x5_reduce -> inception_3b/5x5_reduce
I0714 21:03:14.232566 13347 net.cpp:141] Setting up inception_3b/5x5_reduce
I0714 21:03:14.232590 13347 net.cpp:148] Top shape: 10 32 28 28 (250880)
I0714 21:03:14.232596 13347 net.cpp:156] Memory required for data: 303063040
I0714 21:03:14.232607 13347 layer_factory.hpp:77] Creating layer inception_3b/relu_5x5_reduce
I0714 21:03:14.232621 13347 net.cpp:91] Creating Layer inception_3b/relu_5x5_reduce
I0714 21:03:14.232628 13347 net.cpp:425] inception_3b/relu_5x5_reduce <- inception_3b/5x5_reduce
I0714 21:03:14.232637 13347 net.cpp:386] inception_3b/relu_5x5_reduce -> inception_3b/5x5_reduce (in-place)
I0714 21:03:14.233014 13347 net.cpp:141] Setting up inception_3b/relu_5x5_reduce
I0714 21:03:14.233028 13347 net.cpp:148] Top shape: 10 32 28 28 (250880)
I0714 21:03:14.233033 13347 net.cpp:156] Memory required for data: 304066560
I0714 21:03:14.233039 13347 layer_factory.hpp:77] Creating layer inception_3b/5x5
I0714 21:03:14.233062 13347 net.cpp:91] Creating Layer inception_3b/5x5
I0714 21:03:14.233068 13347 net.cpp:425] inception_3b/5x5 <- inception_3b/5x5_reduce
I0714 21:03:14.233078 13347 net.cpp:399] inception_3b/5x5 -> inception_3b/5x5
I0714 21:03:14.236207 13343 net.cpp:141] Setting up inception_3b/5x5_reduce
I0714 21:03:14.236232 13343 net.cpp:148] Top shape: 10 32 28 28 (250880)
I0714 21:03:14.236238 13343 net.cpp:156] Memory required for data: 303063040
I0714 21:03:14.236249 13343 layer_factory.hpp:77] Creating layer inception_3b/relu_5x5_reduce
I0714 21:03:14.236260 13343 net.cpp:91] Creating Layer inception_3b/relu_5x5_reduce
I0714 21:03:14.236266 13343 net.cpp:425] inception_3b/relu_5x5_reduce <- inception_3b/5x5_reduce
I0714 21:03:14.236279 13343 net.cpp:386] inception_3b/relu_5x5_reduce -> inception_3b/5x5_reduce (in-place)
I0714 21:03:14.236582 13343 net.cpp:141] Setting up inception_3b/relu_5x5_reduce
I0714 21:03:14.236596 13343 net.cpp:148] Top shape: 10 32 28 28 (250880)
I0714 21:03:14.236601 13343 net.cpp:156] Memory required for data: 304066560
I0714 21:03:14.236608 13343 layer_factory.hpp:77] Creating layer inception_3b/5x5
I0714 21:03:14.236629 13343 net.cpp:91] Creating Layer inception_3b/5x5
I0714 21:03:14.236635 13343 net.cpp:425] inception_3b/5x5 <- inception_3b/5x5_reduce
I0714 21:03:14.236646 13343 net.cpp:399] inception_3b/5x5 -> inception_3b/5x5
I0714 21:03:14.241042 13347 net.cpp:141] Setting up inception_3b/5x5
I0714 21:03:14.241066 13347 net.cpp:148] Top shape: 10 96 28 28 (752640)
I0714 21:03:14.241073 13347 net.cpp:156] Memory required for data: 307077120
I0714 21:03:14.241083 13347 layer_factory.hpp:77] Creating layer inception_3b/relu_5x5
I0714 21:03:14.241098 13347 net.cpp:91] Creating Layer inception_3b/relu_5x5
I0714 21:03:14.241106 13347 net.cpp:425] inception_3b/relu_5x5 <- inception_3b/5x5
I0714 21:03:14.241116 13347 net.cpp:386] inception_3b/relu_5x5 -> inception_3b/5x5 (in-place)
I0714 21:03:14.241509 13347 net.cpp:141] Setting up inception_3b/relu_5x5
I0714 21:03:14.241523 13347 net.cpp:148] Top shape: 10 96 28 28 (752640)
I0714 21:03:14.241528 13347 net.cpp:156] Memory required for data: 310087680
I0714 21:03:14.241534 13347 layer_factory.hpp:77] Creating layer inception_3b/pool
I0714 21:03:14.241546 13347 net.cpp:91] Creating Layer inception_3b/pool
I0714 21:03:14.241552 13347 net.cpp:425] inception_3b/pool <- inception_3a/output_inception_3a/output_0_split_3
I0714 21:03:14.241566 13347 net.cpp:399] inception_3b/pool -> inception_3b/pool
I0714 21:03:14.242414 13347 net.cpp:141] Setting up inception_3b/pool
I0714 21:03:14.242429 13347 net.cpp:148] Top shape: 10 256 28 28 (2007040)
I0714 21:03:14.242434 13347 net.cpp:156] Memory required for data: 318115840
I0714 21:03:14.242439 13347 layer_factory.hpp:77] Creating layer inception_3b/pool_proj
I0714 21:03:14.242460 13347 net.cpp:91] Creating Layer inception_3b/pool_proj
I0714 21:03:14.242466 13347 net.cpp:425] inception_3b/pool_proj <- inception_3b/pool
I0714 21:03:14.242478 13347 net.cpp:399] inception_3b/pool_proj -> inception_3b/pool_proj
I0714 21:03:14.244568 13343 net.cpp:141] Setting up inception_3b/5x5
I0714 21:03:14.244593 13343 net.cpp:148] Top shape: 10 96 28 28 (752640)
I0714 21:03:14.244599 13343 net.cpp:156] Memory required for data: 307077120
I0714 21:03:14.244611 13343 layer_factory.hpp:77] Creating layer inception_3b/relu_5x5
I0714 21:03:14.244621 13343 net.cpp:91] Creating Layer inception_3b/relu_5x5
I0714 21:03:14.244628 13343 net.cpp:425] inception_3b/relu_5x5 <- inception_3b/5x5
I0714 21:03:14.244642 13343 net.cpp:386] inception_3b/relu_5x5 -> inception_3b/5x5 (in-place)
I0714 21:03:14.245007 13343 net.cpp:141] Setting up inception_3b/relu_5x5
I0714 21:03:14.245021 13343 net.cpp:148] Top shape: 10 96 28 28 (752640)
I0714 21:03:14.245026 13343 net.cpp:156] Memory required for data: 310087680
I0714 21:03:14.245033 13343 layer_factory.hpp:77] Creating layer inception_3b/pool
I0714 21:03:14.245044 13343 net.cpp:91] Creating Layer inception_3b/pool
I0714 21:03:14.245050 13343 net.cpp:425] inception_3b/pool <- inception_3a/output_inception_3a/output_0_split_3
I0714 21:03:14.245060 13343 net.cpp:399] inception_3b/pool -> inception_3b/pool
I0714 21:03:14.245779 13343 net.cpp:141] Setting up inception_3b/pool
I0714 21:03:14.245795 13343 net.cpp:148] Top shape: 10 256 28 28 (2007040)
I0714 21:03:14.245800 13343 net.cpp:156] Memory required for data: 318115840
I0714 21:03:14.245807 13343 layer_factory.hpp:77] Creating layer inception_3b/pool_proj
I0714 21:03:14.245823 13343 net.cpp:91] Creating Layer inception_3b/pool_proj
I0714 21:03:14.245829 13343 net.cpp:425] inception_3b/pool_proj <- inception_3b/pool
I0714 21:03:14.245839 13343 net.cpp:399] inception_3b/pool_proj -> inception_3b/pool_proj
I0714 21:03:14.251114 13347 net.cpp:141] Setting up inception_3b/pool_proj
I0714 21:03:14.251157 13347 net.cpp:148] Top shape: 10 64 28 28 (501760)
I0714 21:03:14.251168 13347 net.cpp:156] Memory required for data: 320122880
I0714 21:03:14.251204 13347 layer_factory.hpp:77] Creating layer inception_3b/relu_pool_proj
I0714 21:03:14.251219 13347 net.cpp:91] Creating Layer inception_3b/relu_pool_proj
I0714 21:03:14.251227 13347 net.cpp:425] inception_3b/relu_pool_proj <- inception_3b/pool_proj
I0714 21:03:14.251236 13347 net.cpp:386] inception_3b/relu_pool_proj -> inception_3b/pool_proj (in-place)
I0714 21:03:14.252264 13343 net.cpp:141] Setting up inception_3b/pool_proj
I0714 21:03:14.252279 13347 net.cpp:141] Setting up inception_3b/relu_pool_proj
I0714 21:03:14.252290 13343 net.cpp:148] Top shape: 10 64 28 28 (501760)
I0714 21:03:14.252295 13347 net.cpp:148] Top shape: 10 64 28 28 (501760)
I0714 21:03:14.252297 13343 net.cpp:156] Memory required for data: 320122880
I0714 21:03:14.252300 13347 net.cpp:156] Memory required for data: 322129920
I0714 21:03:14.252307 13347 layer_factory.hpp:77] Creating layer inception_3b/output
I0714 21:03:14.252310 13343 layer_factory.hpp:77] Creating layer inception_3b/relu_pool_proj
I0714 21:03:14.252321 13343 net.cpp:91] Creating Layer inception_3b/relu_pool_proj
I0714 21:03:14.252323 13347 net.cpp:91] Creating Layer inception_3b/output
I0714 21:03:14.252328 13343 net.cpp:425] inception_3b/relu_pool_proj <- inception_3b/pool_proj
I0714 21:03:14.252331 13347 net.cpp:425] inception_3b/output <- inception_3b/1x1
I0714 21:03:14.252341 13347 net.cpp:425] inception_3b/output <- inception_3b/3x3
I0714 21:03:14.252341 13343 net.cpp:386] inception_3b/relu_pool_proj -> inception_3b/pool_proj (in-place)
I0714 21:03:14.252347 13347 net.cpp:425] inception_3b/output <- inception_3b/5x5
I0714 21:03:14.252354 13347 net.cpp:425] inception_3b/output <- inception_3b/pool_proj
I0714 21:03:14.252362 13347 net.cpp:399] inception_3b/output -> inception_3b/output
I0714 21:03:14.253171 13347 net.cpp:141] Setting up inception_3b/output
I0714 21:03:14.253186 13347 net.cpp:148] Top shape: 10 480 28 28 (3763200)
I0714 21:03:14.253192 13347 net.cpp:156] Memory required for data: 337182720
I0714 21:03:14.253198 13347 layer_factory.hpp:77] Creating layer pool3/3x3_s2
I0714 21:03:14.253208 13347 net.cpp:91] Creating Layer pool3/3x3_s2
I0714 21:03:14.253214 13347 net.cpp:425] pool3/3x3_s2 <- inception_3b/output
I0714 21:03:14.253222 13347 net.cpp:399] pool3/3x3_s2 -> pool3/3x3_s2
I0714 21:03:14.253279 13343 net.cpp:141] Setting up inception_3b/relu_pool_proj
I0714 21:03:14.253295 13343 net.cpp:148] Top shape: 10 64 28 28 (501760)
I0714 21:03:14.253301 13343 net.cpp:156] Memory required for data: 322129920
I0714 21:03:14.253307 13343 layer_factory.hpp:77] Creating layer inception_3b/output
I0714 21:03:14.253320 13343 net.cpp:91] Creating Layer inception_3b/output
I0714 21:03:14.253327 13343 net.cpp:425] inception_3b/output <- inception_3b/1x1
I0714 21:03:14.253334 13343 net.cpp:425] inception_3b/output <- inception_3b/3x3
I0714 21:03:14.253340 13343 net.cpp:425] inception_3b/output <- inception_3b/5x5
I0714 21:03:14.253347 13343 net.cpp:425] inception_3b/output <- inception_3b/pool_proj
I0714 21:03:14.253345 13347 net.cpp:141] Setting up pool3/3x3_s2
I0714 21:03:14.253360 13343 net.cpp:399] inception_3b/output -> inception_3b/output
I0714 21:03:14.253373 13347 net.cpp:148] Top shape: 10 480 14 14 (940800)
I0714 21:03:14.253379 13347 net.cpp:156] Memory required for data: 340945920
I0714 21:03:14.253384 13347 layer_factory.hpp:77] Creating layer pool3/3x3_s2_pool3/3x3_s2_0_split
I0714 21:03:14.253396 13347 net.cpp:91] Creating Layer pool3/3x3_s2_pool3/3x3_s2_0_split
I0714 21:03:14.253402 13347 net.cpp:425] pool3/3x3_s2_pool3/3x3_s2_0_split <- pool3/3x3_s2
I0714 21:03:14.253414 13347 net.cpp:399] pool3/3x3_s2_pool3/3x3_s2_0_split -> pool3/3x3_s2_pool3/3x3_s2_0_split_0
I0714 21:03:14.253427 13347 net.cpp:399] pool3/3x3_s2_pool3/3x3_s2_0_split -> pool3/3x3_s2_pool3/3x3_s2_0_split_1
I0714 21:03:14.253435 13347 net.cpp:399] pool3/3x3_s2_pool3/3x3_s2_0_split -> pool3/3x3_s2_pool3/3x3_s2_0_split_2
I0714 21:03:14.253444 13347 net.cpp:399] pool3/3x3_s2_pool3/3x3_s2_0_split -> pool3/3x3_s2_pool3/3x3_s2_0_split_3
I0714 21:03:14.253460 13343 net.cpp:141] Setting up inception_3b/output
I0714 21:03:14.253473 13343 net.cpp:148] Top shape: 10 480 28 28 (3763200)
I0714 21:03:14.253478 13343 net.cpp:156] Memory required for data: 337182720
I0714 21:03:14.253484 13343 layer_factory.hpp:77] Creating layer pool3/3x3_s2
I0714 21:03:14.253495 13343 net.cpp:91] Creating Layer pool3/3x3_s2
I0714 21:03:14.253501 13343 net.cpp:425] pool3/3x3_s2 <- inception_3b/output
I0714 21:03:14.253509 13343 net.cpp:399] pool3/3x3_s2 -> pool3/3x3_s2
I0714 21:03:14.253813 13343 net.cpp:141] Setting up pool3/3x3_s2
I0714 21:03:14.253826 13343 net.cpp:148] Top shape: 10 480 14 14 (940800)
I0714 21:03:14.253831 13343 net.cpp:156] Memory required for data: 340945920
I0714 21:03:14.253829 13347 net.cpp:141] Setting up pool3/3x3_s2_pool3/3x3_s2_0_split
I0714 21:03:14.253841 13343 layer_factory.hpp:77] Creating layer pool3/3x3_s2_pool3/3x3_s2_0_split
I0714 21:03:14.253854 13347 net.cpp:148] Top shape: 10 480 14 14 (940800)
I0714 21:03:14.253862 13343 net.cpp:91] Creating Layer pool3/3x3_s2_pool3/3x3_s2_0_split
I0714 21:03:14.253862 13347 net.cpp:148] Top shape: 10 480 14 14 (940800)
I0714 21:03:14.253871 13343 net.cpp:425] pool3/3x3_s2_pool3/3x3_s2_0_split <- pool3/3x3_s2
I0714 21:03:14.253876 13347 net.cpp:148] Top shape: 10 480 14 14 (940800)
I0714 21:03:14.253880 13343 net.cpp:399] pool3/3x3_s2_pool3/3x3_s2_0_split -> pool3/3x3_s2_pool3/3x3_s2_0_split_0
I0714 21:03:14.253885 13347 net.cpp:148] Top shape: 10 480 14 14 (940800)
I0714 21:03:14.253890 13347 net.cpp:156] Memory required for data: 355998720
I0714 21:03:14.253895 13343 net.cpp:399] pool3/3x3_s2_pool3/3x3_s2_0_split -> pool3/3x3_s2_pool3/3x3_s2_0_split_1
I0714 21:03:14.253895 13347 layer_factory.hpp:77] Creating layer inception_4a/1x1
I0714 21:03:14.253908 13343 net.cpp:399] pool3/3x3_s2_pool3/3x3_s2_0_split -> pool3/3x3_s2_pool3/3x3_s2_0_split_2
I0714 21:03:14.253918 13347 net.cpp:91] Creating Layer inception_4a/1x1
I0714 21:03:14.253918 13343 net.cpp:399] pool3/3x3_s2_pool3/3x3_s2_0_split -> pool3/3x3_s2_pool3/3x3_s2_0_split_3
I0714 21:03:14.253928 13347 net.cpp:425] inception_4a/1x1 <- pool3/3x3_s2_pool3/3x3_s2_0_split_0
I0714 21:03:14.253952 13347 net.cpp:399] inception_4a/1x1 -> inception_4a/1x1
I0714 21:03:14.254355 13343 net.cpp:141] Setting up pool3/3x3_s2_pool3/3x3_s2_0_split
I0714 21:03:14.254369 13343 net.cpp:148] Top shape: 10 480 14 14 (940800)
I0714 21:03:14.254374 13343 net.cpp:148] Top shape: 10 480 14 14 (940800)
I0714 21:03:14.254381 13343 net.cpp:148] Top shape: 10 480 14 14 (940800)
I0714 21:03:14.254386 13343 net.cpp:148] Top shape: 10 480 14 14 (940800)
I0714 21:03:14.254391 13343 net.cpp:156] Memory required for data: 355998720
I0714 21:03:14.254396 13343 layer_factory.hpp:77] Creating layer inception_4a/1x1
I0714 21:03:14.254411 13343 net.cpp:91] Creating Layer inception_4a/1x1
I0714 21:03:14.254417 13343 net.cpp:425] inception_4a/1x1 <- pool3/3x3_s2_pool3/3x3_s2_0_split_0
I0714 21:03:14.254432 13343 net.cpp:399] inception_4a/1x1 -> inception_4a/1x1
I0714 21:03:14.264600 13343 net.cpp:141] Setting up inception_4a/1x1
I0714 21:03:14.264636 13343 net.cpp:148] Top shape: 10 192 14 14 (376320)
I0714 21:03:14.264642 13343 net.cpp:156] Memory required for data: 357504000
I0714 21:03:14.264655 13343 layer_factory.hpp:77] Creating layer inception_4a/relu_1x1
I0714 21:03:14.264667 13343 net.cpp:91] Creating Layer inception_4a/relu_1x1
I0714 21:03:14.264674 13343 net.cpp:425] inception_4a/relu_1x1 <- inception_4a/1x1
I0714 21:03:14.264684 13343 net.cpp:386] inception_4a/relu_1x1 -> inception_4a/1x1 (in-place)
I0714 21:03:14.264775 13347 net.cpp:141] Setting up inception_4a/1x1
I0714 21:03:14.264803 13347 net.cpp:148] Top shape: 10 192 14 14 (376320)
I0714 21:03:14.264809 13347 net.cpp:156] Memory required for data: 357504000
I0714 21:03:14.264823 13347 layer_factory.hpp:77] Creating layer inception_4a/relu_1x1
I0714 21:03:14.264837 13347 net.cpp:91] Creating Layer inception_4a/relu_1x1
I0714 21:03:14.264844 13347 net.cpp:425] inception_4a/relu_1x1 <- inception_4a/1x1
I0714 21:03:14.264859 13347 net.cpp:386] inception_4a/relu_1x1 -> inception_4a/1x1 (in-place)
I0714 21:03:14.265105 13343 net.cpp:141] Setting up inception_4a/relu_1x1
I0714 21:03:14.265120 13343 net.cpp:148] Top shape: 10 192 14 14 (376320)
I0714 21:03:14.265125 13343 net.cpp:156] Memory required for data: 359009280
I0714 21:03:14.265130 13343 layer_factory.hpp:77] Creating layer inception_4a/3x3_reduce
I0714 21:03:14.265149 13343 net.cpp:91] Creating Layer inception_4a/3x3_reduce
I0714 21:03:14.265157 13343 net.cpp:425] inception_4a/3x3_reduce <- pool3/3x3_s2_pool3/3x3_s2_0_split_1
I0714 21:03:14.265172 13343 net.cpp:399] inception_4a/3x3_reduce -> inception_4a/3x3_reduce
I0714 21:03:14.265236 13347 net.cpp:141] Setting up inception_4a/relu_1x1
I0714 21:03:14.265254 13347 net.cpp:148] Top shape: 10 192 14 14 (376320)
I0714 21:03:14.265260 13347 net.cpp:156] Memory required for data: 359009280
I0714 21:03:14.265267 13347 layer_factory.hpp:77] Creating layer inception_4a/3x3_reduce
I0714 21:03:14.265285 13347 net.cpp:91] Creating Layer inception_4a/3x3_reduce
I0714 21:03:14.265292 13347 net.cpp:425] inception_4a/3x3_reduce <- pool3/3x3_s2_pool3/3x3_s2_0_split_1
I0714 21:03:14.265314 13347 net.cpp:399] inception_4a/3x3_reduce -> inception_4a/3x3_reduce
I0714 21:03:14.270879 13343 net.cpp:141] Setting up inception_4a/3x3_reduce
I0714 21:03:14.270900 13343 net.cpp:148] Top shape: 10 96 14 14 (188160)
I0714 21:03:14.270905 13343 net.cpp:156] Memory required for data: 359761920
I0714 21:03:14.270932 13343 layer_factory.hpp:77] Creating layer inception_4a/relu_3x3_reduce
I0714 21:03:14.270943 13343 net.cpp:91] Creating Layer inception_4a/relu_3x3_reduce
I0714 21:03:14.270951 13343 net.cpp:425] inception_4a/relu_3x3_reduce <- inception_4a/3x3_reduce
I0714 21:03:14.270958 13343 net.cpp:386] inception_4a/relu_3x3_reduce -> inception_4a/3x3_reduce (in-place)
I0714 21:03:14.271328 13347 net.cpp:141] Setting up inception_4a/3x3_reduce
I0714 21:03:14.271347 13347 net.cpp:148] Top shape: 10 96 14 14 (188160)
I0714 21:03:14.271353 13347 net.cpp:156] Memory required for data: 359761920
I0714 21:03:14.271369 13343 net.cpp:141] Setting up inception_4a/relu_3x3_reduce
I0714 21:03:14.271378 13347 layer_factory.hpp:77] Creating layer inception_4a/relu_3x3_reduce
I0714 21:03:14.271384 13343 net.cpp:148] Top shape: 10 96 14 14 (188160)
I0714 21:03:14.271390 13347 net.cpp:91] Creating Layer inception_4a/relu_3x3_reduce
I0714 21:03:14.271390 13343 net.cpp:156] Memory required for data: 360514560
I0714 21:03:14.271402 13347 net.cpp:425] inception_4a/relu_3x3_reduce <- inception_4a/3x3_reduce
I0714 21:03:14.271414 13343 layer_factory.hpp:77] Creating layer inception_4a/3x3
I0714 21:03:14.271442 13343 net.cpp:91] Creating Layer inception_4a/3x3
I0714 21:03:14.271443 13347 net.cpp:386] inception_4a/relu_3x3_reduce -> inception_4a/3x3_reduce (in-place)
I0714 21:03:14.271451 13343 net.cpp:425] inception_4a/3x3 <- inception_4a/3x3_reduce
I0714 21:03:14.271466 13343 net.cpp:399] inception_4a/3x3 -> inception_4a/3x3
I0714 21:03:14.271948 13347 net.cpp:141] Setting up inception_4a/relu_3x3_reduce
I0714 21:03:14.271966 13347 net.cpp:148] Top shape: 10 96 14 14 (188160)
I0714 21:03:14.271972 13347 net.cpp:156] Memory required for data: 360514560
I0714 21:03:14.271978 13347 layer_factory.hpp:77] Creating layer inception_4a/3x3
I0714 21:03:14.271998 13347 net.cpp:91] Creating Layer inception_4a/3x3
I0714 21:03:14.272006 13347 net.cpp:425] inception_4a/3x3 <- inception_4a/3x3_reduce
I0714 21:03:14.272017 13347 net.cpp:399] inception_4a/3x3 -> inception_4a/3x3
I0714 21:03:14.280719 13343 net.cpp:141] Setting up inception_4a/3x3
I0714 21:03:14.280742 13343 net.cpp:148] Top shape: 10 208 14 14 (407680)
I0714 21:03:14.280748 13343 net.cpp:156] Memory required for data: 362145280
I0714 21:03:14.280758 13343 layer_factory.hpp:77] Creating layer inception_4a/relu_3x3
I0714 21:03:14.280769 13343 net.cpp:91] Creating Layer inception_4a/relu_3x3
I0714 21:03:14.280779 13343 net.cpp:425] inception_4a/relu_3x3 <- inception_4a/3x3
I0714 21:03:14.280788 13343 net.cpp:386] inception_4a/relu_3x3 -> inception_4a/3x3 (in-place)
I0714 21:03:14.281850 13343 net.cpp:141] Setting up inception_4a/relu_3x3
I0714 21:03:14.281868 13343 net.cpp:148] Top shape: 10 208 14 14 (407680)
I0714 21:03:14.281873 13343 net.cpp:156] Memory required for data: 363776000
I0714 21:03:14.281879 13343 layer_factory.hpp:77] Creating layer inception_4a/5x5_reduce
I0714 21:03:14.281898 13343 net.cpp:91] Creating Layer inception_4a/5x5_reduce
I0714 21:03:14.281904 13343 net.cpp:425] inception_4a/5x5_reduce <- pool3/3x3_s2_pool3/3x3_s2_0_split_2
I0714 21:03:14.281919 13343 net.cpp:399] inception_4a/5x5_reduce -> inception_4a/5x5_reduce
I0714 21:03:14.282106 13347 net.cpp:141] Setting up inception_4a/3x3
I0714 21:03:14.282125 13347 net.cpp:148] Top shape: 10 208 14 14 (407680)
I0714 21:03:14.282131 13347 net.cpp:156] Memory required for data: 362145280
I0714 21:03:14.282142 13347 layer_factory.hpp:77] Creating layer inception_4a/relu_3x3
I0714 21:03:14.282155 13347 net.cpp:91] Creating Layer inception_4a/relu_3x3
I0714 21:03:14.282163 13347 net.cpp:425] inception_4a/relu_3x3 <- inception_4a/3x3
I0714 21:03:14.282172 13347 net.cpp:386] inception_4a/relu_3x3 -> inception_4a/3x3 (in-place)
I0714 21:03:14.283241 13347 net.cpp:141] Setting up inception_4a/relu_3x3
I0714 21:03:14.283264 13347 net.cpp:148] Top shape: 10 208 14 14 (407680)
I0714 21:03:14.283270 13347 net.cpp:156] Memory required for data: 363776000
I0714 21:03:14.283277 13347 layer_factory.hpp:77] Creating layer inception_4a/5x5_reduce
I0714 21:03:14.283310 13347 net.cpp:91] Creating Layer inception_4a/5x5_reduce
I0714 21:03:14.283318 13347 net.cpp:425] inception_4a/5x5_reduce <- pool3/3x3_s2_pool3/3x3_s2_0_split_2
I0714 21:03:14.283330 13347 net.cpp:399] inception_4a/5x5_reduce -> inception_4a/5x5_reduce
I0714 21:03:14.287665 13343 net.cpp:141] Setting up inception_4a/5x5_reduce
I0714 21:03:14.287688 13343 net.cpp:148] Top shape: 10 16 14 14 (31360)
I0714 21:03:14.287694 13343 net.cpp:156] Memory required for data: 363901440
I0714 21:03:14.287705 13343 layer_factory.hpp:77] Creating layer inception_4a/relu_5x5_reduce
I0714 21:03:14.287719 13343 net.cpp:91] Creating Layer inception_4a/relu_5x5_reduce
I0714 21:03:14.287725 13343 net.cpp:425] inception_4a/relu_5x5_reduce <- inception_4a/5x5_reduce
I0714 21:03:14.287734 13343 net.cpp:386] inception_4a/relu_5x5_reduce -> inception_4a/5x5_reduce (in-place)
I0714 21:03:14.288143 13343 net.cpp:141] Setting up inception_4a/relu_5x5_reduce
I0714 21:03:14.288156 13343 net.cpp:148] Top shape: 10 16 14 14 (31360)
I0714 21:03:14.288161 13343 net.cpp:156] Memory required for data: 364026880
I0714 21:03:14.288167 13343 layer_factory.hpp:77] Creating layer inception_4a/5x5
I0714 21:03:14.288192 13343 net.cpp:91] Creating Layer inception_4a/5x5
I0714 21:03:14.288199 13343 net.cpp:425] inception_4a/5x5 <- inception_4a/5x5_reduce
I0714 21:03:14.288210 13343 net.cpp:399] inception_4a/5x5 -> inception_4a/5x5
I0714 21:03:14.289569 13347 net.cpp:141] Setting up inception_4a/5x5_reduce
I0714 21:03:14.289595 13347 net.cpp:148] Top shape: 10 16 14 14 (31360)
I0714 21:03:14.289602 13347 net.cpp:156] Memory required for data: 363901440
I0714 21:03:14.289613 13347 layer_factory.hpp:77] Creating layer inception_4a/relu_5x5_reduce
I0714 21:03:14.289623 13347 net.cpp:91] Creating Layer inception_4a/relu_5x5_reduce
I0714 21:03:14.289649 13347 net.cpp:425] inception_4a/relu_5x5_reduce <- inception_4a/5x5_reduce
I0714 21:03:14.289657 13347 net.cpp:386] inception_4a/relu_5x5_reduce -> inception_4a/5x5_reduce (in-place)
I0714 21:03:14.290045 13347 net.cpp:141] Setting up inception_4a/relu_5x5_reduce
I0714 21:03:14.290058 13347 net.cpp:148] Top shape: 10 16 14 14 (31360)
I0714 21:03:14.290063 13347 net.cpp:156] Memory required for data: 364026880
I0714 21:03:14.290069 13347 layer_factory.hpp:77] Creating layer inception_4a/5x5
I0714 21:03:14.290088 13347 net.cpp:91] Creating Layer inception_4a/5x5
I0714 21:03:14.290096 13347 net.cpp:425] inception_4a/5x5 <- inception_4a/5x5_reduce
I0714 21:03:14.290109 13347 net.cpp:399] inception_4a/5x5 -> inception_4a/5x5
I0714 21:03:14.293941 13343 net.cpp:141] Setting up inception_4a/5x5
I0714 21:03:14.293967 13343 net.cpp:148] Top shape: 10 48 14 14 (94080)
I0714 21:03:14.293973 13343 net.cpp:156] Memory required for data: 364403200
I0714 21:03:14.293984 13343 layer_factory.hpp:77] Creating layer inception_4a/relu_5x5
I0714 21:03:14.293994 13343 net.cpp:91] Creating Layer inception_4a/relu_5x5
I0714 21:03:14.294003 13343 net.cpp:425] inception_4a/relu_5x5 <- inception_4a/5x5
I0714 21:03:14.294015 13343 net.cpp:386] inception_4a/relu_5x5 -> inception_4a/5x5 (in-place)
I0714 21:03:14.294482 13343 net.cpp:141] Setting up inception_4a/relu_5x5
I0714 21:03:14.294498 13343 net.cpp:148] Top shape: 10 48 14 14 (94080)
I0714 21:03:14.294503 13343 net.cpp:156] Memory required for data: 364779520
I0714 21:03:14.294509 13343 layer_factory.hpp:77] Creating layer inception_4a/pool
I0714 21:03:14.294523 13343 net.cpp:91] Creating Layer inception_4a/pool
I0714 21:03:14.294530 13343 net.cpp:425] inception_4a/pool <- pool3/3x3_s2_pool3/3x3_s2_0_split_3
I0714 21:03:14.294539 13343 net.cpp:399] inception_4a/pool -> inception_4a/pool
I0714 21:03:14.295397 13343 net.cpp:141] Setting up inception_4a/pool
I0714 21:03:14.295411 13343 net.cpp:148] Top shape: 10 480 14 14 (940800)
I0714 21:03:14.295418 13343 net.cpp:156] Memory required for data: 368542720
I0714 21:03:14.295423 13343 layer_factory.hpp:77] Creating layer inception_4a/pool_proj
I0714 21:03:14.295440 13343 net.cpp:91] Creating Layer inception_4a/pool_proj
I0714 21:03:14.295447 13343 net.cpp:425] inception_4a/pool_proj <- inception_4a/pool
I0714 21:03:14.295466 13343 net.cpp:399] inception_4a/pool_proj -> inception_4a/pool_proj
I0714 21:03:14.296372 13347 net.cpp:141] Setting up inception_4a/5x5
I0714 21:03:14.296393 13347 net.cpp:148] Top shape: 10 48 14 14 (94080)
I0714 21:03:14.296399 13347 net.cpp:156] Memory required for data: 364403200
I0714 21:03:14.296411 13347 layer_factory.hpp:77] Creating layer inception_4a/relu_5x5
I0714 21:03:14.296421 13347 net.cpp:91] Creating Layer inception_4a/relu_5x5
I0714 21:03:14.296427 13347 net.cpp:425] inception_4a/relu_5x5 <- inception_4a/5x5
I0714 21:03:14.296440 13347 net.cpp:386] inception_4a/relu_5x5 -> inception_4a/5x5 (in-place)
I0714 21:03:14.296820 13347 net.cpp:141] Setting up inception_4a/relu_5x5
I0714 21:03:14.296839 13347 net.cpp:148] Top shape: 10 48 14 14 (94080)
I0714 21:03:14.296845 13347 net.cpp:156] Memory required for data: 364779520
I0714 21:03:14.296851 13347 layer_factory.hpp:77] Creating layer inception_4a/pool
I0714 21:03:14.296864 13347 net.cpp:91] Creating Layer inception_4a/pool
I0714 21:03:14.296870 13347 net.cpp:425] inception_4a/pool <- pool3/3x3_s2_pool3/3x3_s2_0_split_3
I0714 21:03:14.296880 13347 net.cpp:399] inception_4a/pool -> inception_4a/pool
I0714 21:03:14.297054 13347 net.cpp:141] Setting up inception_4a/pool
I0714 21:03:14.297070 13347 net.cpp:148] Top shape: 10 480 14 14 (940800)
I0714 21:03:14.297075 13347 net.cpp:156] Memory required for data: 368542720
I0714 21:03:14.297080 13347 layer_factory.hpp:77] Creating layer inception_4a/pool_proj
I0714 21:03:14.297097 13347 net.cpp:91] Creating Layer inception_4a/pool_proj
I0714 21:03:14.297104 13347 net.cpp:425] inception_4a/pool_proj <- inception_4a/pool
I0714 21:03:14.297114 13347 net.cpp:399] inception_4a/pool_proj -> inception_4a/pool_proj
I0714 21:03:14.300237 13343 net.cpp:141] Setting up inception_4a/pool_proj
I0714 21:03:14.300259 13343 net.cpp:148] Top shape: 10 64 14 14 (125440)
I0714 21:03:14.300266 13343 net.cpp:156] Memory required for data: 369044480
I0714 21:03:14.300276 13343 layer_factory.hpp:77] Creating layer inception_4a/relu_pool_proj
I0714 21:03:14.300289 13343 net.cpp:91] Creating Layer inception_4a/relu_pool_proj
I0714 21:03:14.300297 13343 net.cpp:425] inception_4a/relu_pool_proj <- inception_4a/pool_proj
I0714 21:03:14.300305 13343 net.cpp:386] inception_4a/relu_pool_proj -> inception_4a/pool_proj (in-place)
I0714 21:03:14.301559 13343 net.cpp:141] Setting up inception_4a/relu_pool_proj
I0714 21:03:14.301581 13343 net.cpp:148] Top shape: 10 64 14 14 (125440)
I0714 21:03:14.301587 13343 net.cpp:156] Memory required for data: 369546240
I0714 21:03:14.301594 13343 layer_factory.hpp:77] Creating layer inception_4a/output
I0714 21:03:14.301604 13343 net.cpp:91] Creating Layer inception_4a/output
I0714 21:03:14.301610 13343 net.cpp:425] inception_4a/output <- inception_4a/1x1
I0714 21:03:14.301618 13343 net.cpp:425] inception_4a/output <- inception_4a/3x3
I0714 21:03:14.301625 13343 net.cpp:425] inception_4a/output <- inception_4a/5x5
I0714 21:03:14.301631 13343 net.cpp:425] inception_4a/output <- inception_4a/pool_proj
I0714 21:03:14.301640 13343 net.cpp:399] inception_4a/output -> inception_4a/output
I0714 21:03:14.301954 13343 net.cpp:141] Setting up inception_4a/output
I0714 21:03:14.301967 13343 net.cpp:148] Top shape: 10 512 14 14 (1003520)
I0714 21:03:14.301972 13343 net.cpp:156] Memory required for data: 373560320
I0714 21:03:14.301977 13343 layer_factory.hpp:77] Creating layer inception_4a/output_inception_4a/output_0_split
I0714 21:03:14.301988 13343 net.cpp:91] Creating Layer inception_4a/output_inception_4a/output_0_split
I0714 21:03:14.301993 13343 net.cpp:425] inception_4a/output_inception_4a/output_0_split <- inception_4a/output
I0714 21:03:14.302001 13343 net.cpp:399] inception_4a/output_inception_4a/output_0_split -> inception_4a/output_inception_4a/output_0_split_0
I0714 21:03:14.302016 13343 net.cpp:399] inception_4a/output_inception_4a/output_0_split -> inception_4a/output_inception_4a/output_0_split_1
I0714 21:03:14.302027 13343 net.cpp:399] inception_4a/output_inception_4a/output_0_split -> inception_4a/output_inception_4a/output_0_split_2
I0714 21:03:14.302037 13343 net.cpp:399] inception_4a/output_inception_4a/output_0_split -> inception_4a/output_inception_4a/output_0_split_3
I0714 21:03:14.302528 13343 net.cpp:141] Setting up inception_4a/output_inception_4a/output_0_split
I0714 21:03:14.302541 13343 net.cpp:148] Top shape: 10 512 14 14 (1003520)
I0714 21:03:14.302548 13343 net.cpp:148] Top shape: 10 512 14 14 (1003520)
I0714 21:03:14.302554 13343 net.cpp:148] Top shape: 10 512 14 14 (1003520)
I0714 21:03:14.302561 13343 net.cpp:148] Top shape: 10 512 14 14 (1003520)
I0714 21:03:14.302566 13343 net.cpp:156] Memory required for data: 389616640
I0714 21:03:14.302570 13343 layer_factory.hpp:77] Creating layer inception_4b/1x1
I0714 21:03:14.302587 13343 net.cpp:91] Creating Layer inception_4b/1x1
I0714 21:03:14.302593 13343 net.cpp:425] inception_4b/1x1 <- inception_4a/output_inception_4a/output_0_split_0
I0714 21:03:14.302608 13343 net.cpp:399] inception_4b/1x1 -> inception_4b/1x1
I0714 21:03:14.303375 13347 net.cpp:141] Setting up inception_4a/pool_proj
I0714 21:03:14.303400 13347 net.cpp:148] Top shape: 10 64 14 14 (125440)
I0714 21:03:14.303406 13347 net.cpp:156] Memory required for data: 369044480
I0714 21:03:14.303417 13347 layer_factory.hpp:77] Creating layer inception_4a/relu_pool_proj
I0714 21:03:14.303428 13347 net.cpp:91] Creating Layer inception_4a/relu_pool_proj
I0714 21:03:14.303436 13347 net.cpp:425] inception_4a/relu_pool_proj <- inception_4a/pool_proj
I0714 21:03:14.303443 13347 net.cpp:386] inception_4a/relu_pool_proj -> inception_4a/pool_proj (in-place)
I0714 21:03:14.304409 13347 net.cpp:141] Setting up inception_4a/relu_pool_proj
I0714 21:03:14.304426 13347 net.cpp:148] Top shape: 10 64 14 14 (125440)
I0714 21:03:14.304432 13347 net.cpp:156] Memory required for data: 369546240
I0714 21:03:14.304438 13347 layer_factory.hpp:77] Creating layer inception_4a/output
I0714 21:03:14.304450 13347 net.cpp:91] Creating Layer inception_4a/output
I0714 21:03:14.304455 13347 net.cpp:425] inception_4a/output <- inception_4a/1x1
I0714 21:03:14.304463 13347 net.cpp:425] inception_4a/output <- inception_4a/3x3
I0714 21:03:14.304469 13347 net.cpp:425] inception_4a/output <- inception_4a/5x5
I0714 21:03:14.304476 13347 net.cpp:425] inception_4a/output <- inception_4a/pool_proj
I0714 21:03:14.304483 13347 net.cpp:399] inception_4a/output -> inception_4a/output
I0714 21:03:14.304575 13347 net.cpp:141] Setting up inception_4a/output
I0714 21:03:14.304587 13347 net.cpp:148] Top shape: 10 512 14 14 (1003520)
I0714 21:03:14.304592 13347 net.cpp:156] Memory required for data: 373560320
I0714 21:03:14.304599 13347 layer_factory.hpp:77] Creating layer inception_4a/output_inception_4a/output_0_split
I0714 21:03:14.304607 13347 net.cpp:91] Creating Layer inception_4a/output_inception_4a/output_0_split
I0714 21:03:14.304613 13347 net.cpp:425] inception_4a/output_inception_4a/output_0_split <- inception_4a/output
I0714 21:03:14.304625 13347 net.cpp:399] inception_4a/output_inception_4a/output_0_split -> inception_4a/output_inception_4a/output_0_split_0
I0714 21:03:14.304636 13347 net.cpp:399] inception_4a/output_inception_4a/output_0_split -> inception_4a/output_inception_4a/output_0_split_1
I0714 21:03:14.304647 13347 net.cpp:399] inception_4a/output_inception_4a/output_0_split -> inception_4a/output_inception_4a/output_0_split_2
I0714 21:03:14.304657 13347 net.cpp:399] inception_4a/output_inception_4a/output_0_split -> inception_4a/output_inception_4a/output_0_split_3
I0714 21:03:14.304839 13347 net.cpp:141] Setting up inception_4a/output_inception_4a/output_0_split
I0714 21:03:14.304850 13347 net.cpp:148] Top shape: 10 512 14 14 (1003520)
I0714 21:03:14.304857 13347 net.cpp:148] Top shape: 10 512 14 14 (1003520)
I0714 21:03:14.304863 13347 net.cpp:148] Top shape: 10 512 14 14 (1003520)
I0714 21:03:14.304869 13347 net.cpp:148] Top shape: 10 512 14 14 (1003520)
I0714 21:03:14.304874 13347 net.cpp:156] Memory required for data: 389616640
I0714 21:03:14.304879 13347 layer_factory.hpp:77] Creating layer inception_4b/1x1
I0714 21:03:14.304896 13347 net.cpp:91] Creating Layer inception_4b/1x1
I0714 21:03:14.304903 13347 net.cpp:425] inception_4b/1x1 <- inception_4a/output_inception_4a/output_0_split_0
I0714 21:03:14.304918 13347 net.cpp:399] inception_4b/1x1 -> inception_4b/1x1
I0714 21:03:14.309737 13343 net.cpp:141] Setting up inception_4b/1x1
I0714 21:03:14.309763 13343 net.cpp:148] Top shape: 10 160 14 14 (313600)
I0714 21:03:14.309769 13343 net.cpp:156] Memory required for data: 390871040
I0714 21:03:14.309780 13343 layer_factory.hpp:77] Creating layer inception_4b/relu_1x1
I0714 21:03:14.309792 13343 net.cpp:91] Creating Layer inception_4b/relu_1x1
I0714 21:03:14.309801 13343 net.cpp:425] inception_4b/relu_1x1 <- inception_4b/1x1
I0714 21:03:14.309811 13343 net.cpp:386] inception_4b/relu_1x1 -> inception_4b/1x1 (in-place)
I0714 21:03:14.310309 13343 net.cpp:141] Setting up inception_4b/relu_1x1
I0714 21:03:14.310325 13343 net.cpp:148] Top shape: 10 160 14 14 (313600)
I0714 21:03:14.310330 13343 net.cpp:156] Memory required for data: 392125440
I0714 21:03:14.310336 13343 layer_factory.hpp:77] Creating layer inception_4b/3x3_reduce
I0714 21:03:14.310358 13343 net.cpp:91] Creating Layer inception_4b/3x3_reduce
I0714 21:03:14.310365 13343 net.cpp:425] inception_4b/3x3_reduce <- inception_4a/output_inception_4a/output_0_split_1
I0714 21:03:14.310375 13343 net.cpp:399] inception_4b/3x3_reduce -> inception_4b/3x3_reduce
I0714 21:03:14.310384 13347 net.cpp:141] Setting up inception_4b/1x1
I0714 21:03:14.310402 13347 net.cpp:148] Top shape: 10 160 14 14 (313600)
I0714 21:03:14.310407 13347 net.cpp:156] Memory required for data: 390871040
I0714 21:03:14.310418 13347 layer_factory.hpp:77] Creating layer inception_4b/relu_1x1
I0714 21:03:14.310431 13347 net.cpp:91] Creating Layer inception_4b/relu_1x1
I0714 21:03:14.310438 13347 net.cpp:425] inception_4b/relu_1x1 <- inception_4b/1x1
I0714 21:03:14.310446 13347 net.cpp:386] inception_4b/relu_1x1 -> inception_4b/1x1 (in-place)
I0714 21:03:14.310986 13347 net.cpp:141] Setting up inception_4b/relu_1x1
I0714 21:03:14.311005 13347 net.cpp:148] Top shape: 10 160 14 14 (313600)
I0714 21:03:14.311012 13347 net.cpp:156] Memory required for data: 392125440
I0714 21:03:14.311017 13347 layer_factory.hpp:77] Creating layer inception_4b/3x3_reduce
I0714 21:03:14.311035 13347 net.cpp:91] Creating Layer inception_4b/3x3_reduce
I0714 21:03:14.311043 13347 net.cpp:425] inception_4b/3x3_reduce <- inception_4a/output_inception_4a/output_0_split_1
I0714 21:03:14.311053 13347 net.cpp:399] inception_4b/3x3_reduce -> inception_4b/3x3_reduce
I0714 21:03:14.315698 13343 net.cpp:141] Setting up inception_4b/3x3_reduce
I0714 21:03:14.315722 13343 net.cpp:148] Top shape: 10 112 14 14 (219520)
I0714 21:03:14.315728 13343 net.cpp:156] Memory required for data: 393003520
I0714 21:03:14.315740 13343 layer_factory.hpp:77] Creating layer inception_4b/relu_3x3_reduce
I0714 21:03:14.315750 13343 net.cpp:91] Creating Layer inception_4b/relu_3x3_reduce
I0714 21:03:14.315758 13343 net.cpp:425] inception_4b/relu_3x3_reduce <- inception_4b/3x3_reduce
I0714 21:03:14.315771 13343 net.cpp:386] inception_4b/relu_3x3_reduce -> inception_4b/3x3_reduce (in-place)
I0714 21:03:14.316136 13347 net.cpp:141] Setting up inception_4b/3x3_reduce
I0714 21:03:14.316154 13347 net.cpp:148] Top shape: 10 112 14 14 (219520)
I0714 21:03:14.316159 13347 net.cpp:156] Memory required for data: 393003520
I0714 21:03:14.316169 13347 layer_factory.hpp:77] Creating layer inception_4b/relu_3x3_reduce
I0714 21:03:14.316184 13347 net.cpp:91] Creating Layer inception_4b/relu_3x3_reduce
I0714 21:03:14.316181 13343 net.cpp:141] Setting up inception_4b/relu_3x3_reduce
I0714 21:03:14.316196 13347 net.cpp:425] inception_4b/relu_3x3_reduce <- inception_4b/3x3_reduce
I0714 21:03:14.316212 13343 net.cpp:148] Top shape: 10 112 14 14 (219520)
I0714 21:03:14.316216 13347 net.cpp:386] inception_4b/relu_3x3_reduce -> inception_4b/3x3_reduce (in-place)
I0714 21:03:14.316218 13343 net.cpp:156] Memory required for data: 393881600
I0714 21:03:14.316233 13343 layer_factory.hpp:77] Creating layer inception_4b/3x3
I0714 21:03:14.316253 13343 net.cpp:91] Creating Layer inception_4b/3x3
I0714 21:03:14.316262 13343 net.cpp:425] inception_4b/3x3 <- inception_4b/3x3_reduce
I0714 21:03:14.316272 13343 net.cpp:399] inception_4b/3x3 -> inception_4b/3x3
I0714 21:03:14.316692 13347 net.cpp:141] Setting up inception_4b/relu_3x3_reduce
I0714 21:03:14.316707 13347 net.cpp:148] Top shape: 10 112 14 14 (219520)
I0714 21:03:14.316712 13347 net.cpp:156] Memory required for data: 393881600
I0714 21:03:14.316718 13347 layer_factory.hpp:77] Creating layer inception_4b/3x3
I0714 21:03:14.316737 13347 net.cpp:91] Creating Layer inception_4b/3x3
I0714 21:03:14.316745 13347 net.cpp:425] inception_4b/3x3 <- inception_4b/3x3_reduce
I0714 21:03:14.316758 13347 net.cpp:399] inception_4b/3x3 -> inception_4b/3x3
I0714 21:03:14.325937 13343 net.cpp:141] Setting up inception_4b/3x3
I0714 21:03:14.325964 13343 net.cpp:148] Top shape: 10 224 14 14 (439040)
I0714 21:03:14.325970 13343 net.cpp:156] Memory required for data: 395637760
I0714 21:03:14.325981 13343 layer_factory.hpp:77] Creating layer inception_4b/relu_3x3
I0714 21:03:14.325991 13343 net.cpp:91] Creating Layer inception_4b/relu_3x3
I0714 21:03:14.325999 13343 net.cpp:425] inception_4b/relu_3x3 <- inception_4b/3x3
I0714 21:03:14.326007 13343 net.cpp:386] inception_4b/relu_3x3 -> inception_4b/3x3 (in-place)
I0714 21:03:14.327457 13343 net.cpp:141] Setting up inception_4b/relu_3x3
I0714 21:03:14.327476 13343 net.cpp:148] Top shape: 10 224 14 14 (439040)
I0714 21:03:14.327481 13343 net.cpp:156] Memory required for data: 397393920
I0714 21:03:14.327487 13343 layer_factory.hpp:77] Creating layer inception_4b/5x5_reduce
I0714 21:03:14.327522 13343 net.cpp:91] Creating Layer inception_4b/5x5_reduce
I0714 21:03:14.327529 13343 net.cpp:425] inception_4b/5x5_reduce <- inception_4a/output_inception_4a/output_0_split_2
I0714 21:03:14.327541 13343 net.cpp:399] inception_4b/5x5_reduce -> inception_4b/5x5_reduce
I0714 21:03:14.327605 13347 net.cpp:141] Setting up inception_4b/3x3
I0714 21:03:14.327623 13347 net.cpp:148] Top shape: 10 224 14 14 (439040)
I0714 21:03:14.327630 13347 net.cpp:156] Memory required for data: 395637760
I0714 21:03:14.327639 13347 layer_factory.hpp:77] Creating layer inception_4b/relu_3x3
I0714 21:03:14.327654 13347 net.cpp:91] Creating Layer inception_4b/relu_3x3
I0714 21:03:14.327661 13347 net.cpp:425] inception_4b/relu_3x3 <- inception_4b/3x3
I0714 21:03:14.327671 13347 net.cpp:386] inception_4b/relu_3x3 -> inception_4b/3x3 (in-place)
I0714 21:03:14.328712 13347 net.cpp:141] Setting up inception_4b/relu_3x3
I0714 21:03:14.328732 13347 net.cpp:148] Top shape: 10 224 14 14 (439040)
I0714 21:03:14.328737 13347 net.cpp:156] Memory required for data: 397393920
I0714 21:03:14.328743 13347 layer_factory.hpp:77] Creating layer inception_4b/5x5_reduce
I0714 21:03:14.328775 13347 net.cpp:91] Creating Layer inception_4b/5x5_reduce
I0714 21:03:14.328783 13347 net.cpp:425] inception_4b/5x5_reduce <- inception_4a/output_inception_4a/output_0_split_2
I0714 21:03:14.328797 13347 net.cpp:399] inception_4b/5x5_reduce -> inception_4b/5x5_reduce
I0714 21:03:14.333766 13343 net.cpp:141] Setting up inception_4b/5x5_reduce
I0714 21:03:14.333791 13343 net.cpp:148] Top shape: 10 24 14 14 (47040)
I0714 21:03:14.333796 13343 net.cpp:156] Memory required for data: 397582080
I0714 21:03:14.333807 13343 layer_factory.hpp:77] Creating layer inception_4b/relu_5x5_reduce
I0714 21:03:14.333822 13343 net.cpp:91] Creating Layer inception_4b/relu_5x5_reduce
I0714 21:03:14.333829 13343 net.cpp:425] inception_4b/relu_5x5_reduce <- inception_4b/5x5_reduce
I0714 21:03:14.333838 13343 net.cpp:386] inception_4b/relu_5x5_reduce -> inception_4b/5x5_reduce (in-place)
I0714 21:03:14.334306 13343 net.cpp:141] Setting up inception_4b/relu_5x5_reduce
I0714 21:03:14.334322 13343 net.cpp:148] Top shape: 10 24 14 14 (47040)
I0714 21:03:14.334328 13343 net.cpp:156] Memory required for data: 397770240
I0714 21:03:14.334333 13343 layer_factory.hpp:77] Creating layer inception_4b/5x5
I0714 21:03:14.334357 13343 net.cpp:91] Creating Layer inception_4b/5x5
I0714 21:03:14.334364 13343 net.cpp:425] inception_4b/5x5 <- inception_4b/5x5_reduce
I0714 21:03:14.334378 13343 net.cpp:399] inception_4b/5x5 -> inception_4b/5x5
I0714 21:03:14.334403 13347 net.cpp:141] Setting up inception_4b/5x5_reduce
I0714 21:03:14.334421 13347 net.cpp:148] Top shape: 10 24 14 14 (47040)
I0714 21:03:14.334427 13347 net.cpp:156] Memory required for data: 397582080
I0714 21:03:14.334442 13347 layer_factory.hpp:77] Creating layer inception_4b/relu_5x5_reduce
I0714 21:03:14.334453 13347 net.cpp:91] Creating Layer inception_4b/relu_5x5_reduce
I0714 21:03:14.334460 13347 net.cpp:425] inception_4b/relu_5x5_reduce <- inception_4b/5x5_reduce
I0714 21:03:14.334471 13347 net.cpp:386] inception_4b/relu_5x5_reduce -> inception_4b/5x5_reduce (in-place)
I0714 21:03:14.334947 13347 net.cpp:141] Setting up inception_4b/relu_5x5_reduce
I0714 21:03:14.334962 13347 net.cpp:148] Top shape: 10 24 14 14 (47040)
I0714 21:03:14.334967 13347 net.cpp:156] Memory required for data: 397770240
I0714 21:03:14.334974 13347 layer_factory.hpp:77] Creating layer inception_4b/5x5
I0714 21:03:14.334995 13347 net.cpp:91] Creating Layer inception_4b/5x5
I0714 21:03:14.335005 13347 net.cpp:425] inception_4b/5x5 <- inception_4b/5x5_reduce
I0714 21:03:14.335016 13347 net.cpp:399] inception_4b/5x5 -> inception_4b/5x5
I0714 21:03:14.342860 13343 net.cpp:141] Setting up inception_4b/5x5
I0714 21:03:14.342887 13343 net.cpp:148] Top shape: 10 64 14 14 (125440)
I0714 21:03:14.342895 13343 net.cpp:156] Memory required for data: 398272000
I0714 21:03:14.342906 13343 layer_factory.hpp:77] Creating layer inception_4b/relu_5x5
I0714 21:03:14.342917 13343 net.cpp:91] Creating Layer inception_4b/relu_5x5
I0714 21:03:14.342927 13343 net.cpp:425] inception_4b/relu_5x5 <- inception_4b/5x5
I0714 21:03:14.342936 13343 net.cpp:386] inception_4b/relu_5x5 -> inception_4b/5x5 (in-place)
I0714 21:03:14.343324 13347 net.cpp:141] Setting up inception_4b/5x5
I0714 21:03:14.343345 13347 net.cpp:148] Top shape: 10 64 14 14 (125440)
I0714 21:03:14.343351 13347 net.cpp:156] Memory required for data: 398272000
I0714 21:03:14.343363 13347 layer_factory.hpp:77] Creating layer inception_4b/relu_5x5
I0714 21:03:14.343374 13347 net.cpp:91] Creating Layer inception_4b/relu_5x5
I0714 21:03:14.343382 13347 net.cpp:425] inception_4b/relu_5x5 <- inception_4b/5x5
I0714 21:03:14.343391 13347 net.cpp:386] inception_4b/relu_5x5 -> inception_4b/5x5 (in-place)
I0714 21:03:14.343400 13343 net.cpp:141] Setting up inception_4b/relu_5x5
I0714 21:03:14.343415 13343 net.cpp:148] Top shape: 10 64 14 14 (125440)
I0714 21:03:14.343420 13343 net.cpp:156] Memory required for data: 398773760
I0714 21:03:14.343426 13343 layer_factory.hpp:77] Creating layer inception_4b/pool
I0714 21:03:14.343441 13343 net.cpp:91] Creating Layer inception_4b/pool
I0714 21:03:14.343448 13343 net.cpp:425] inception_4b/pool <- inception_4a/output_inception_4a/output_0_split_3
I0714 21:03:14.343458 13343 net.cpp:399] inception_4b/pool -> inception_4b/pool
I0714 21:03:14.343746 13343 net.cpp:141] Setting up inception_4b/pool
I0714 21:03:14.343760 13343 net.cpp:148] Top shape: 10 512 14 14 (1003520)
I0714 21:03:14.343765 13343 net.cpp:156] Memory required for data: 402787840
I0714 21:03:14.343770 13343 layer_factory.hpp:77] Creating layer inception_4b/pool_proj
I0714 21:03:14.343791 13343 net.cpp:91] Creating Layer inception_4b/pool_proj
I0714 21:03:14.343799 13343 net.cpp:425] inception_4b/pool_proj <- inception_4b/pool
I0714 21:03:14.343809 13343 net.cpp:399] inception_4b/pool_proj -> inception_4b/pool_proj
I0714 21:03:14.343827 13347 net.cpp:141] Setting up inception_4b/relu_5x5
I0714 21:03:14.343840 13347 net.cpp:148] Top shape: 10 64 14 14 (125440)
I0714 21:03:14.343845 13347 net.cpp:156] Memory required for data: 398773760
I0714 21:03:14.343852 13347 layer_factory.hpp:77] Creating layer inception_4b/pool
I0714 21:03:14.343863 13347 net.cpp:91] Creating Layer inception_4b/pool
I0714 21:03:14.343871 13347 net.cpp:425] inception_4b/pool <- inception_4a/output_inception_4a/output_0_split_3
I0714 21:03:14.343880 13347 net.cpp:399] inception_4b/pool -> inception_4b/pool
I0714 21:03:14.344215 13347 net.cpp:141] Setting up inception_4b/pool
I0714 21:03:14.344228 13347 net.cpp:148] Top shape: 10 512 14 14 (1003520)
I0714 21:03:14.344233 13347 net.cpp:156] Memory required for data: 402787840
I0714 21:03:14.344239 13347 layer_factory.hpp:77] Creating layer inception_4b/pool_proj
I0714 21:03:14.344257 13347 net.cpp:91] Creating Layer inception_4b/pool_proj
I0714 21:03:14.344264 13347 net.cpp:425] inception_4b/pool_proj <- inception_4b/pool
I0714 21:03:14.344281 13347 net.cpp:399] inception_4b/pool_proj -> inception_4b/pool_proj
I0714 21:03:14.348731 13343 net.cpp:141] Setting up inception_4b/pool_proj
I0714 21:03:14.348752 13343 net.cpp:148] Top shape: 10 64 14 14 (125440)
I0714 21:03:14.348758 13343 net.cpp:156] Memory required for data: 403289600
I0714 21:03:14.348769 13343 layer_factory.hpp:77] Creating layer inception_4b/relu_pool_proj
I0714 21:03:14.348785 13343 net.cpp:91] Creating Layer inception_4b/relu_pool_proj
I0714 21:03:14.348793 13343 net.cpp:425] inception_4b/relu_pool_proj <- inception_4b/pool_proj
I0714 21:03:14.348801 13343 net.cpp:386] inception_4b/relu_pool_proj -> inception_4b/pool_proj (in-place)
I0714 21:03:14.349818 13343 net.cpp:141] Setting up inception_4b/relu_pool_proj
I0714 21:03:14.349836 13343 net.cpp:148] Top shape: 10 64 14 14 (125440)
I0714 21:03:14.349843 13343 net.cpp:156] Memory required for data: 403791360
I0714 21:03:14.349848 13343 layer_factory.hpp:77] Creating layer inception_4b/output
I0714 21:03:14.349864 13343 net.cpp:91] Creating Layer inception_4b/output
I0714 21:03:14.349870 13343 net.cpp:425] inception_4b/output <- inception_4b/1x1
I0714 21:03:14.349879 13343 net.cpp:425] inception_4b/output <- inception_4b/3x3
I0714 21:03:14.349885 13343 net.cpp:425] inception_4b/output <- inception_4b/5x5
I0714 21:03:14.349891 13343 net.cpp:425] inception_4b/output <- inception_4b/pool_proj
I0714 21:03:14.349900 13343 net.cpp:399] inception_4b/output -> inception_4b/output
I0714 21:03:14.349915 13347 net.cpp:141] Setting up inception_4b/pool_proj
I0714 21:03:14.349937 13347 net.cpp:148] Top shape: 10 64 14 14 (125440)
I0714 21:03:14.349943 13347 net.cpp:156] Memory required for data: 403289600
I0714 21:03:14.349954 13347 layer_factory.hpp:77] Creating layer inception_4b/relu_pool_proj
I0714 21:03:14.349964 13347 net.cpp:91] Creating Layer inception_4b/relu_pool_proj
I0714 21:03:14.349972 13347 net.cpp:425] inception_4b/relu_pool_proj <- inception_4b/pool_proj
I0714 21:03:14.349982 13347 net.cpp:386] inception_4b/relu_pool_proj -> inception_4b/pool_proj (in-place)
I0714 21:03:14.349997 13343 net.cpp:141] Setting up inception_4b/output
I0714 21:03:14.350009 13343 net.cpp:148] Top shape: 10 512 14 14 (1003520)
I0714 21:03:14.350014 13343 net.cpp:156] Memory required for data: 407805440
I0714 21:03:14.350020 13343 layer_factory.hpp:77] Creating layer inception_4b/output_inception_4b/output_0_split
I0714 21:03:14.350034 13343 net.cpp:91] Creating Layer inception_4b/output_inception_4b/output_0_split
I0714 21:03:14.350041 13343 net.cpp:425] inception_4b/output_inception_4b/output_0_split <- inception_4b/output
I0714 21:03:14.350051 13343 net.cpp:399] inception_4b/output_inception_4b/output_0_split -> inception_4b/output_inception_4b/output_0_split_0
I0714 21:03:14.350062 13343 net.cpp:399] inception_4b/output_inception_4b/output_0_split -> inception_4b/output_inception_4b/output_0_split_1
I0714 21:03:14.350072 13343 net.cpp:399] inception_4b/output_inception_4b/output_0_split -> inception_4b/output_inception_4b/output_0_split_2
I0714 21:03:14.350081 13343 net.cpp:399] inception_4b/output_inception_4b/output_0_split -> inception_4b/output_inception_4b/output_0_split_3
I0714 21:03:14.350993 13347 net.cpp:141] Setting up inception_4b/relu_pool_proj
I0714 21:03:14.351009 13347 net.cpp:148] Top shape: 10 64 14 14 (125440)
I0714 21:03:14.351011 13343 net.cpp:141] Setting up inception_4b/output_inception_4b/output_0_split
I0714 21:03:14.351016 13347 net.cpp:156] Memory required for data: 403791360
I0714 21:03:14.351028 13343 net.cpp:148] Top shape: 10 512 14 14 (1003520)
I0714 21:03:14.351032 13347 layer_factory.hpp:77] Creating layer inception_4b/output
I0714 21:03:14.351037 13343 net.cpp:148] Top shape: 10 512 14 14 (1003520)
I0714 21:03:14.351042 13347 net.cpp:91] Creating Layer inception_4b/output
I0714 21:03:14.351043 13343 net.cpp:148] Top shape: 10 512 14 14 (1003520)
I0714 21:03:14.351053 13347 net.cpp:425] inception_4b/output <- inception_4b/1x1
I0714 21:03:14.351063 13343 net.cpp:148] Top shape: 10 512 14 14 (1003520)
I0714 21:03:14.351068 13347 net.cpp:425] inception_4b/output <- inception_4b/3x3
I0714 21:03:14.351069 13343 net.cpp:156] Memory required for data: 423861760
I0714 21:03:14.351078 13347 net.cpp:425] inception_4b/output <- inception_4b/5x5
I0714 21:03:14.351083 13343 layer_factory.hpp:77] Creating layer inception_4c/1x1
…
I0714 21:03:14.486896 13347 net.cpp:141] Setting up inception_4e/relu_5x5_reduce
I0714 21:03:14.486909 13347 net.cpp:148] Top shape: 10 32 14 14 (62720)
I0714 21:03:14.486914 13347 net.cpp:156] Memory required for data: 506150400
I0714 21:03:14.486920 13347 layer_factory.hpp:77] Creating layer inception_4e/5x5
I0714 21:03:14.486940 13347 net.cpp:91] Creating Layer inception_4e/5x5
I0714 21:03:14.486948 13347 net.cpp:425] inception_4e/5x5 <- inception_4e/5x5_reduce
I0714 21:03:14.486960 13347 net.cpp:399] inception_4e/5x5 -> inception_4e/5x5
I0714 21:03:14.491441 13343 net.cpp:141] Setting up inception_4e/5x5
I0714 21:03:14.491466 13343 net.cpp:148] Top shape: 10 128 14 14 (250880)
I0714 21:03:14.491472 13343 net.cpp:156] Memory required for data: 507153920
I0714 21:03:14.491482 13343 layer_factory.hpp:77] Creating layer inception_4e/relu_5x5
I0714 21:03:14.491492 13343 net.cpp:91] Creating Layer inception_4e/relu_5x5
I0714 21:03:14.491498 13343 net.cpp:425] inception_4e/relu_5x5 <- inception_4e/5x5
I0714 21:03:14.491510 13343 net.cpp:386] inception_4e/relu_5x5 -> inception_4e/5x5 (in-place)
I0714 21:03:14.491817 13343 net.cpp:141] Setting up inception_4e/relu_5x5
I0714 21:03:14.491832 13343 net.cpp:148] Top shape: 10 128 14 14 (250880)
I0714 21:03:14.491837 13343 net.cpp:156] Memory required for data: 508157440
I0714 21:03:14.491843 13343 layer_factory.hpp:77] Creating layer inception_4e/pool
I0714 21:03:14.491853 13343 net.cpp:91] Creating Layer inception_4e/pool
I0714 21:03:14.491859 13343 net.cpp:425] inception_4e/pool <- inception_4d/output_inception_4d/output_0_split_3
I0714 21:03:14.491868 13343 net.cpp:399] inception_4e/pool -> inception_4e/pool
I0714 21:03:14.492143 13343 net.cpp:141] Setting up inception_4e/pool
I0714 21:03:14.492159 13343 net.cpp:148] Top shape: 10 528 14 14 (1034880)
I0714 21:03:14.492164 13343 net.cpp:156] Memory required for data: 512296960
I0714 21:03:14.492169 13343 layer_factory.hpp:77] Creating layer inception_4e/pool_proj
I0714 21:03:14.492189 13343 net.cpp:91] Creating Layer inception_4e/pool_proj
I0714 21:03:14.492197 13343 net.cpp:425] inception_4e/pool_proj <- inception_4e/pool
I0714 21:03:14.492208 13343 net.cpp:399] inception_4e/pool_proj -> inception_4e/pool_proj
I0714 21:03:14.495110 13347 net.cpp:141] Setting up inception_4e/5x5
I0714 21:03:14.495133 13347 net.cpp:148] Top shape: 10 128 14 14 (250880)
I0714 21:03:14.495139 13347 net.cpp:156] Memory required for data: 507153920
I0714 21:03:14.495151 13347 layer_factory.hpp:77] Creating layer inception_4e/relu_5x5
I0714 21:03:14.495165 13347 net.cpp:91] Creating Layer inception_4e/relu_5x5
I0714 21:03:14.495172 13347 net.cpp:425] inception_4e/relu_5x5 <- inception_4e/5x5
I0714 21:03:14.495182 13347 net.cpp:386] inception_4e/relu_5x5 -> inception_4e/5x5 (in-place)
I0714 21:03:14.495584 13347 net.cpp:141] Setting up inception_4e/relu_5x5
I0714 21:03:14.495604 13347 net.cpp:148] Top shape: 10 128 14 14 (250880)
I0714 21:03:14.495609 13347 net.cpp:156] Memory required for data: 508157440
I0714 21:03:14.495615 13347 layer_factory.hpp:77] Creating layer inception_4e/pool
I0714 21:03:14.495626 13347 net.cpp:91] Creating Layer inception_4e/pool
I0714 21:03:14.495633 13347 net.cpp:425] inception_4e/pool <- inception_4d/output_inception_4d/output_0_split_3
I0714 21:03:14.495646 13347 net.cpp:399] inception_4e/pool -> inception_4e/pool
I0714 21:03:14.496522 13347 net.cpp:141] Setting up inception_4e/pool
I0714 21:03:14.496537 13347 net.cpp:148] Top shape: 10 528 14 14 (1034880)
I0714 21:03:14.496542 13347 net.cpp:156] Memory required for data: 512296960
I0714 21:03:14.496548 13347 layer_factory.hpp:77] Creating layer inception_4e/pool_proj
I0714 21:03:14.496577 13347 net.cpp:91] Creating Layer inception_4e/pool_proj
I0714 21:03:14.496583 13347 net.cpp:425] inception_4e/pool_proj <- inception_4e/pool
I0714 21:03:14.496598 13347 net.cpp:399] inception_4e/pool_proj -> inception_4e/pool_proj
I0714 21:03:14.498805 13343 net.cpp:141] Setting up inception_4e/pool_proj
I0714 21:03:14.498831 13343 net.cpp:148] Top shape: 10 128 14 14 (250880)
I0714 21:03:14.498837 13343 net.cpp:156] Memory required for data: 513300480
I0714 21:03:14.498848 13343 layer_factory.hpp:77] Creating layer inception_4e/relu_pool_proj
I0714 21:03:14.498862 13343 net.cpp:91] Creating Layer inception_4e/relu_pool_proj
I0714 21:03:14.498868 13343 net.cpp:425] inception_4e/relu_pool_proj <- inception_4e/pool_proj
I0714 21:03:14.498878 13343 net.cpp:386] inception_4e/relu_pool_proj -> inception_4e/pool_proj (in-place)
I0714 21:03:14.499883 13343 net.cpp:141] Setting up inception_4e/relu_pool_proj
I0714 21:03:14.499900 13343 net.cpp:148] Top shape: 10 128 14 14 (250880)
I0714 21:03:14.499907 13343 net.cpp:156] Memory required for data: 514304000
I0714 21:03:14.499914 13343 layer_factory.hpp:77] Creating layer inception_4e/output
I0714 21:03:14.499927 13343 net.cpp:91] Creating Layer inception_4e/output
I0714 21:03:14.499933 13343 net.cpp:425] inception_4e/output <- inception_4e/1x1
I0714 21:03:14.499940 13343 net.cpp:425] inception_4e/output <- inception_4e/3x3
I0714 21:03:14.499948 13343 net.cpp:425] inception_4e/output <- inception_4e/5x5
I0714 21:03:14.499953 13343 net.cpp:425] inception_4e/output <- inception_4e/pool_proj
I0714 21:03:14.499961 13343 net.cpp:399] inception_4e/output -> inception_4e/output
I0714 21:03:14.500687 13343 net.cpp:141] Setting up inception_4e/output
I0714 21:03:14.500705 13343 net.cpp:148] Top shape: 10 832 14 14 (1630720)
I0714 21:03:14.500710 13343 net.cpp:156] Memory required for data: 520826880
I0714 21:03:14.500716 13343 layer_factory.hpp:77] Creating layer pool4/3x3_s2
I0714 21:03:14.500726 13343 net.cpp:91] Creating Layer pool4/3x3_s2
I0714 21:03:14.500732 13343 net.cpp:425] pool4/3x3_s2 <- inception_4e/output
I0714 21:03:14.500741 13343 net.cpp:399] pool4/3x3_s2 -> pool4/3x3_s2
I0714 21:03:14.501682 13343 net.cpp:141] Setting up pool4/3x3_s2
I0714 21:03:14.501696 13343 net.cpp:148] Top shape: 10 832 7 7 (407680)
I0714 21:03:14.501701 13343 net.cpp:156] Memory required for data: 522457600
I0714 21:03:14.501706 13343 layer_factory.hpp:77] Creating layer pool4/3x3_s2_pool4/3x3_s2_0_split
I0714 21:03:14.501719 13343 net.cpp:91] Creating Layer pool4/3x3_s2_pool4/3x3_s2_0_split
I0714 21:03:14.501725 13343 net.cpp:425] pool4/3x3_s2_pool4/3x3_s2_0_split <- pool4/3x3_s2
I0714 21:03:14.501734 13343 net.cpp:399] pool4/3x3_s2_pool4/3x3_s2_0_split -> pool4/3x3_s2_pool4/3x3_s2_0_split_0
I0714 21:03:14.501744 13343 net.cpp:399] pool4/3x3_s2_pool4/3x3_s2_0_split -> pool4/3x3_s2_pool4/3x3_s2_0_split_1
I0714 21:03:14.501754 13343 net.cpp:399] pool4/3x3_s2_pool4/3x3_s2_0_split -> pool4/3x3_s2_pool4/3x3_s2_0_split_2
I0714 21:03:14.501776 13343 net.cpp:399] pool4/3x3_s2_pool4/3x3_s2_0_split -> pool4/3x3_s2_pool4/3x3_s2_0_split_3
I0714 21:03:14.502344 13343 net.cpp:141] Setting up pool4/3x3_s2_pool4/3x3_s2_0_split
I0714 21:03:14.502360 13343 net.cpp:148] Top shape: 10 832 7 7 (407680)
I0714 21:03:14.502367 13343 net.cpp:148] Top shape: 10 832 7 7 (407680)
I0714 21:03:14.502373 13343 net.cpp:148] Top shape: 10 832 7 7 (407680)
I0714 21:03:14.502379 13343 net.cpp:148] Top shape: 10 832 7 7 (407680)
I0714 21:03:14.502384 13343 net.cpp:156] Memory required for data: 528980480
I0714 21:03:14.502389 13343 layer_factory.hpp:77] Creating layer inception_5a/1x1
I0714 21:03:14.502409 13343 net.cpp:91] Creating Layer inception_5a/1x1
I0714 21:03:14.502416 13343 net.cpp:425] inception_5a/1x1 <- pool4/3x3_s2_pool4/3x3_s2_0_split_0
I0714 21:03:14.502427 13343 net.cpp:399] inception_5a/1x1 -> inception_5a/1x1
I0714 21:03:14.503130 13347 net.cpp:141] Setting up inception_4e/pool_proj
I0714 21:03:14.503156 13347 net.cpp:148] Top shape: 10 128 14 14 (250880)
I0714 21:03:14.503162 13347 net.cpp:156] Memory required for data: 513300480
I0714 21:03:14.503173 13347 layer_factory.hpp:77] Creating layer inception_4e/relu_pool_proj
I0714 21:03:14.503185 13347 net.cpp:91] Creating Layer inception_4e/relu_pool_proj
I0714 21:03:14.503191 13347 net.cpp:425] inception_4e/relu_pool_proj <- inception_4e/pool_proj
I0714 21:03:14.503199 13347 net.cpp:386] inception_4e/relu_pool_proj -> inception_4e/pool_proj (in-place)
I0714 21:03:14.504259 13347 net.cpp:141] Setting up inception_4e/relu_pool_proj
I0714 21:03:14.504277 13347 net.cpp:148] Top shape: 10 128 14 14 (250880)
I0714 21:03:14.504282 13347 net.cpp:156] Memory required for data: 514304000
I0714 21:03:14.504289 13347 layer_factory.hpp:77] Creating layer inception_4e/output
I0714 21:03:14.504300 13347 net.cpp:91] Creating Layer inception_4e/output
I0714 21:03:14.504307 13347 net.cpp:425] inception_4e/output <- inception_4e/1x1
I0714 21:03:14.504314 13347 net.cpp:425] inception_4e/output <- inception_4e/3x3
I0714 21:03:14.504320 13347 net.cpp:425] inception_4e/output <- inception_4e/5x5
I0714 21:03:14.504328 13347 net.cpp:425] inception_4e/output <- inception_4e/pool_proj
I0714 21:03:14.504334 13347 net.cpp:399] inception_4e/output -> inception_4e/output
I0714 21:03:14.505435 13347 net.cpp:141] Setting up inception_4e/output
I0714 21:03:14.505450 13347 net.cpp:148] Top shape: 10 832 14 14 (1630720)
I0714 21:03:14.505455 13347 net.cpp:156] Memory required for data: 520826880
I0714 21:03:14.505461 13347 layer_factory.hpp:77] Creating layer pool4/3x3_s2
I0714 21:03:14.505471 13347 net.cpp:91] Creating Layer pool4/3x3_s2
I0714 21:03:14.505478 13347 net.cpp:425] pool4/3x3_s2 <- inception_4e/output
I0714 21:03:14.505491 13347 net.cpp:399] pool4/3x3_s2 -> pool4/3x3_s2
I0714 21:03:14.506182 13347 net.cpp:141] Setting up pool4/3x3_s2
I0714 21:03:14.506197 13347 net.cpp:148] Top shape: 10 832 7 7 (407680)
I0714 21:03:14.506202 13347 net.cpp:156] Memory required for data: 522457600
I0714 21:03:14.506208 13347 layer_factory.hpp:77] Creating layer pool4/3x3_s2_pool4/3x3_s2_0_split
I0714 21:03:14.506218 13347 net.cpp:91] Creating Layer pool4/3x3_s2_pool4/3x3_s2_0_split
I0714 21:03:14.506224 13347 net.cpp:425] pool4/3x3_s2_pool4/3x3_s2_0_split <- pool4/3x3_s2
I0714 21:03:14.506237 13347 net.cpp:399] pool4/3x3_s2_pool4/3x3_s2_0_split -> pool4/3x3_s2_pool4/3x3_s2_0_split_0
I0714 21:03:14.506247 13347 net.cpp:399] pool4/3x3_s2_pool4/3x3_s2_0_split -> pool4/3x3_s2_pool4/3x3_s2_0_split_1
I0714 21:03:14.506258 13347 net.cpp:399] pool4/3x3_s2_pool4/3x3_s2_0_split -> pool4/3x3_s2_pool4/3x3_s2_0_split_2
I0714 21:03:14.506266 13347 net.cpp:399] pool4/3x3_s2_pool4/3x3_s2_0_split -> pool4/3x3_s2_pool4/3x3_s2_0_split_3
I0714 21:03:14.506489 13347 net.cpp:141] Setting up pool4/3x3_s2_pool4/3x3_s2_0_split
I0714 21:03:14.506501 13347 net.cpp:148] Top shape: 10 832 7 7 (407680)
I0714 21:03:14.506508 13347 net.cpp:148] Top shape: 10 832 7 7 (407680)
I0714 21:03:14.506515 13347 net.cpp:148] Top shape: 10 832 7 7 (407680)
I0714 21:03:14.506520 13347 net.cpp:148] Top shape: 10 832 7 7 (407680)
I0714 21:03:14.506525 13347 net.cpp:156] Memory required for data: 528980480
I0714 21:03:14.506531 13347 layer_factory.hpp:77] Creating layer inception_5a/1x1
I0714 21:03:14.506546 13347 net.cpp:91] Creating Layer inception_5a/1x1
I0714 21:03:14.506552 13347 net.cpp:425] inception_5a/1x1 <- pool4/3x3_s2_pool4/3x3_s2_0_split_0
I0714 21:03:14.506567 13347 net.cpp:399] inception_5a/1x1 -> inception_5a/1x1
I0714 21:03:14.513703 13343 net.cpp:141] Setting up inception_5a/1x1
I0714 21:03:14.513731 13343 net.cpp:148] Top shape: 10 256 7 7 (125440)
I0714 21:03:14.513736 13343 net.cpp:156] Memory required for data: 529482240
I0714 21:03:14.513747 13343 layer_factory.hpp:77] Creating layer inception_5a/relu_1x1
I0714 21:03:14.513758 13343 net.cpp:91] Creating Layer inception_5a/relu_1x1
I0714 21:03:14.513764 13343 net.cpp:425] inception_5a/relu_1x1 <- inception_5a/1x1
I0714 21:03:14.513779 13343 net.cpp:386] inception_5a/relu_1x1 -> inception_5a/1x1 (in-place)
I0714 21:03:14.514304 13343 net.cpp:141] Setting up inception_5a/relu_1x1
I0714 21:03:14.514323 13343 net.cpp:148] Top shape: 10 256 7 7 (125440)
I0714 21:03:14.514328 13343 net.cpp:156] Memory required for data: 529984000
I0714 21:03:14.514335 13343 layer_factory.hpp:77] Creating layer inception_5a/3x3_reduce
I0714 21:03:14.514354 13343 net.cpp:91] Creating Layer inception_5a/3x3_reduce
I0714 21:03:14.514361 13343 net.cpp:425] inception_5a/3x3_reduce <- pool4/3x3_s2_pool4/3x3_s2_0_split_1
I0714 21:03:14.514374 13343 net.cpp:399] inception_5a/3x3_reduce -> inception_5a/3x3_reduce
I0714 21:03:14.514592 13347 net.cpp:141] Setting up inception_5a/1x1
I0714 21:03:14.514613 13347 net.cpp:148] Top shape: 10 256 7 7 (125440)
I0714 21:03:14.514619 13347 net.cpp:156] Memory required for data: 529482240
I0714 21:03:14.514631 13347 layer_factory.hpp:77] Creating layer inception_5a/relu_1x1
I0714 21:03:14.514647 13347 net.cpp:91] Creating Layer inception_5a/relu_1x1
I0714 21:03:14.514654 13347 net.cpp:425] inception_5a/relu_1x1 <- inception_5a/1x1
I0714 21:03:14.514663 13347 net.cpp:386] inception_5a/relu_1x1 -> inception_5a/1x1 (in-place)
I0714 21:03:14.515182 13347 net.cpp:141] Setting up inception_5a/relu_1x1
I0714 21:03:14.515202 13347 net.cpp:148] Top shape: 10 256 7 7 (125440)
I0714 21:03:14.515207 13347 net.cpp:156] Memory required for data: 529984000
I0714 21:03:14.515213 13347 layer_factory.hpp:77] Creating layer inception_5a/3x3_reduce
I0714 21:03:14.515233 13347 net.cpp:91] Creating Layer inception_5a/3x3_reduce
I0714 21:03:14.515241 13347 net.cpp:425] inception_5a/3x3_reduce <- pool4/3x3_s2_pool4/3x3_s2_0_split_1
I0714 21:03:14.515254 13347 net.cpp:399] inception_5a/3x3_reduce -> inception_5a/3x3_reduce
I0714 21:03:14.523001 13343 net.cpp:141] Setting up inception_5a/3x3_reduce
I0714 21:03:14.523025 13343 net.cpp:148] Top shape: 10 160 7 7 (78400)
I0714 21:03:14.523031 13343 net.cpp:156] Memory required for data: 530297600
I0714 21:03:14.523042 13343 layer_factory.hpp:77] Creating layer inception_5a/relu_3x3_reduce
I0714 21:03:14.523052 13343 net.cpp:91] Creating Layer inception_5a/relu_3x3_reduce
I0714 21:03:14.523059 13343 net.cpp:425] inception_5a/relu_3x3_reduce <- inception_5a/3x3_reduce
I0714 21:03:14.523071 13343 net.cpp:386] inception_5a/relu_3x3_reduce -> inception_5a/3x3_reduce (in-place)
I0714 21:03:14.523392 13343 net.cpp:141] Setting up inception_5a/relu_3x3_reduce
I0714 21:03:14.523406 13343 net.cpp:148] Top shape: 10 160 7 7 (78400)
I0714 21:03:14.523411 13343 net.cpp:156] Memory required for data: 530611200
I0714 21:03:14.523416 13343 layer_factory.hpp:77] Creating layer inception_5a/3x3
I0714 21:03:14.523437 13343 net.cpp:91] Creating Layer inception_5a/3x3
I0714 21:03:14.523445 13343 net.cpp:425] inception_5a/3x3 <- inception_5a/3x3_reduce
I0714 21:03:14.523455 13343 net.cpp:399] inception_5a/3x3 -> inception_5a/3x3
I0714 21:03:14.525032 13347 net.cpp:141] Setting up inception_5a/3x3_reduce
I0714 21:03:14.525054 13347 net.cpp:148] Top shape: 10 160 7 7 (78400)
I0714 21:03:14.525060 13347 net.cpp:156] Memory required for data: 530297600
I0714 21:03:14.525071 13347 layer_factory.hpp:77] Creating layer inception_5a/relu_3x3_reduce
I0714 21:03:14.525084 13347 net.cpp:91] Creating Layer inception_5a/relu_3x3_reduce
I0714 21:03:14.525092 13347 net.cpp:425] inception_5a/relu_3x3_reduce <- inception_5a/3x3_reduce
I0714 21:03:14.525101 13347 net.cpp:386] inception_5a/relu_3x3_reduce -> inception_5a/3x3_reduce (in-place)
I0714 21:03:14.525854 13347 net.cpp:141] Setting up inception_5a/relu_3x3_reduce
I0714 21:03:14.525873 13347 net.cpp:148] Top shape: 10 160 7 7 (78400)
I0714 21:03:14.525879 13347 net.cpp:156] Memory required for data: 530611200
I0714 21:03:14.525885 13347 layer_factory.hpp:77] Creating layer inception_5a/3x3
I0714 21:03:14.525904 13347 net.cpp:91] Creating Layer inception_5a/3x3
I0714 21:03:14.525912 13347 net.cpp:425] inception_5a/3x3 <- inception_5a/3x3_reduce
I0714 21:03:14.525921 13347 net.cpp:399] inception_5a/3x3 -> inception_5a/3x3
I0714 21:03:14.537467 13343 net.cpp:141] Setting up inception_5a/3x3
I0714 21:03:14.537494 13343 net.cpp:148] Top shape: 10 320 7 7 (156800)
I0714 21:03:14.537502 13343 net.cpp:156] Memory required for data: 531238400
I0714 21:03:14.537513 13343 layer_factory.hpp:77] Creating layer inception_5a/relu_3x3
I0714 21:03:14.537523 13343 net.cpp:91] Creating Layer inception_5a/relu_3x3
I0714 21:03:14.537529 13343 net.cpp:425] inception_5a/relu_3x3 <- inception_5a/3x3
I0714 21:03:14.537539 13343 net.cpp:386] inception_5a/relu_3x3 -> inception_5a/3x3 (in-place)
I0714 21:03:14.538645 13343 net.cpp:141] Setting up inception_5a/relu_3x3
I0714 21:03:14.538662 13343 net.cpp:148] Top shape: 10 320 7 7 (156800)
I0714 21:03:14.538668 13343 net.cpp:156] Memory required for data: 531865600
I0714 21:03:14.538674 13343 layer_factory.hpp:77] Creating layer inception_5a/5x5_reduce
I0714 21:03:14.538707 13343 net.cpp:91] Creating Layer inception_5a/5x5_reduce
I0714 21:03:14.538715 13343 net.cpp:425] inception_5a/5x5_reduce <- pool4/3x3_s2_pool4/3x3_s2_0_split_2
I0714 21:03:14.538730 13343 net.cpp:399] inception_5a/5x5_reduce -> inception_5a/5x5_reduce
I0714 21:03:14.539320 13347 net.cpp:141] Setting up inception_5a/3x3
I0714 21:03:14.539345 13347 net.cpp:148] Top shape: 10 320 7 7 (156800)
I0714 21:03:14.539350 13347 net.cpp:156] Memory required for data: 531238400
I0714 21:03:14.539361 13347 layer_factory.hpp:77] Creating layer inception_5a/relu_3x3
I0714 21:03:14.539372 13347 net.cpp:91] Creating Layer inception_5a/relu_3x3
I0714 21:03:14.539379 13347 net.cpp:425] inception_5a/relu_3x3 <- inception_5a/3x3
I0714 21:03:14.539392 13347 net.cpp:386] inception_5a/relu_3x3 -> inception_5a/3x3 (in-place)
I0714 21:03:14.540489 13347 net.cpp:141] Setting up inception_5a/relu_3x3
I0714 21:03:14.540508 13347 net.cpp:148] Top shape: 10 320 7 7 (156800)
I0714 21:03:14.540513 13347 net.cpp:156] Memory required for data: 531865600
I0714 21:03:14.540519 13347 layer_factory.hpp:77] Creating layer inception_5a/5x5_reduce
I0714 21:03:14.540539 13347 net.cpp:91] Creating Layer inception_5a/5x5_reduce
I0714 21:03:14.540547 13347 net.cpp:425] inception_5a/5x5_reduce <- pool4/3x3_s2_pool4/3x3_s2_0_split_2
I0714 21:03:14.540561 13347 net.cpp:399] inception_5a/5x5_reduce -> inception_5a/5x5_reduce
I0714 21:03:14.545872 13343 net.cpp:141] Setting up inception_5a/5x5_reduce
I0714 21:03:14.545895 13343 net.cpp:148] Top shape: 10 32 7 7 (15680)
I0714 21:03:14.545904 13343 net.cpp:156] Memory required for data: 531928320
I0714 21:03:14.545914 13343 layer_factory.hpp:77] Creating layer inception_5a/relu_5x5_reduce
I0714 21:03:14.545924 13343 net.cpp:91] Creating Layer inception_5a/relu_5x5_reduce
I0714 21:03:14.545931 13343 net.cpp:425] inception_5a/relu_5x5_reduce <- inception_5a/5x5_reduce
I0714 21:03:14.545940 13343 net.cpp:386] inception_5a/relu_5x5_reduce -> inception_5a/5x5_reduce (in-place)
I0714 21:03:14.546465 13343 net.cpp:141] Setting up inception_5a/relu_5x5_reduce
I0714 21:03:14.546481 13343 net.cpp:148] Top shape: 10 32 7 7 (15680)
I0714 21:03:14.546488 13343 net.cpp:156] Memory required for data: 531991040
I0714 21:03:14.546494 13343 layer_factory.hpp:77] Creating layer inception_5a/5x5
I0714 21:03:14.546510 13343 net.cpp:91] Creating Layer inception_5a/5x5
I0714 21:03:14.546517 13343 net.cpp:425] inception_5a/5x5 <- inception_5a/5x5_reduce
I0714 21:03:14.546532 13343 net.cpp:399] inception_5a/5x5 -> inception_5a/5x5
I0714 21:03:14.546612 13347 net.cpp:141] Setting up inception_5a/5x5_reduce
I0714 21:03:14.546634 13347 net.cpp:148] Top shape: 10 32 7 7 (15680)
I0714 21:03:14.546639 13347 net.cpp:156] Memory required for data: 531928320
I0714 21:03:14.546650 13347 layer_factory.hpp:77] Creating layer inception_5a/relu_5x5_reduce
I0714 21:03:14.546661 13347 net.cpp:91] Creating Layer inception_5a/relu_5x5_reduce
I0714 21:03:14.546669 13347 net.cpp:425] inception_5a/relu_5x5_reduce <- inception_5a/5x5_reduce
I0714 21:03:14.546682 13347 net.cpp:386] inception_5a/relu_5x5_reduce -> inception_5a/5x5_reduce (in-place)
I0714 21:03:14.547217 13347 net.cpp:141] Setting up inception_5a/relu_5x5_reduce
I0714 21:03:14.547236 13347 net.cpp:148] Top shape: 10 32 7 7 (15680)
I0714 21:03:14.547241 13347 net.cpp:156] Memory required for data: 531991040
I0714 21:03:14.547247 13347 layer_factory.hpp:77] Creating layer inception_5a/5x5
I0714 21:03:14.547266 13347 net.cpp:91] Creating Layer inception_5a/5x5
I0714 21:03:14.547274 13347 net.cpp:425] inception_5a/5x5 <- inception_5a/5x5_reduce
I0714 21:03:14.547291 13347 net.cpp:399] inception_5a/5x5 -> inception_5a/5x5
I0714 21:03:14.552685 13343 net.cpp:141] Setting up inception_5a/5x5
I0714 21:03:14.552716 13343 net.cpp:148] Top shape: 10 128 7 7 (62720)
I0714 21:03:14.552722 13343 net.cpp:156] Memory required for data: 532241920
I0714 21:03:14.552733 13343 layer_factory.hpp:77] Creating layer inception_5a/relu_5x5
I0714 21:03:14.552772 13343 net.cpp:91] Creating Layer inception_5a/relu_5x5
I0714 21:03:14.552779 13343 net.cpp:425] inception_5a/relu_5x5 <- inception_5a/5x5
I0714 21:03:14.552789 13343 net.cpp:386] inception_5a/relu_5x5 -> inception_5a/5x5 (in-place)
I0714 21:03:14.553156 13347 net.cpp:141] Setting up inception_5a/5x5
I0714 21:03:14.553176 13347 net.cpp:148] Top shape: 10 128 7 7 (62720)
I0714 21:03:14.553182 13347 net.cpp:156] Memory required for data: 532241920
I0714 21:03:14.553195 13347 layer_factory.hpp:77] Creating layer inception_5a/relu_5x5
I0714 21:03:14.553228 13343 net.cpp:141] Setting up inception_5a/relu_5x5
I0714 21:03:14.553237 13347 net.cpp:91] Creating Layer inception_5a/relu_5x5
I0714 21:03:14.553243 13343 net.cpp:148] Top shape: 10 128 7 7 (62720)
I0714 21:03:14.553247 13347 net.cpp:425] inception_5a/relu_5x5 <- inception_5a/5x5
I0714 21:03:14.553248 13343 net.cpp:156] Memory required for data: 532492800
I0714 21:03:14.553257 13343 layer_factory.hpp:77] Creating layer inception_5a/pool
I0714 21:03:14.553261 13347 net.cpp:386] inception_5a/relu_5x5 -> inception_5a/5x5 (in-place)
I0714 21:03:14.553268 13343 net.cpp:91] Creating Layer inception_5a/pool
I0714 21:03:14.553275 13343 net.cpp:425] inception_5a/pool <- pool4/3x3_s2_pool4/3x3_s2_0_split_3
I0714 21:03:14.553288 13343 net.cpp:399] inception_5a/pool -> inception_5a/pool
I0714 21:03:14.553618 13343 net.cpp:141] Setting up inception_5a/pool
I0714 21:03:14.553632 13343 net.cpp:148] Top shape: 10 832 7 7 (407680)
I0714 21:03:14.553637 13343 net.cpp:156] Memory required for data: 534123520
I0714 21:03:14.553642 13343 layer_factory.hpp:77] Creating layer inception_5a/pool_proj
I0714 21:03:14.553660 13343 net.cpp:91] Creating Layer inception_5a/pool_proj
I0714 21:03:14.553668 13343 net.cpp:425] inception_5a/pool_proj <- inception_5a/pool
I0714 21:03:14.553678 13343 net.cpp:399] inception_5a/pool_proj -> inception_5a/pool_proj
I0714 21:03:14.553709 13347 net.cpp:141] Setting up inception_5a/relu_5x5
I0714 21:03:14.553725 13347 net.cpp:148] Top shape: 10 128 7 7 (62720)
I0714 21:03:14.553730 13347 net.cpp:156] Memory required for data: 532492800
I0714 21:03:14.553737 13347 layer_factory.hpp:77] Creating layer inception_5a/pool
I0714 21:03:14.553750 13347 net.cpp:91] Creating Layer inception_5a/pool
I0714 21:03:14.553758 13347 net.cpp:425] inception_5a/pool <- pool4/3x3_s2_pool4/3x3_s2_0_split_3
I0714 21:03:14.553767 13347 net.cpp:399] inception_5a/pool -> inception_5a/pool
I0714 21:03:14.554101 13347 net.cpp:141] Setting up inception_5a/pool
I0714 21:03:14.554114 13347 net.cpp:148] Top shape: 10 832 7 7 (407680)
I0714 21:03:14.554119 13347 net.cpp:156] Memory required for data: 534123520
I0714 21:03:14.554126 13347 layer_factory.hpp:77] Creating layer inception_5a/pool_proj
I0714 21:03:14.554143 13347 net.cpp:91] Creating Layer inception_5a/pool_proj
I0714 21:03:14.554150 13347 net.cpp:425] inception_5a/pool_proj <- inception_5a/pool
I0714 21:03:14.554164 13347 net.cpp:399] inception_5a/pool_proj -> inception_5a/pool_proj
I0714 21:03:14.562485 13343 net.cpp:141] Setting up inception_5a/pool_proj
I0714 21:03:14.562511 13343 net.cpp:148] Top shape: 10 128 7 7 (62720)
I0714 21:03:14.562518 13343 net.cpp:156] Memory required for data: 534374400
I0714 21:03:14.562530 13343 layer_factory.hpp:77] Creating layer inception_5a/relu_pool_proj
I0714 21:03:14.562541 13343 net.cpp:91] Creating Layer inception_5a/relu_pool_proj
I0714 21:03:14.562548 13343 net.cpp:425] inception_5a/relu_pool_proj <- inception_5a/pool_proj
I0714 21:03:14.562562 13343 net.cpp:386] inception_5a/relu_pool_proj -> inception_5a/pool_proj (in-place)
I0714 21:03:14.563657 13343 net.cpp:141] Setting up inception_5a/relu_pool_proj
I0714 21:03:14.563674 13343 net.cpp:148] Top shape: 10 128 7 7 (62720)
I0714 21:03:14.563680 13343 net.cpp:156] Memory required for data: 534625280
I0714 21:03:14.563686 13343 layer_factory.hpp:77] Creating layer inception_5a/output
I0714 21:03:14.563700 13343 net.cpp:91] Creating Layer inception_5a/output
I0714 21:03:14.563709 13343 net.cpp:425] inception_5a/output <- inception_5a/1x1
I0714 21:03:14.563716 13343 net.cpp:425] inception_5a/output <- inception_5a/3x3
I0714 21:03:14.563722 13343 net.cpp:425] inception_5a/output <- inception_5a/5x5
I0714 21:03:14.563730 13343 net.cpp:425] inception_5a/output <- inception_5a/pool_proj
I0714 21:03:14.563737 13343 net.cpp:399] inception_5a/output -> inception_5a/output
I0714 21:03:14.563803 13347 net.cpp:141] Setting up inception_5a/pool_proj
I0714 21:03:14.563822 13347 net.cpp:148] Top shape: 10 128 7 7 (62720)
I0714 21:03:14.563827 13347 net.cpp:156] Memory required for data: 534374400
I0714 21:03:14.563837 13343 net.cpp:141] Setting up inception_5a/output
I0714 21:03:14.563838 13347 layer_factory.hpp:77] Creating layer inception_5a/relu_pool_proj
I0714 21:03:14.563853 13343 net.cpp:148] Top shape: 10 832 7 7 (407680)
I0714 21:03:14.563858 13343 net.cpp:156] Memory required for data: 536256000
I0714 21:03:14.563863 13347 net.cpp:91] Creating Layer inception_5a/relu_pool_proj
I0714 21:03:14.563863 13343 layer_factory.hpp:77] Creating layer inception_5a/output_inception_5a/output_0_split
I0714 21:03:14.563875 13347 net.cpp:425] inception_5a/relu_pool_proj <- inception_5a/pool_proj
I0714 21:03:14.563885 13347 net.cpp:386] inception_5a/relu_pool_proj -> inception_5a/pool_proj (in-place)
I0714 21:03:14.563887 13343 net.cpp:91] Creating Layer inception_5a/output_inception_5a/output_0_split
I0714 21:03:14.563894 13343 net.cpp:425] inception_5a/output_inception_5a/output_0_split <- inception_5a/output
I0714 21:03:14.563904 13343 net.cpp:399] inception_5a/output_inception_5a/output_0_split -> inception_5a/output_inception_5a/output_0_split_0
I0714 21:03:14.563916 13343 net.cpp:399] inception_5a/output_inception_5a/output_0_split -> inception_5a/output_inception_5a/output_0_split_1
I0714 21:03:14.563926 13343 net.cpp:399] inception_5a/output_inception_5a/output_0_split -> inception_5a/output_inception_5a/output_0_split_2
I0714 21:03:14.563936 13343 net.cpp:399] inception_5a/output_inception_5a/output_0_split -> inception_5a/output_inception_5a/output_0_split_3
I0714 21:03:14.564944 13343 net.cpp:141] Setting up inception_5a/output_inception_5a/output_0_split
I0714 21:03:14.564960 13343 net.cpp:148] Top shape: 10 832 7 7 (407680)
I0714 21:03:14.564966 13343 net.cpp:148] Top shape: 10 832 7 7 (407680)
I0714 21:03:14.564972 13343 net.cpp:148] Top shape: 10 832 7 7 (407680)
I0714 21:03:14.564978 13343 net.cpp:148] Top shape: 10 832 7 7 (407680)
I0714 21:03:14.564975 13347 net.cpp:141] Setting up inception_5a/relu_pool_proj
I0714 21:03:14.564986 13343 net.cpp:156] Memory required for data: 542778880
I0714 21:03:14.564999 13343 layer_factory.hpp:77] Creating layer inception_5b/1x1
I0714 21:03:14.564999 13347 net.cpp:148] Top shape: 10 128 7 7 (62720)
I0714 21:03:14.565011 13347 net.cpp:156] Memory required for data: 534625280
I0714 21:03:14.565018 13347 layer_factory.hpp:77] Creating layer inception_5a/output
I0714 21:03:14.565026 13343 net.cpp:91] Creating Layer inception_5b/1x1
I0714 21:03:14.565032 13347 net.cpp:91] Creating Layer inception_5a/output
I0714 21:03:14.565033 13343 net.cpp:425] inception_5b/1x1 <- inception_5a/output_inception_5a/output_0_split_0
I0714 21:03:14.565043 13347 net.cpp:425] inception_5a/output <- inception_5a/1x1
I0714 21:03:14.565052 13347 net.cpp:425] inception_5a/output <- inception_5a/3x3
I0714 21:03:14.565054 13343 net.cpp:399] inception_5b/1x1 -> inception_5b/1x1
I0714 21:03:14.565059 13347 net.cpp:425] inception_5a/output <- inception_5a/5x5
I0714 21:03:14.565066 13347 net.cpp:425] inception_5a/output <- inception_5a/pool_proj
I0714 21:03:14.565076 13347 net.cpp:399] inception_5a/output -> inception_5a/output
I0714 21:03:14.565222 13347 net.cpp:141] Setting up inception_5a/output
I0714 21:03:14.565234 13347 net.cpp:148] Top shape: 10 832 7 7 (407680)
I0714 21:03:14.565239 13347 net.cpp:156] Memory required for data: 536256000
I0714 21:03:14.565244 13347 layer_factory.hpp:77] Creating layer inception_5a/output_inception_5a/output_0_split
I0714 21:03:14.565254 13347 net.cpp:91] Creating Layer inception_5a/output_inception_5a/output_0_split
I0714 21:03:14.565260 13347 net.cpp:425] inception_5a/output_inception_5a/output_0_split <- inception_5a/output
I0714 21:03:14.565270 13347 net.cpp:399] inception_5a/output_inception_5a/output_0_split -> inception_5a/output_inception_5a/output_0_split_0
I0714 21:03:14.565282 13347 net.cpp:399] inception_5a/output_inception_5a/output_0_split -> inception_5a/output_inception_5a/output_0_split_1
I0714 21:03:14.565292 13347 net.cpp:399] inception_5a/output_inception_5a/output_0_split -> inception_5a/output_inception_5a/output_0_split_2
I0714 21:03:14.565301 13347 net.cpp:399] inception_5a/output_inception_5a/output_0_split -> inception_5a/output_inception_5a/output_0_split_3
I0714 21:03:14.565759 13347 net.cpp:141] Setting up inception_5a/output_inception_5a/output_0_split
I0714 21:03:14.565771 13347 net.cpp:148] Top shape: 10 832 7 7 (407680)
I0714 21:03:14.565778 13347 net.cpp:148] Top shape: 10 832 7 7 (407680)
I0714 21:03:14.565784 13347 net.cpp:148] Top shape: 10 832 7 7 (407680)
I0714 21:03:14.565790 13347 net.cpp:148] Top shape: 10 832 7 7 (407680)
I0714 21:03:14.565795 13347 net.cpp:156] Memory required for data: 542778880
I0714 21:03:14.565800 13347 layer_factory.hpp:77] Creating layer inception_5b/1x1
I0714 21:03:14.565819 13347 net.cpp:91] Creating Layer inception_5b/1x1
I0714 21:03:14.565827 13347 net.cpp:425] inception_5b/1x1 <- inception_5a/output_inception_5a/output_0_split_0
I0714 21:03:14.565840 13347 net.cpp:399] inception_5b/1x1 -> inception_5b/1x1
I0714 21:03:14.573781 13343 net.cpp:141] Setting up inception_5b/1x1
I0714 21:03:14.573808 13343 net.cpp:148] Top shape: 10 384 7 7 (188160)
I0714 21:03:14.573815 13343 net.cpp:156] Memory required for data: 543531520
I0714 21:03:14.573827 13343 layer_factory.hpp:77] Creating layer inception_5b/relu_1x1
I0714 21:03:14.573840 13343 net.cpp:91] Creating Layer inception_5b/relu_1x1
I0714 21:03:14.573848 13343 net.cpp:425] inception_5b/relu_1x1 <- inception_5b/1x1
I0714 21:03:14.573856 13343 net.cpp:386] inception_5b/relu_1x1 -> inception_5b/1x1 (in-place)
I0714 21:03:14.574177 13343 net.cpp:141] Setting up inception_5b/relu_1x1
I0714 21:03:14.574189 13343 net.cpp:148] Top shape: 10 384 7 7 (188160)
I0714 21:03:14.574194 13343 net.cpp:156] Memory required for data: 544284160
I0714 21:03:14.574200 13343 layer_factory.hpp:77] Creating layer inception_5b/3x3_reduce
I0714 21:03:14.574221 13343 net.cpp:91] Creating Layer inception_5b/3x3_reduce
I0714 21:03:14.574229 13343 net.cpp:425] inception_5b/3x3_reduce <- inception_5a/output_inception_5a/output_0_split_1
I0714 21:03:14.574240 13343 net.cpp:399] inception_5b/3x3_reduce -> inception_5b/3x3_reduce
I0714 21:03:14.578218 13347 net.cpp:141] Setting up inception_5b/1x1
I0714 21:03:14.578245 13347 net.cpp:148] Top shape: 10 384 7 7 (188160)
I0714 21:03:14.578253 13347 net.cpp:156] Memory required for data: 543531520
I0714 21:03:14.578265 13347 layer_factory.hpp:77] Creating layer inception_5b/relu_1x1
I0714 21:03:14.578275 13347 net.cpp:91] Creating Layer inception_5b/relu_1x1
I0714 21:03:14.578282 13347 net.cpp:425] inception_5b/relu_1x1 <- inception_5b/1x1
I0714 21:03:14.578292 13347 net.cpp:386] inception_5b/relu_1x1 -> inception_5b/1x1 (in-place)
I0714 21:03:14.578614 13347 net.cpp:141] Setting up inception_5b/relu_1x1
I0714 21:03:14.578626 13347 net.cpp:148] Top shape: 10 384 7 7 (188160)
I0714 21:03:14.578632 13347 net.cpp:156] Memory required for data: 544284160
I0714 21:03:14.578637 13347 layer_factory.hpp:77] Creating layer inception_5b/3x3_reduce
I0714 21:03:14.578655 13347 net.cpp:91] Creating Layer inception_5b/3x3_reduce
I0714 21:03:14.578662 13347 net.cpp:425] inception_5b/3x3_reduce <- inception_5a/output_inception_5a/output_0_split_1
I0714 21:03:14.578676 13347 net.cpp:399] inception_5b/3x3_reduce -> inception_5b/3x3_reduce
I0714 21:03:14.584753 13343 net.cpp:141] Setting up inception_5b/3x3_reduce
I0714 21:03:14.584776 13343 net.cpp:148] Top shape: 10 192 7 7 (94080)
I0714 21:03:14.584782 13343 net.cpp:156] Memory required for data: 544660480
I0714 21:03:14.584794 13343 layer_factory.hpp:77] Creating layer inception_5b/relu_3x3_reduce
I0714 21:03:14.584807 13343 net.cpp:91] Creating Layer inception_5b/relu_3x3_reduce
I0714 21:03:14.584815 13343 net.cpp:425] inception_5b/relu_3x3_reduce <- inception_5b/3x3_reduce
I0714 21:03:14.584825 13343 net.cpp:386] inception_5b/relu_3x3_reduce -> inception_5b/3x3_reduce (in-place)
I0714 21:03:14.585150 13343 net.cpp:141] Setting up inception_5b/relu_3x3_reduce
I0714 21:03:14.585162 13343 net.cpp:148] Top shape: 10 192 7 7 (94080)
I0714 21:03:14.585167 13343 net.cpp:156] Memory required for data: 545036800
I0714 21:03:14.585173 13343 layer_factory.hpp:77] Creating layer inception_5b/3x3
I0714 21:03:14.585192 13343 net.cpp:91] Creating Layer inception_5b/3x3
I0714 21:03:14.585199 13343 net.cpp:425] inception_5b/3x3 <- inception_5b/3x3_reduce
I0714 21:03:14.585212 13343 net.cpp:399] inception_5b/3x3 -> inception_5b/3x3
I0714 21:03:14.589154 13347 net.cpp:141] Setting up inception_5b/3x3_reduce
I0714 21:03:14.589179 13347 net.cpp:148] Top shape: 10 192 7 7 (94080)
I0714 21:03:14.589184 13347 net.cpp:156] Memory required for data: 544660480
I0714 21:03:14.589196 13347 layer_factory.hpp:77] Creating layer inception_5b/relu_3x3_reduce
I0714 21:03:14.589207 13347 net.cpp:91] Creating Layer inception_5b/relu_3x3_reduce
I0714 21:03:14.589215 13347 net.cpp:425] inception_5b/relu_3x3_reduce <- inception_5b/3x3_reduce
I0714 21:03:14.589226 13347 net.cpp:386] inception_5b/relu_3x3_reduce -> inception_5b/3x3_reduce (in-place)
I0714 21:03:14.589563 13347 net.cpp:141] Setting up inception_5b/relu_3x3_reduce
I0714 21:03:14.589576 13347 net.cpp:148] Top shape: 10 192 7 7 (94080)
I0714 21:03:14.589582 13347 net.cpp:156] Memory required for data: 545036800
I0714 21:03:14.589587 13347 layer_factory.hpp:77] Creating layer inception_5b/3x3
I0714 21:03:14.589609 13347 net.cpp:91] Creating Layer inception_5b/3x3
I0714 21:03:14.589617 13347 net.cpp:425] inception_5b/3x3 <- inception_5b/3x3_reduce
I0714 21:03:14.589627 13347 net.cpp:399] inception_5b/3x3 -> inception_5b/3x3
I0714 21:03:14.597524 13343 net.cpp:141] Setting up inception_5b/3x3
I0714 21:03:14.597553 13343 net.cpp:148] Top shape: 10 384 7 7 (188160)
I0714 21:03:14.597559 13343 net.cpp:156] Memory required for data: 545789440
I0714 21:03:14.597573 13343 layer_factory.hpp:77] Creating layer inception_5b/relu_3x3
I0714 21:03:14.597585 13343 net.cpp:91] Creating Layer inception_5b/relu_3x3
I0714 21:03:14.597594 13343 net.cpp:425] inception_5b/relu_3x3 <- inception_5b/3x3
I0714 21:03:14.597604 13343 net.cpp:386] inception_5b/relu_3x3 -> inception_5b/3x3 (in-place)
I0714 21:03:14.598486 13343 net.cpp:141] Setting up inception_5b/relu_3x3
I0714 21:03:14.598505 13343 net.cpp:148] Top shape: 10 384 7 7 (188160)
I0714 21:03:14.598511 13343 net.cpp:156] Memory required for data: 546542080
I0714 21:03:14.598516 13343 layer_factory.hpp:77] Creating layer inception_5b/5x5_reduce
I0714 21:03:14.598536 13343 net.cpp:91] Creating Layer inception_5b/5x5_reduce
I0714 21:03:14.598543 13343 net.cpp:425] inception_5b/5x5_reduce <- inception_5a/output_inception_5a/output_0_split_2
I0714 21:03:14.598557 13343 net.cpp:399] inception_5b/5x5_reduce -> inception_5b/5x5_reduce
I0714 21:03:14.602902 13347 net.cpp:141] Setting up inception_5b/3x3
I0714 21:03:14.602928 13347 net.cpp:148] Top shape: 10 384 7 7 (188160)
I0714 21:03:14.602936 13347 net.cpp:156] Memory required for data: 545789440
I0714 21:03:14.602947 13347 layer_factory.hpp:77] Creating layer inception_5b/relu_3x3
I0714 21:03:14.602957 13347 net.cpp:91] Creating Layer inception_5b/relu_3x3
I0714 21:03:14.602965 13347 net.cpp:425] inception_5b/relu_3x3 <- inception_5b/3x3
I0714 21:03:14.602974 13347 net.cpp:386] inception_5b/relu_3x3 -> inception_5b/3x3 (in-place)
I0714 21:03:14.604849 13347 net.cpp:141] Setting up inception_5b/relu_3x3
I0714 21:03:14.604868 13347 net.cpp:148] Top shape: 10 384 7 7 (188160)
I0714 21:03:14.604874 13347 net.cpp:156] Memory required for data: 546542080
I0714 21:03:14.604881 13347 layer_factory.hpp:77] Creating layer inception_5b/5x5_reduce
I0714 21:03:14.604902 13347 net.cpp:91] Creating Layer inception_5b/5x5_reduce
I0714 21:03:14.604910 13347 net.cpp:425] inception_5b/5x5_reduce <- inception_5a/output_inception_5a/output_0_split_2
I0714 21:03:14.604923 13347 net.cpp:399] inception_5b/5x5_reduce -> inception_5b/5x5_reduce
I0714 21:03:14.605993 13343 net.cpp:141] Setting up inception_5b/5x5_reduce
I0714 21:03:14.606016 13343 net.cpp:148] Top shape: 10 48 7 7 (23520)
I0714 21:03:14.606024 13343 net.cpp:156] Memory required for data: 546636160
I0714 21:03:14.606035 13343 layer_factory.hpp:77] Creating layer inception_5b/relu_5x5_reduce
I0714 21:03:14.606045 13343 net.cpp:91] Creating Layer inception_5b/relu_5x5_reduce
I0714 21:03:14.606053 13343 net.cpp:425] inception_5b/relu_5x5_reduce <- inception_5b/5x5_reduce
I0714 21:03:14.606065 13343 net.cpp:386] inception_5b/relu_5x5_reduce -> inception_5b/5x5_reduce (in-place)
I0714 21:03:14.606401 13343 net.cpp:141] Setting up inception_5b/relu_5x5_reduce
I0714 21:03:14.606415 13343 net.cpp:148] Top shape: 10 48 7 7 (23520)
I0714 21:03:14.606420 13343 net.cpp:156] Memory required for data: 546730240
I0714 21:03:14.606426 13343 layer_factory.hpp:77] Creating layer inception_5b/5x5
I0714 21:03:14.606443 13343 net.cpp:91] Creating Layer inception_5b/5x5
I0714 21:03:14.606451 13343 net.cpp:425] inception_5b/5x5 <- inception_5b/5x5_reduce
I0714 21:03:14.606467 13343 net.cpp:399] inception_5b/5x5 -> inception_5b/5x5
I0714 21:03:14.610303 13347 net.cpp:141] Setting up inception_5b/5x5_reduce
I0714 21:03:14.610327 13347 net.cpp:148] Top shape: 10 48 7 7 (23520)
I0714 21:03:14.610333 13347 net.cpp:156] Memory required for data: 546636160
I0714 21:03:14.610345 13347 layer_factory.hpp:77] Creating layer inception_5b/relu_5x5_reduce
I0714 21:03:14.610359 13347 net.cpp:91] Creating Layer inception_5b/relu_5x5_reduce
I0714 21:03:14.610366 13347 net.cpp:425] inception_5b/relu_5x5_reduce <- inception_5b/5x5_reduce
I0714 21:03:14.610376 13347 net.cpp:386] inception_5b/relu_5x5_reduce -> inception_5b/5x5_reduce (in-place)
I0714 21:03:14.610826 13347 net.cpp:141] Setting up inception_5b/relu_5x5_reduce
I0714 21:03:14.610841 13347 net.cpp:148] Top shape: 10 48 7 7 (23520)
I0714 21:03:14.610846 13347 net.cpp:156] Memory required for data: 546730240
I0714 21:03:14.610852 13347 layer_factory.hpp:77] Creating layer inception_5b/5x5
I0714 21:03:14.610883 13347 net.cpp:91] Creating Layer inception_5b/5x5
I0714 21:03:14.610891 13347 net.cpp:425] inception_5b/5x5 <- inception_5b/5x5_reduce
I0714 21:03:14.610903 13347 net.cpp:399] inception_5b/5x5 -> inception_5b/5x5
I0714 21:03:14.618147 13343 net.cpp:141] Setting up inception_5b/5x5
I0714 21:03:14.618188 13343 net.cpp:148] Top shape: 10 128 7 7 (62720)
I0714 21:03:14.618201 13343 net.cpp:156] Memory required for data: 546981120
I0714 21:03:14.618221 13343 layer_factory.hpp:77] Creating layer inception_5b/relu_5x5
I0714 21:03:14.618239 13343 net.cpp:91] Creating Layer inception_5b/relu_5x5
I0714 21:03:14.618252 13343 net.cpp:425] inception_5b/relu_5x5 <- inception_5b/5x5
I0714 21:03:14.618275 13343 net.cpp:386] inception_5b/relu_5x5 -> inception_5b/5x5 (in-place)
I0714 21:03:14.618757 13343 net.cpp:141] Setting up inception_5b/relu_5x5
I0714 21:03:14.618782 13343 net.cpp:148] Top shape: 10 128 7 7 (62720)
I0714 21:03:14.618793 13343 net.cpp:156] Memory required for data: 547232000
I0714 21:03:14.618803 13343 layer_factory.hpp:77] Creating layer inception_5b/pool
I0714 21:03:14.618819 13343 net.cpp:91] Creating Layer inception_5b/pool
I0714 21:03:14.618830 13343 net.cpp:425] inception_5b/pool <- inception_5a/output_inception_5a/output_0_split_3
I0714 21:03:14.618846 13343 net.cpp:399] inception_5b/pool -> inception_5b/pool
I0714 21:03:14.619144 13343 net.cpp:141] Setting up inception_5b/pool
I0714 21:03:14.619166 13343 net.cpp:148] Top shape: 10 832 7 7 (407680)
I0714 21:03:14.619174 13343 net.cpp:156] Memory required for data: 548862720
I0714 21:03:14.619184 13343 layer_factory.hpp:77] Creating layer inception_5b/pool_proj
I0714 21:03:14.619205 13343 net.cpp:91] Creating Layer inception_5b/pool_proj
I0714 21:03:14.619215 13343 net.cpp:425] inception_5b/pool_proj <- inception_5b/pool
I0714 21:03:14.619236 13343 net.cpp:399] inception_5b/pool_proj -> inception_5b/pool_proj
I0714 21:03:14.619822 13347 net.cpp:141] Setting up inception_5b/5x5
I0714 21:03:14.619842 13347 net.cpp:148] Top shape: 10 128 7 7 (62720)
I0714 21:03:14.619848 13347 net.cpp:156] Memory required for data: 546981120
I0714 21:03:14.619859 13347 layer_factory.hpp:77] Creating layer inception_5b/relu_5x5
I0714 21:03:14.619880 13347 net.cpp:91] Creating Layer inception_5b/relu_5x5
I0714 21:03:14.619890 13347 net.cpp:425] inception_5b/relu_5x5 <- inception_5b/5x5
I0714 21:03:14.619900 13347 net.cpp:386] inception_5b/relu_5x5 -> inception_5b/5x5 (in-place)
I0714 21:03:14.620378 13347 net.cpp:141] Setting up inception_5b/relu_5x5
I0714 21:03:14.620395 13347 net.cpp:148] Top shape: 10 128 7 7 (62720)
I0714 21:03:14.620401 13347 net.cpp:156] Memory required for data: 547232000
I0714 21:03:14.620407 13347 layer_factory.hpp:77] Creating layer inception_5b/pool
I0714 21:03:14.620417 13347 net.cpp:91] Creating Layer inception_5b/pool
I0714 21:03:14.620424 13347 net.cpp:425] inception_5b/pool <- inception_5a/output_inception_5a/output_0_split_3
I0714 21:03:14.620439 13347 net.cpp:399] inception_5b/pool -> inception_5b/pool
I0714 21:03:14.620724 13347 net.cpp:141] Setting up inception_5b/pool
I0714 21:03:14.620738 13347 net.cpp:148] Top shape: 10 832 7 7 (407680)
I0714 21:03:14.620743 13347 net.cpp:156] Memory required for data: 548862720
I0714 21:03:14.620748 13347 layer_factory.hpp:77] Creating layer inception_5b/pool_proj
I0714 21:03:14.620786 13347 net.cpp:91] Creating Layer inception_5b/pool_proj
I0714 21:03:14.620795 13347 net.cpp:425] inception_5b/pool_proj <- inception_5b/pool
I0714 21:03:14.620806 13347 net.cpp:399] inception_5b/pool_proj -> inception_5b/pool_proj
I0714 21:03:14.628907 13343 net.cpp:141] Setting up inception_5b/pool_proj
I0714 21:03:14.628933 13343 net.cpp:148] Top shape: 10 128 7 7 (62720)
I0714 21:03:14.628940 13343 net.cpp:156] Memory required for data: 549113600
I0714 21:03:14.628952 13343 layer_factory.hpp:77] Creating layer inception_5b/relu_pool_proj
I0714 21:03:14.628968 13343 net.cpp:91] Creating Layer inception_5b/relu_pool_proj
I0714 21:03:14.628976 13343 net.cpp:425] inception_5b/relu_pool_proj <- inception_5b/pool_proj
I0714 21:03:14.628985 13343 net.cpp:386] inception_5b/relu_pool_proj -> inception_5b/pool_proj (in-place)
I0714 21:03:14.630084 13343 net.cpp:141] Setting up inception_5b/relu_pool_proj
I0714 21:03:14.630102 13343 net.cpp:148] Top shape: 10 128 7 7 (62720)
I0714 21:03:14.630107 13343 net.cpp:156] Memory required for data: 549364480
I0714 21:03:14.630113 13343 layer_factory.hpp:77] Creating layer inception_5b/output
I0714 21:03:14.630128 13343 net.cpp:91] Creating Layer inception_5b/output
I0714 21:03:14.630136 13343 net.cpp:425] inception_5b/output <- inception_5b/1x1
I0714 21:03:14.630144 13343 net.cpp:425] inception_5b/output <- inception_5b/3x3
I0714 21:03:14.630151 13343 net.cpp:425] inception_5b/output <- inception_5b/5x5
I0714 21:03:14.630157 13343 net.cpp:425] inception_5b/output <- inception_5b/pool_proj
I0714 21:03:14.630165 13343 net.cpp:399] inception_5b/output -> inception_5b/output
I0714 21:03:14.630180 13347 net.cpp:141] Setting up inception_5b/pool_proj
I0714 21:03:14.630203 13347 net.cpp:148] Top shape: 10 128 7 7 (62720)
I0714 21:03:14.630208 13347 net.cpp:156] Memory required for data: 549113600
I0714 21:03:14.630219 13347 layer_factory.hpp:77] Creating layer inception_5b/relu_pool_proj
I0714 21:03:14.630229 13347 net.cpp:91] Creating Layer inception_5b/relu_pool_proj
I0714 21:03:14.630236 13347 net.cpp:425] inception_5b/relu_pool_proj <- inception_5b/pool_proj
I0714 21:03:14.630249 13347 net.cpp:386] inception_5b/relu_pool_proj -> inception_5b/pool_proj (in-place)
I0714 21:03:14.630272 13343 net.cpp:141] Setting up inception_5b/output
I0714 21:03:14.630286 13343 net.cpp:148] Top shape: 10 1024 7 7 (501760)
I0714 21:03:14.630292 13343 net.cpp:156] Memory required for data: 551371520
I0714 21:03:14.630297 13343 layer_factory.hpp:77] Creating layer pool5/7x7_s1
I0714 21:03:14.630311 13343 net.cpp:91] Creating Layer pool5/7x7_s1
I0714 21:03:14.630317 13343 net.cpp:425] pool5/7x7_s1 <- inception_5b/output
I0714 21:03:14.630328 13343 net.cpp:399] pool5/7x7_s1 -> pool5/7x7_s1
I0714 21:03:14.631111 13343 net.cpp:141] Setting up pool5/7x7_s1
I0714 21:03:14.631125 13343 net.cpp:148] Top shape: 10 1024 1 1 (10240)
I0714 21:03:14.631130 13343 net.cpp:156] Memory required for data: 551412480
I0714 21:03:14.631136 13343 layer_factory.hpp:77] Creating layer pool5/drop_7x7_s1
I0714 21:03:14.631157 13343 net.cpp:91] Creating Layer pool5/drop_7x7_s1
I0714 21:03:14.631163 13343 net.cpp:425] pool5/drop_7x7_s1 <- pool5/7x7_s1
I0714 21:03:14.631175 13343 net.cpp:386] pool5/drop_7x7_s1 -> pool5/7x7_s1 (in-place)
I0714 21:03:14.631237 13347 net.cpp:141] Setting up inception_5b/relu_pool_proj
I0714 21:03:14.631253 13347 net.cpp:148] Top shape: 10 128 7 7 (62720)
I0714 21:03:14.631259 13347 net.cpp:156] Memory required for data: 549364480
I0714 21:03:14.631264 13347 layer_factory.hpp:77] Creating layer inception_5b/output
I0714 21:03:14.631274 13347 net.cpp:91] Creating Layer inception_5b/output
I0714 21:03:14.631273 13343 net.cpp:141] Setting up pool5/drop_7x7_s1
I0714 21:03:14.631281 13347 net.cpp:425] inception_5b/output <- inception_5b/1x1
I0714 21:03:14.631286 13343 net.cpp:148] Top shape: 10 1024 1 1 (10240)
I0714 21:03:14.631289 13347 net.cpp:425] inception_5b/output <- inception_5b/3x3
I0714 21:03:14.631291 13343 net.cpp:156] Memory required for data: 551453440
I0714 21:03:14.631297 13347 net.cpp:425] inception_5b/output <- inception_5b/5x5
I0714 21:03:14.631297 13343 layer_factory.hpp:77] Creating layer loss3/classifier
I0714 21:03:14.631309 13347 net.cpp:425] inception_5b/output <- inception_5b/pool_proj
I0714 21:03:14.631325 13347 net.cpp:399] inception_5b/output -> inception_5b/output
I0714 21:03:14.631330 13343 net.cpp:91] Creating Layer loss3/classifier
I0714 21:03:14.631337 13343 net.cpp:425] loss3/classifier <- pool5/7x7_s1
I0714 21:03:14.631350 13343 net.cpp:399] loss3/classifier -> loss3/classifier
I0714 21:03:14.631463 13347 net.cpp:141] Setting up inception_5b/output
I0714 21:03:14.631476 13347 net.cpp:148] Top shape: 10 1024 7 7 (501760)
I0714 21:03:14.631481 13347 net.cpp:156] Memory required for data: 551371520
I0714 21:03:14.631486 13347 layer_factory.hpp:77] Creating layer pool5/7x7_s1
I0714 21:03:14.631499 13347 net.cpp:91] Creating Layer pool5/7x7_s1
I0714 21:03:14.631505 13347 net.cpp:425] pool5/7x7_s1 <- inception_5b/output
I0714 21:03:14.631513 13347 net.cpp:399] pool5/7x7_s1 -> pool5/7x7_s1
I0714 21:03:14.634321 13347 net.cpp:141] Setting up pool5/7x7_s1
I0714 21:03:14.634341 13347 net.cpp:148] Top shape: 10 1024 1 1 (10240)
I0714 21:03:14.634346 13347 net.cpp:156] Memory required for data: 551412480
I0714 21:03:14.634352 13347 layer_factory.hpp:77] Creating layer pool5/drop_7x7_s1
I0714 21:03:14.634367 13347 net.cpp:91] Creating Layer pool5/drop_7x7_s1
I0714 21:03:14.634374 13347 net.cpp:425] pool5/drop_7x7_s1 <- pool5/7x7_s1
I0714 21:03:14.634382 13347 net.cpp:386] pool5/drop_7x7_s1 -> pool5/7x7_s1 (in-place)
I0714 21:03:14.635123 13347 net.cpp:141] Setting up pool5/drop_7x7_s1
I0714 21:03:14.635146 13347 net.cpp:148] Top shape: 10 1024 1 1 (10240)
I0714 21:03:14.635152 13347 net.cpp:156] Memory required for data: 551453440
I0714 21:03:14.635159 13347 layer_factory.hpp:77] Creating layer loss3/classifier
I0714 21:03:14.635179 13347 net.cpp:91] Creating Layer loss3/classifier
I0714 21:03:14.635186 13347 net.cpp:425] loss3/classifier <- pool5/7x7_s1
I0714 21:03:14.635198 13347 net.cpp:399] loss3/classifier -> loss3/classifier
I0714 21:03:14.644095 13343 net.cpp:141] Setting up loss3/classifier
I0714 21:03:14.644127 13343 net.cpp:148] Top shape: 10 1000 (10000)
I0714 21:03:14.644134 13343 net.cpp:156] Memory required for data: 551493440
I0714 21:03:14.644146 13343 layer_factory.hpp:77] Creating layer prob
I0714 21:03:14.644166 13343 net.cpp:91] Creating Layer prob
I0714 21:03:14.644176 13343 net.cpp:425] prob <- loss3/classifier
I0714 21:03:14.644186 13343 net.cpp:399] prob -> prob
I0714 21:03:14.645803 13343 net.cpp:141] Setting up prob
I0714 21:03:14.645828 13343 net.cpp:148] Top shape: 10 1000 (10000)
I0714 21:03:14.645833 13343 net.cpp:156] Memory required for data: 551533440
I0714 21:03:14.645839 13343 net.cpp:219] prob does not need backward computation.
I0714 21:03:14.645846 13343 net.cpp:219] loss3/classifier does not need backward computation.
I0714 21:03:14.645851 13343 net.cpp:219] pool5/drop_7x7_s1 does not need backward computation.
I0714 21:03:14.645856 13343 net.cpp:219] pool5/7x7_s1 does not need backward computation.
…
